ddpg/checkpoints/ddpg_pher/actor.pth (torch, 281844 bytes, 6 tensors)

fc1.weight f4 [256, 12]
0	0x3ec2ae4a	0.38023597
1	0x3e2593c1	0.16169645
2	0x3e1eb37c	0.15498155
3	0x3e979b59	0.29610708
4	0xbe800eac	-0.25011194
5	0x3dc02ca7	0.09383517
6	0x3ce1c3d4	0.027559198
7	0xbe1639d8	-0.14670503
8	0x3e2faa60	0.17154837
9	0x3e36c4ec	0.17848557
10	0xbebc4ef2	-0.3677898
11	0xbe229a62	-0.15879205
12	0x3e9b0366	0.3027603
13	0xbcd8513d	-0.026405925
14	0xbdd26be3	-0.10274484
15	0x3e293a88	0.16526234
16	0x3e4c9d7c	0.1998195
17	0x3e3ca384	0.18421751
18	0x3ed14fe8	0.40881276
19	0x3dc2b52d	0.09507213
20	0xbe987af9	-0.2978132
21	0xbe9f2010	-0.3107915
22	0x3d68d65c	0.056845054
23	0xbd285ba8	-0.041103035
24	0xbe099851	-0.1343701
25	0x3eaf25d1	0.3420854
26	0x3e688c14	0.22709686
27	0xbcb8fcee	-0.022581544
28	0xbe235c0d	-0.15953083
29	0xbe7efee0	-0.24901915
30	0x3e495704	0.196621
31	0x3e2eb972	0.1706293
32	0xbd892ff7	-0.06698602
33	0xbd960b2c	-0.073263496
34	0xbe16b66f	-0.1471803
35	0x3e70779d	0.23483129
36	0xbe212974	-0.1573847
37	0xbe6ad532	-0.2293289
38	0x3d62f7db	0.055412155
39	0xbe2a6ba2	-0.16642621
40	0x3d6b478e	0.057441287
41	0xbdf86532	-0.121286765
42	0xbd28c8dc	-0.04120718
43	0x3e2e654e	0.17030832
44	0xbe9c49b0	-0.3052497
45	0x3eba71c1	0.36414912
46	0x3e7fdb2c	0.24985951
47	0x3ee94bf5	0.45565763
48	0x3e9b9655	0.30388132
49	0xbdb2b0b3	-0.08725109
50	0xbdf73aaa	-0.12071736
51	0xbb0d348e	-0.0021546218
52	0xbd4419c8	-0.04787615
53	0xbe98bcbb	-0.2983149
54	0x3eace2d9	0.3376682
55	0xbe90bfc1	-0.28271297
56	0x3e7ac23e	0.2448816
57	0xbe2d8e62	-0.16948846
58	0x3e9f841c	0.3115548
59	0x3e453ef4	0.19262296
60	0x3ee84f17	0.4537284
61	0xbe371af8	-0.17881382
62	0x3dce82de	0.10083555
63	0x3e3b2ab6	0.18278012
64	0xbd8a01a2	-0.06738593
65	0xbdedae9b	-0.11605569
66	0x3e91c87e	0.28473276
67	0x3d13afd4	0.036056355
68	0x3e7b8cce	0.24565431
69	0xbdc2867c	-0.09498307
70	0x3e7ac48f	0.24489044
71	0xbe5bfc00	-0.21482849
72	0x3e1c3ba4	0.15257126
73	0x3eb2e7bc	0.34942424
74	0xbd4ccf8f	-0.05000263
75	0x3dfeb500	0.12436867
76	0x3e6d01df	0.23145245
77	0xbe840f8f	-0.2579312
78	0x3e525847	0.20541488
79	0x3e177a7f	0.14792822
80	0x3e37e910	0.1796
81	0xbe58ee29	-0.21184601
82	0xbe971a3c	-0.29512203
83	0xbd91a17d	-0.071108796
84	0xbc4de0fc	-0.0125658475
85	0x3d53a422	0.0516702
86	0x3e6126ff	0.21987532
87	0x3de15b2f	0.1100372
88	0xbe1b47b8	-0.15164077
89	0xbdc80535	-0.09766618
90	0xbe1443b4	-0.14478952
91	0x3e1a9681	0.15096475
92	0xbe16f14d	-0.14740486
93	0xbe3cf304	-0.18452078
94	0x3e526b81	0.20548822
95	0x3cdcba8c	0.026944421
96	0x3e8492db	0.25893292
97	0x3d89982d	0.06718478
98	0x3d58ef9b	0.05296288
99	0xbdaa6344	-0.08319715
100	0xbd763ffb	-0.06011961
101	0x3e613dcf	0.21996234
102	0x3cf649aa	0.030064423
103	0x3e511ce0	0.20421171
104	0x3e20a87a	0.15689269
105	0xbe4a681b	-0.19766276
106	0x3e8e8994	0.2783934
107	0xbee8141c	-0.45327842
108	0xbdc4786b	-0.095932804
109	0x3d6a008a	0.05712942
110	0xbe819418	-0.253083
111	0xbe0a47e2	-0.13503984
112	0x3e0494d1	0.12947394
113	0xbc8cc661	-0.017184438
114	0x3e8f306b	0.27966627
115	0x3df16fae	0.11788879
116	0xbeb48e18	-0.3526466
117	0xbeb440aa	-0.35205585
118	0xbea525b7	-0.32255337
119	0x3eee2d0f	0.46518752
120	0x3e12038a	0.14259163
121	0xbd4b6575	-0.049657304
122	0xbe71b324	-0.23603493
123	0xbdd03d13	-0.10167899
124	0x3e7d2b75	0.24723609
125	0x3de5fa7c	0.11229417
126	0x3eee0e20	0.46495152
127	0x3d917f22	0.07104327
128	0x3e8a5780	0.27019882
129	0xbef9347d	-0.48672858
130	0xbe26e623	-0.16298728
131	0xbe68f79d	-0.22750707
132	0xbdfd29f1	-0.12361515
133	0x3ea0f651	0.31437925
134	0x3d7bcd72	0.061475225
135	0xbd29871e	-0.041388623
136	0xbe6a5991	-0.2288573
137	0xbe5d2bb9	-0.2159871
138	0xbe767200	-0.24066925
139	0x3e475ecc	0.19469756
140	0xbdfa7ce6	-0.12230854
141	0x3e9084cf	0.28226325
142	0xbedbac18	-0.42904735
143	0x3d99e351	0.0751406
144	0x3ea4deaf	0.32201144
145	0xbe2438a2	-0.16037229
146	0xbe108398	-0.14112699
147	0xbe95aa0b	-0.29231295
148	0xbdfc5e66	-0.123226926
149	0x3e2a3296	0.1662086
150	0x3ea6c9b5	0.32575765
151	0xbda19551	-0.07889808
152	0x3cefd965	0.029278466
153	0x3e80eb1d	0.25179377
154	0x3e735d3f	0.2376604
155	0x3eb34ea3	0.35020933
156	0xbe8202fc	-0.25392902
157	0xbddee59b	-0.108836375
158	0x3d244084	0.04010059
159	0xbd7f695c	-0.062356338
160	0xbe4d4153	-0.2004445
161	0x3d805037	0.062653
162	0xbe4e943a	-0.20173731
163	0x3cad13ec	0.021127664
164	0x3e658a5a	0.22416058
165	0x3d81abbe	0.06331585
166	0xbc60f509	-0.013730296
167	0x3ec93014	0.39294493
168	0x3c87a301	0.016557219
169	0x3d2e970a	0.04262451
170	0x3d2dd461	0.04243887
171	0x3e345c75	0.17613395
172	0x3d0852ea	0.033282198
173	0xbe108be2	-0.14115861
174	0x3e99d4f3	0.3004528
175	0xbeae5129	-0.34046295
176	0xbe52432e	-0.2053344
177	0xbee06043	-0.43823442
178	0x3e97d1f1	0.2965236
179	0xbdb94d09	-0.090478964
180	0x3e6c98ce	0.23105165
181	0xbd33ad8c	-0.04386668
182	0xbbf02b9e	-0.0073294183
183	0x3e8f4b63	0.27987203
184	0xbea0851f	-0.31351563
185	0xbd741927	-0.0595943
186	0xbe82f883	-0.25580224
187	0x3e9292ba	0.28627568
188	0x3dd840fa	0.10559268
189	0xbdd8f9e5	-0.105945386
190	0x3c8f1dc9	0.017470257
191	0x3e956e48	0.291857
192	0xbe23f4b5	-0.16011317
193	0xbe405693	-0.18783025
194	0xbe43146a	-0.19050756
195	0xbd3828e5	-0.044960875
196	0xbe267a94	-0.16257697
197	0x3e32ef76	0.1747416
198	0x3e1f0ca0	0.1553216
199	0x3e187db7	0.14891706
200	0x3cf17811	0.029476197
201	0xbeed3ede	-0.46337026
202	0xbe4cdd73	-0.20006351
203	0x3e0f4c0d	0.13993855
204	0x3ce6b934	0.028164484
205	0xbe571551	-0.21004225
206	0x3e80057b	0.2500418
207	0xbe8b0f9e	-0.27160352
208	0xbe6108d4	-0.21976024
209	0xbe59e8d8	-0.21280229
210	0x3e9ae99c	0.30256355
211	0x3e948f31	0.29015496
212	0x3eedd9c6	0.4645521
213	0xbee3a80c	-0.44464147
214	0xbed540c6	-0.4165098
215	0xbe0fc04d	-0.140382
216	0x3decaaa6	0.11555986
217	0x3e8c6089	0.274174
218	0x3debcf3d	0.11514137
219	0xbdaa9a63	-0.08330228
220	0x3ea83d68	0.3285935
221	0x3e86eb30	0.2635131
222	0xbe0611d8	-0.13092744
223	0xbdf4ac04	-0.11946872
224	0x3d894c85	0.06704048
225	0x3ea04d7f	0.31309125
226	0xbe7b0b14	-0.24515945
227	0x3d99386b	0.07481464
228	0x3e3ce440	0.18446445
229	0xbecfac61	-0.40561202
230	0xbe129db4	-0.14317971
231	0xbe631a73	-0.22178058
232	0x3eac1264	0.3360778
233	0xbe8b5d4f	-0.27219626
234	0xbe97190e	-0.29511303
235	0x3d2369c9	0.039895806
236	0x3e8c3ea9	0.27391556
237	0x3e9dbb09	0.3080676
238	0x3e0eb012	0.13934353
239	0xbde7dfac	-0.11321959
240	0xbc851c91	-0.016248973
241	0x3e29e3b7	0.16590773
242	0x3e7798fd	0.24179454
243	0xbc8b0035	-0.016967872
244	0x3d841bc7	0.064506106
245	0xbe0d5a5e	-0.13804004
246	0x3eea3afa	0.4574812
247	0xbe8fc3c7	-0.28079054
248	0x3e5941fa	0.21216574
249	0xbeae6963	-0.3406478
250	0x3dec0ffb	0.115264855
251	0x3e1b67a2	0.15176252
252	0x3e845bf3	0.25851402
253	0x3cc89129	0.02448328
254	0x3d2854ca	0.041096486
255	0x3cb6119e	0.022225197

fc1.bias f4 [256]
0	0x3d9f53c0	0.07779646
1	0x3e91b2d9	0.28456762
2	0xbe442acf	-0.19156955
3	0x3dea178a	0.11430271
4	0xbdcb838d	-0.09937201
5	0x3e512e59	0.20427836
6	0x3e9acfc1	0.3023663
7	0xbdf53c6b	-0.119744144
8	0x3e012b10	0.12614083
9	0x3e5313f8	0.20613086
10	0x3e85e065	0.26147762
11	0x3db50001	0.08837891
12	0x3d7d21f5	0.061799962
13	0xbe249c8e	-0.16075346
14	0x3e0603fc	0.13087457
15	0xbe59ab22	-0.21256688
16	0xbd9b1534	-0.075724036
17	0xbd871ff3	-0.06597891
18	0xbd9b93c2	-0.07596542
19	0xbd9db396	-0.07700269
20	0x3d459604	0.04823877
21	0x3df22402	0.11823274
22	0x3d492b8f	0.049113806
23	0xbe484e63	-0.19561152
24	0xbced8d1a	-0.028997947
25	0x3d58bbb3	0.05291338
26	0xbcf13bd3	-0.029447472
27	0x3d65e6a7	0.05612817
28	0x3e90a574	0.2825123
29	0xbdc8ecf8	-0.09810823
30	0xbdb4998b	-0.088183485
31	0xbccf5fe7	-0.025314284
32	0x3e92d509	0.28678158
33	0xbe1db192	-0.15399769
34	0xbda9ee42	-0.08297397
35	0xbd8dbd41	-0.06920863
36	0xbcd45806	-0.02592088
37	0x3d33f9a8	0.043939263
38	0x3e71a4c0	0.23598003
39	0x3e8fd808	0.28094506
40	0x3e76ea48	0.24112809
41	0xbe145b96	-0.14488062
42	0xbe41f27f	-0.18940161
43	0xbdf85e4b	-0.1212736
44	0xbe4aaa6b	-0.19791572
45	0xbe179d09	-0.14805998
46	0xbdb8e54c	-0.0902811
47	0xb9b741f2	-0.00034953613
48	0x3d528433	0.051395606
49	0x3e94a788	0.29034066
50	0x3e6b2076	0.22961602
51	0x3e3098d2	0.17245796
52	0x3e8370c8	0.25671983
53	0x3e0abd4b	0.13548772
54	0x3d7284e5	0.05920877
55	0xbe07329b	-0.13202898
56	0x3e24e626	0.1610342
57	0x3e7b9924	0.24570137
58	0x3d809931	0.06279219
59	0x3c04120e	0.008060945
60	0xbcf65925	-0.030071804
61	0x3e03dad3	0.12876444
62	0x3de2ae12	0.110683575
63	0x3e0fb067	0.14032136
64	0x3bdef289	0.006803815
65	0x3e30f749	0.17281832
66	0x3d13e434	0.036106303
67	0x3e3c0177	0.18359934
68	0x3dbc4b8d	0.09194098
69	0x3a902f5c	0.0011000442
70	0x3e7af9e4	0.24509388
71	0x3e6d677c	0.23184007
72	0x3e08eb99	0.13371123
73	0x3e2c979d	0.16854711
74	0xbcc86d68	-0.024466231
75	0x3e17fae5	0.14841802
76	0x3e76c1b8	0.24097335
77	0x3e2a96d6	0.16659102
78	0x3dc80477	0.097664766
79	0x3a22ccd0	0.0006210329
80	0xbddb977a	-0.10722251
81	0xbdbb8f11	-0.09158147
82	0xbe2bebe0	-0.16789198
83	0xbbe5d806	-0.0070142774
84	0x3e45f57b	0.19331925
85	0x3e8d0a6b	0.2754701
86	0x3d966ee7	0.07345372
87	0x3dd3e799	0.10346908
88	0xbd6b7429	-0.057483826
89	0x3e15d64d	0.1463253
90	0x3d8ef58d	0.06980429
91	0x3e807b3b	0.25094017
92	0xbd824e75	-0.06362621
93	0xbe394066	-0.18090972
94	0x3de68b50	0.112570405
95	0xbbb0b338	-0.0053924583
96	0x3d8fbda9	0.07018597
97	0xbe306723	-0.17226844
98	0x3e3cbb15	0.18430741
99	0xbe820d65	-0.25400844
100	0x3e37e7c9	0.17959513
101	0xbe480e09	-0.19536604
102	0xbd98f132	-0.07467879
103	0xbb45c3f2	-0.0030176607
104	0x3d942e57	0.07235401
105	0x3e159b38	0.14609993
106	0x3d9ad437	0.07560008
107	0x3e7752c6	0.2415267
108	0xbd4ded4b	-0.05027513
109	0x3d49911b	0.04921065
110	0x3df2e602	0.11860277
111	0x3e59a6ec	0.21255082
112	0x3cafee0e	0.021475818
113	0x3e0c07ff	0.13674925
114	0x3e31a4ce	0.17348024
115	0x3e08be03	0.13353734
116	0x3e694496	0.2278007
117	0xbe4c0421	-0.1992345
118	0x3dc217b2	0.09477176
119	0x3dd90442	0.10596515
120	0xbde303ff	-0.110847466
121	0x3b88c80b	0.0041742376
122	0x3e411e12	0.18859127
123	0x3e7ec339	0.24879159
124	0x3d941cad	0.07232032
125	0x3e549baa	0.20762506
126	0x3e4d3d9d	0.20043035
127	0x3c3a06ac	0.01135413
128	0xbe5679f0	-0.20944953
129	0x3d937972	0.07200898
130	0x3e80562f	0.25065753
131	0x3d3aa7b7	0.0455701
132	0x3e5c2583	0.21498685
133	0x3dd82004	0.105529815
134	0xbd4e3c60	-0.050350547
135	0x3e8f8b78	0.28036094
136	0xbe052113	-0.13000898
137	0x3deb511a	0.11490078
138	0x3dcfc3be	0.10144757
139	0x3da603b3	0.08106174
140	0x3e2b2493	0.1671317
141	0x3d72d449	0.059284482
142	0x3d3263a8	0.04355207
143	0x3e87d2c6	0.26527995
144	0xbdee02dd	-0.1162164
145	0x3e07b653	0.13253145
146	0xbd98bb35	-0.07457582
147	0x3b80549d	0.0039163367
148	0x3e3fe684	0.18740278
149	0xbc0f4331	-0.008744047
150	0x3dcf7984	0.10130599
151	0x3e34c1c8	0.17652047
152	0xbe25cec4	-0.16192156
153	0x3e82ec36	0.2557084
154	0xbd832549	-0.06403596
155	0x3e3b1f37	0.18273626
156	0x3d6ed785	0.058311004
157	0xbaa10c0f	-0.0012286919
158	0x3e3b695c	0.1830191
159	0xbe0e4b4f	-0.13895915
160	0xbe4805d2	-0.1953347
161	0x3c7d095e	0.015444128
162	0x3e7598a5	0.2398401
163	0x3e30d360	0.17268133
164	0x3e75ff56	0.24023184
165	0x3d6f4e72	0.05842442
166	0x3c2ced3b	0.010554607
167	0xbe3bebb7	-0.18351637
168	0x3dece167	0.115664296
169	0xbde8561d	-0.1134455
170	0xbe2da634	-0.16957933
171	0x3e8dbd21	0.27683356
172	0x3e4174ae	0.18892166
173	0x3e7fb651	0.24971892
174	0xbe365db6	-0.17809185
175	0x3e70cd52	0.23515823
176	0x3e11fe01	0.14257051
177	0x3e2da373	0.16956882
178	0xbda5b948	-0.0809198
179	0x3da2915b	0.079378806
180	0x3e02f743	0.12789635
181	0xbac23eda	-0.0014819757
182	0xbd585a4f	-0.0528205
183	0x3a8bd37d	0.0010667887
184	0x3d9cd54b	0.0765787
185	0xbc339b5c	-0.0109623335
186	0x3d4551f6	0.048173867
187	0xbe2094fb	-0.15681832
188	0xbe24e967	-0.16104661
189	0x3e242479	0.16029538
190	0x3e866c8d	0.26254693
191	0xbdb9f960	-0.09080768
192	0x3d5deeca	0.054182805
193	0xbe45bbfc	-0.19309992
194	0xbbc1b0d4	-0.005910972
195	0xbbb282bd	-0.005447714
196	0x3e926b4d	0.2859749
197	0x3e6246bc	0.22097296
198	0x3e0eb077	0.13934503
199	0x3e258bd2	0.16166618
200	0xbe63770b	-0.2221338
201	0x3e8bd7cc	0.27313077
202	0x3d8d7a5f	0.06908106
203	0x3cc9768b	0.024592659
204	0x3d224790	0.03961903
205	0x3d852627	0.065014176
206	0xbe0b0456	-0.13575873
207	0x3e897adb	0.26851544
208	0x3e88c45b	0.26712307
209	0x3d5a1c2f	0.053249534
210	0x3e4823d5	0.19544919
211	0xbdb1e884	-0.08686927
212	0xbd2cd423	-0.042194497
213	0xbdcd3819	-0.100204654
214	0x3e2de76e	0.16982815
215	0xbe133a0a	-0.14377609
216	0x3e8671ec	0.2625879
217	0x3d9dc3d1	0.07703365
218	0xba2f3093	-0.00066829583
219	0xbe35756b	-0.17720573
220	0x3e0c4cc6	0.13701162
221	0x3def576b	0.116865955
222	0x3dd44159	0.103640266
223	0x3d489373	0.048968744
224	0xbe3812cb	-0.17975919
225	0x3e26fc74	0.1630724
226	0x3d37c505	0.044865627
227	0xbe133fa6	-0.14379749
228	0x3e193efb	0.14965431
229	0x3e66cc7e	0.22538945
230	0x3de340ab	0.11096319
231	0xbcccda7d	-0.025006527
232	0x3e57057b	0.20998184
233	0xbc9348c1	-0.017979028
234	0x3e5f0592	0.21779469
235	0xbe81babb	-0.25337777
236	0x3e0fa481	0.14027597
237	0x3d94c24b	0.07263621
238	0x3e0c7dd1	0.1371987
239	0x3e092e61	0.13396598
240	0xbdb959c0	-0.090503216
241	0x3d1df9d7	0.038568344
242	0x3dfb12fe	0.12259482
243	0x3dc82ab3	0.09773769
244	0x3d848ad8	0.06471795
245	0x3ceecc1b	0.02915006
246	0x3e1fcbd7	0.15605102
247	0x3d128b1d	0.0357772
248	0x3e1fd6b1	0.15609242
249	0xbbf4d15d	-0.007471247
250	0x3b30fb14	0.0027005123
251	0xbe07ebff	-0.13273619
252	0x3d7ad317	0.061236467
253	0x3e50100d	0.20318623
254	0x3e93bade	0.28853506
255	0x3e04f4cb	0.12984006

fc2.weight f4 [256, 256]
0	0x3d389dea	0.045072474
1	0xbc06b85e	-0.0082226675
2	0xbd40902c	-0.047012493
3	0xbe0cc0b8	-0.13745391
4	0x3d2120ff	0.03933811
5	0x3d66ce7e	0.05634927
6	0x3d11ba05	0.035577793
7	0x3d6493de	0.05580508
8	0x3db528c0	0.08845663
9	0xbd2f6533	-0.04282112
10	0x3d397bea	0.04528419
11	0xbd9b6aca	-0.07588728
12	0xbc883b56	-0.016629856
13	0xbd6cadd0	-0.057782948
14	0x3d136f9b	0.035995107
15	0x3cc945c0	0.024569392
16	0x3ddafe67	0.10693055
17	0x3e0a8ee8	0.13531077
18	0x3cf1bb51	0.029508265
19	0x3c646b3b	0.013941581
20	0x3aeaea0a	0.0017922532
21	0x3cea863e	0.028628465
22	0x3d6eb3b0	0.058276832
23	0x3cc92ede	0.02455848
24	0xbd97a3b7	-0.07404273
25	0x3d349ca3	0.044094693
26	0x3da0befb	0.07848927
27	0x3bc7ac40	0.006093532
28	0xbba4fdb8	-0.0050351284
29	0x3dc36c34	0.095421225
30	0xbdc8e775	-0.09809772
31	0x3df429b1	0.119220145
32	0x3d5df177	0.054185357
33	0x3d254c6f	0.040356096
34	0x3d100542	0.035161264
35	0xbde66c32	-0.11251105
36	0x3d535123	0.05159105
37	0x3e0ebfdd	0.13940378
38	0xbd5bc523	-0.0536548
39	0x3cd506f9	0.026004301
40	0xbc0d0a0b	-0.008608351
41	0xbdd29345	-0.10281996
42	0x3b9d683e	0.0048036864
43	0xbd10e104	-0.03537084
44	0xbd5e3c62	-0.054256804
45	0xbb636d4f	-0.0034702604
46	0x3cf21d21	0.029554905
47	0xbd1125f2	-0.035436578
48	0xbdfedb86	-0.124442145
49	0x3d65ea10	0.056131423
50	0x3cc3fba8	0.02392371
51	0xbd5d887a	-0.054085232
52	0xbc849e6e	-0.016188826
53	0xbc2e4e20	-0.010638744
54	0x3d016eae	0.031599693
55	0x3c086f38	0.008327298
56	0x3d43caa1	0.047800664
57	0xbd627bb4	-0.055293754
58	0xbc9b4357	-0.018953009
59	0x3b3b1e92	0.0028552157
60	0xbde8a43e	-0.11359452
61	0xbd15bf7f	-0.036559578
62	0x3e72eff7	0.23724352
63	0x3d39c377	0.045352425
64	0x3df560c2	0.11981346
65	0x3c825c4f	0.015913157
66	0x3e0ac761	0.1355262
67	0xbca021b1	-0.019547315
68	0x3d3e6083	0.04647876
69	0xbcf298c6	-0.029613864
70	0x3d1a2628	0.037634045
71	0x3d04c0ef	0.03241056
72	0xbc903e36	-0.01760779
73	0xbc272a34	-0.010202933
74	0xbd161a3c	-0.036646113
75	0xbd5739f4	-0.052545503
76	0xbbc7b9b7	-0.006095137
77	0x3d8b7fb4	0.06811467
78	0x3d8d2fb3	0.068938635
79	0xbcf31648	-0.02967371
80	0xbd0024ab	-0.03128497
81	0x3d93f627	0.07224684
82	0x3cb3785a	0.021907974
83	0x3d09012e	0.03344839
84	0x3d750bd7	0.059825744
85	0x3d963208	0.073337615
86	0xbc5240e7	-0.012832857
87	0x3d3638fc	0.04448794
88	0x3d08517f	0.033280846
89	0xbbfd6d4c	-0.0077339765
90	0x3dd53765	0.10410956
91	0x3c086030	0.008323714
92	0x3dd54318	0.10413188
93	0x3c13afb6	0.009014061
94	0x3d8e7010	0.06954968
95	0xbd59973e	-0.05312275
96	0x3dffae7f	0.12484454
97	0x3d989ab3	0.074513815
98	0x3b699236	0.0035640127
99	0x3d359583	0.04433204
100	0x3da0724f	0.07834303
101	0xbd48bd8e	-0.0490089
102	0x3e4f79d1	0.20261313
103	0xbd511939	-0.051049445
104	0xbd320b3e	-0.043467753
105	0xbc2d7dda	-0.010589087
106	0x3c786328	0.015160359
107	0xbd1e0f3f	-0.03858876
108	0xbad97af2	-0.0016592427
109	0xbc86a55f	-0.016436277
110	0xbc37fca7	-0.011229671
111	0x3d4709da	0.04859338
112	0x3c69b983	0.014265421
113	0x3d373243	0.044725668
114	0x3d44004a	0.04785184
115	0x3d92e888	0.07173258
116	0xbc9ff8c0	-0.019527793
117	0xbdc88e42	-0.097927585
118	0xbd0c32f2	-0.034228273
119	0x3d7c6934	0.061623767
120	0x3dbdcaf1	0.092672236
121	0x3d8f64f2	0.07001676
122	0x3cf08c63	0.029363817
123	0x3cd2dbf5	0.02573965
124	0x3ce3005f	0.027710138
125	0x3d41216f	0.047151025
126	0xbcf94251	-0.03042713
127	0xbc29ff37	-0.010375789
128	0xb933e25b	-0.00017155094
129	0x3c4ccab2	0.012499498
130	0x3b6c2ee9	0.0036038703
131	0x3e0eed43	0.13957696
132	0xbdc86b5d	-0.09786103
133	0xbc816862	-0.015796844
134	0xbc4ac356	-0.012375673
135	0x3d48d769	0.049033556
136	0x3c9b7248	0.018975392
137	0x3d0162ae	0.03158825
138	0x3ca73497	0.020410819
139	0xbcca8f60	-0.02472657
140	0x3c7cc938	0.015428834
141	0xbbb4dbce	-0.005519367
142	0xbe14c748	-0.14529145
143	0x3cf0a47c	0.029375307
144	0x3da47006	0.08029179
145	0xbd290947	-0.041268613
146	0x3e2b239d	0.16712804
147	0x3c831456	0.016000908
148	0xbcf1f868	-0.029537395
149	0x3d067da7	0.032834675
150	0xb77297bb	-1.44596515e-05
151	0x3d99b26e	0.07504736
152	0xbd1cb29b	-0.03825627
153	0x3cabf243	0.020989543
154	0xbd19e444	-0.037571207
155	0xbd60eefc	-0.054915413
156	0x3c5cdd0e	0.013480438
157	0x3c2f03fe	0.010682104
158	0xbdab1769	-0.083540745
159	0x3d2c567d	0.04207467
160	0x3d27ae25	0.04093756
161	0xbd2465e2	-0.040136226
162	0x387f72ab	6.090353e-05
163	0xbc0a2f8c	-0.008434188
164	0xbd4b380a	-0.04961399
165	0xbc9aa822	-0.018879
166	0xbd6dba89	-0.058039222
167	0xbd90033b	-0.07031866
168	0xbd95b637	-0.07310145
169	0x3a0ea212	0.00054410205
170	0xbdde1934	-0.10844651
171	0xbbd35c68	-0.0064502247
172	0xbcf92f19	-0.030417966
173	0xbabacf8c	-0.0014252528
174	0x3d31ccfb	0.043408375
175	0x3d735ee5	0.05941667
176	0x3cd45a58	0.025921986
177	0xbd870c31	-0.06594122
178	0xbcccc1cc	-0.024994753
179	0x3d788c15	0.060680468
180	0xbb53ab3b	-0.0032298106
181	0x3bbbcd2d	0.005731246
182	0xbc7d0967	-0.015444136
183	0xbd218974	-0.039437726
184	0x3db0cf5a	0.08633299
185	0xbdc2c26a	-0.09509738
186	0x3d91efbf	0.07125806
187	0x3b471233	0.0030375838
188	0x3d431e36	0.047636233
189	0x3c8ca81d	0.017170006
190	0xbcb0a167	-0.021561338
191	0x3db62a09	0.08894736
192	0xbdd786ba	-0.10523744
193	0xbb4c0acd	-0.0031134367
194	0x3d49826e	0.049196653
195	0x3d89c72f	0.067274444
196	0x3b3bfb90	0.0028683878
197	0x3c0b6e9e	0.00851026
198	0xbdb73497	-0.089455776
199	0x3d47d225	0.048784394
200	0x3d7dd236	0.06196805
201	0xbd38f411	-0.045154635
202	0xbd6b03da	-0.05737672
203	0x3e0347df	0.12820385
204	0x3e8f5475	0.27994123
205	0x3b187cb5	0.002326769
206	0xb9af6268	-0.0003345192
207	0x3d003b49	0.03130654
208	0xbda0409c	-0.07824823
209	0x3e267d46	0.16258726
210	0xbd971c34	-0.07378426
211	0x3d83f7f7	0.0644378
212	0x3ce8c100	0.028412342
213	0xbb1c612b	-0.0023861628
214	0x3d79be4d	0.0609725
215	0x3d6e977b	0.05824993
216	0x3d49d1c9	0.049272332
217	0xbcff81e2	-0.031189863
218	0x3e0cf938	0.13766944
219	0xbd67b3a4	-0.056567803
220	0xbce35f2b	-0.02775534
221	0xbd5b8b0e	-0.05359941
222	0x3d1018c7	0.03517988
223	0x3ce7ce61	0.028296651
224	0x3e1517b7	0.14559828
225	0xbc2cc7f9	-0.010545724
226	0xbd6bafa0	-0.057540536
227	0xbd110a57	-0.03541025
228	0x3d112898	0.035439104
229	0x3d6e0938	0.05811426
230	0xbdd32172	-0.103091136
231	0x3cd55c7c	0.026045077
232	0x3d23d422	0.039997227
233	0xbcf70c84	-0.030157335
234	0x3c94355e	0.018091854
235	0xbbe3871e	-0.0069435975
236	0xbde9ad74	-0.11410037
237	0xbd545c46	-0.05184581
238	0x3d9eee4c	0.07760295
239	0x3cec0fe3	0.02881617
240	0x3d949ab9	0.072560735
241	0x3e2e0a9f	0.16996239
242	0x3d43c09f	0.04779112
243	0x3d9419fd	0.07231519
244	0x3e4b0f56	0.19830069
245	0xbd5c4ae5	-0.053782362
246	0x3d8a33f9	0.06748194
247	0xbcd20e3d	-0.025641555
248	0xbce50514	-0.027956523
249	0x3d42bc5f	0.047542926
250	0x3df00a18	0.11720675
251	0x3c6b1075	0.014347185
252	0x3d9e47fb	0.07728573
253	0xbb0aeacc	-0.0021197079
254	0x3d4111f9	0.04713628
255	0xbc7a9f82	-0.015296819

fc2.bias f4 [256]
0	0x3d0e8bf2	0.03480143
1	0xbc1577b8	-0.009122781
2	0xbd26b041	-0.040695433
3	0x3d394da8	0.045240074
4	0xbc7b7d66	-0.015349722
5	0xbcb7cfb6	-0.022437911
6	0xbc751695	-0.014958997
7	0x3d2b1b9e	0.041774385
8	0xbcd20aec	-0.025639974
9	0xbc528b0f	-0.012850537
10	0xbd71d943	-0.059045088
11	0x3d1b6259	0.03793559
12	0x3d2a0f09	0.041518245
13	0x3c7fae84	0.015605573
14	0x3ca52fcf	0.020164398
15	0xbd4e8587	-0.05042031
16	0x3d10b19e	0.03532564
17	0x3b834c06	0.0040068654
18	0xbd32bd70	-0.043637693
19	0x3c84acc7	0.016195668
20	0xbd271414	-0.040790632
21	0x3c0d791d	0.008634833
22	0x3cb0d318	0.021585032
23	0x3a66ff17	0.0008811815
24	0xbc448ca5	-0.011996423
25	0x3d83554a	0.06412752
26	0x3cec02f6	0.028810006
27	0x3d504413	0.05084617
28	0x3d43102b	0.04762284
29	0xbd134eb5	-0.035963733
30	0xbc28e612	-0.010308759
31	0xbd2a8f6a	-0.041640677
32	0x3cb51b9c	0.022107892
33	0xbbc4331a	-0.005987537
34	0x3d44d591	0.048055235
35	0xbd026fd1	-0.031844918
36	0x3d645d4b	0.055753034
37	0x3d66cace	0.056345753
38	0xbd0642b0	-0.032778442
39	0x3d2c08a6	0.042000435
40	0x3d6df51d	0.058095086
41	0x3ca8d11a	0.02060752
42	0xbcbfbf6e	-0.02340671
43	0xbd512ea6	-0.051069878
44	0x3c6c6452	0.014428215
45	0x3c4c0bfe	0.012454031
46	0xbcb01870	-0.021496028
47	0xbcad886f	-0.02118322
48	0x3d7ac1c1	0.061219934
49	0x3d8892a4	0.066685945
50	0xbb911944	-0.0044280607
51	0xbd533483	-0.05156375
52	0x3d091a58	0.03347239
53	0xbd211ed2	-0.039336033
54	0x3c420c44	0.011843745
55	0xbd4f79d8	-0.05065331
56	0xbbb2871d	-0.0054482357
57	0xbb7631fa	-0.003756641
58	0x3d1d7e1f	0.038450357
59	0xbbf688d4	-0.0075236354
60	0xbc97c072	-0.018524382
61	0xbb15632b	-0.0022794704
62	0x3d40b6eb	0.047049444
63	0x3ca55206	0.020180713
64	0xbcdc69db	-0.026905945
65	0x3d80d647	0.0629087
66	0xbd425c8d	-0.047451545
67	0xbc77b3b6	-0.01511853
68	0xba3c2808	-0.0007177596
69	0xbc85253a	-0.016253103
70	0xbc70f07e	-0.014705775
71	0xbd0a6b1a	-0.033793546
72	0x3c2fd185	0.010731106
73	0x3c8d4d38	0.017248735
74	0xbc9c9c57	-0.019117517
75	0x3baa1760	0.005190775
76	0xbc970629	-0.018435555
77	0x3d258c64	0.04041709
78	0xbd3d8e61	-0.04627836
79	0x3c8ad02f	0.016944973
80	0x3d036469	0.03207818
81	0x3d324b40	0.043528795
82	0xbcb72a58	-0.022359058
83	0x3d50bae7	0.050959494
84	0x3c65f1cf	0.014034702
85	0x3b902085	0.004398408
86	0x3b9f2820	0.004857078
87	0x3d60bec1	0.054869417
88	0xbd6c4b92	-0.057689257
89	0xbcc1f710	-0.023677379
90	0x3d349f96	0.044097506
91	0xbcc817e0	-0.024425447
92	0xbd18488d	-0.037178565
93	0x3af8f84a	0.0018994894
94	0xbd05dc49	-0.032680783
95	0xbd27f7d0	-0.041007817
96	0x3d79b515	0.06096371
97	0xbc6a80a1	-0.014312894
98	0x3d84fd86	0.06493668
99	0xbd27f8f5	-0.04100891
100	0x3d485689	0.04891065
101	0x3d73af35	0.059493262
102	0xbcdfbecb	-0.027312657
103	0x3d8362f3	0.064153574
104	0x3cd4e61d	0.025988633
105	0xbb915618	-0.004435312
106	0x3d6bf87c	0.05761002
107	0xbd0fca32	-0.035104938
108	0xbd17e3a4	-0.03708233
109	0xbd3a1092	-0.04542596
110	0x3d252447	0.0403178
111	0x3bf37b70	0.0074304864
112	0xbd0b6d04	-0.034039512
113	0x3d5f74b6	0.054554664
114	0xbb8071c9	-0.0039198142
115	0x3c54cba6	0.012988007
116	0x3c8733ba	0.016504157
117	0xbcd74b64	-0.026281066
118	0x3d115681	0.035482887
119	0xbd30a550	-0.043126404
120	0xbd34ebd2	-0.04417021
121	0xbcef946f	-0.029245583
122	0x3d149b0a	0.03628067
123	0xbd06b2e9	-0.032885466
124	0xbd1e088c	-0.03858237
125	0x3d72a4c7	0.059239175
126	0x3c0bb4b5	0.008526971
127	0xbc8f0879	-0.017460095
128	0xbce6bb3f	-0.028165458
129	0x3d91bf33	0.071165465
130	0xbc97eb0c	-0.018544696
131	0x3c03e26a	0.008049587
132	0x3d681cd1	0.056668106
133	0xbd3572c5	-0.044298906
134	0x3ce59f4a	0.028030057
135	0x3d25ba97	0.04046115
136	0x3c885675	0.016642788
137	0x3c3eb645	0.011640136
138	0xbc6237dc	-0.013807263
139	0x3cd3bef8	0.025847897
140	0x3d7a6f9d	0.0611416
141	0x3d04ea20	0.03244984
142	0xbc8163aa	-0.015794594
143	0x3c427b45	0.01187021
144	0xbc5c3b28	-0.013441838
145	0x3cf8fdd5	0.030394474
146	0x3d4ebcd9	0.050473068
147	0x3cb99d75	0.02265809
148	0xbacced15	-0.0015634621
149	0x3c2903d0	0.01031585
150	0xbd1ebc96	-0.03875407
151	0xbc38ab97	-0.011271379
152	0xbc5b0269	-0.013367274
153	0x3d111ebd	0.035429705
154	0x3cac1441	0.021005752
155	0x3d27dcd6	0.04098209
156	0xbcea1de7	-0.028578712
157	0x3c2e864c	0.010652136
158	0xbc29eb20	-0.010371
159	0x3ba6e2e4	0.0050929654
160	0x3d1c0e1c	0.038099393
161	0xbc39a5a0	-0.011330992
162	0xbcc6a71c	-0.024249606
163	0x3c110b93	0.008852857
164	0xbbde98a6	-0.0067930995
165	0x3d47f851	0.048820797
166	0xbb5f1da5	-0.003404477
167	0x3d1e59a7	0.038659718
168	0x3d65a5d4	0.05606635
169	0x3ca1735c	0.019708328
170	0x3d12148a	0.03566412
171	0xba9dd0ea	-0.0012040411
172	0x3d272d85	0.040814895
173	0x3c9c3bcb	0.01907148
174	0x3d14c888	0.036324054
175	0x3d94dc6e	0.07268606
176	0xbc61572a	-0.013753692
177	0x3d47938a	0.04872469
178	0x3d9a87bd	0.07545421
179	0xbcf66de5	-0.030081699
180	0x3c931610	0.017954856
181	0x3b9cf44f	0.004789866
182	0xbd42eaed	-0.047587324
183	0x3c3a28f0	0.011362299
184	0x3d82c389	0.063849516
185	0x3d664de2	0.05622662
186	0xbc435b41	-0.011923612
187	0xbd345cd0	-0.044033825
188	0x3d463a1e	0.04839527
189	0x3d73d556	0.059529625
190	0x3c6b24c1	0.0143520245
191	0x3d2f13a6	0.042743348
192	0x3c5a6ba6	0.013331329
193	0x3c8e23f5	0.01735113
194	0xbba67a2f	-0.0050804834
195	0x3d89f0af	0.0673536
196	0x3d51700f	0.051132258
197	0x3d51b405	0.05119707
198	0x3d03c1bd	0.032167185
199	0x3d7397dc	0.059470996
200	0xbd1a72f3	-0.03770728
201	0x3d13d403	0.036090862
202	0xbd245166	-0.04011669
203	0x3d9c0be0	0.076194525
204	0x3ccf2cfd	0.025290007
205	0xbce638cf	-0.02810326
206	0xbb484be6	-0.0030562817
207	0xba9f0927	-0.0012133465
208	0x3d1241e4	0.03570737
209	0x3c25a4dd	0.010110107
210	0xbcf07e66	-0.029357146
211	0x3ce3e10e	0.027817275
212	0xbd5e6d42	-0.054303415
213	0xbca885e0	-0.02057165
214	0xbc788800	-0.015169144
215	0x3d5f7fd4	0.054565266
216	0xbd01d944	-0.03170134
217	0xbc0555b1	-0.008138106
218	0x3bffcaee	0.0078061735
219	0x3d138c62	0.03602255
220	0x3d857989	0.065173216
221	0x3bd16e76	0.006391342
222	0x3c88eb58	0.016713783
223	0x3d700bb3	0.058604907
224	0xbce743b0	-0.028230518
225	0xbc84403a	-0.016143907
226	0x3c9de777	0.01927541
227	0x3b5a7d87	0.003333898
228	0x3c8f5a9f	0.017499266
229	0xbd0a26dd	-0.03372847
230	0xbc2d716f	-0.010586127
231	0x3c4d522f	0.012531801
232	0xbb0e20be	-0.0021686996
233	0xbd1ce2ae	-0.038302116
234	0x3d562f57	0.05229124
235	0xbc9aa77c	-0.01887869
236	0x3c14886f	0.009065731
237	0x3d93f7fc	0.07225034
238	0xbd510d8b	-0.051038306
239	0x3c9b8cbe	0.01898801
240	0x3cca8d9e	0.024725731
241	0x3d520afd	0.05128001
242	0xbc3c3e58	-0.011489473
243	0x3c963761	0.018336954
244	0xbd40ce84	-0.04707195
245	0xbcbe9c60	-0.023267925
246	0x3d91f1fc	0.07126233
247	0x3c456cdc	0.01204988
248	0xbd1f3272	-0.038866468
249	0xbd00fafc	-0.031489357
250	0xbd31406a	-0.04327432
251	0xbc0fcba9	-0.008776584
252	0xbd040765	-0.032233614
253	0xbd06af29	-0.03288189
254	0xbb0e07bc	-0.002167209
255	0xbd464830	-0.048408687

pi.weight f4 [3, 256]
0	0xbe085800	-0.1331482
1	0xbe2a22ad	-0.1661479
2	0x3e1dedda	0.15422764
3	0xbe0ba191	-0.13635851
4	0x3db11734	0.08647004
5	0x3daac5a3	0.083384775
6	0xbd6992ef	-0.057024892
7	0x3c65274b	0.013986419
8	0xbe5f534e	-0.21809122
9	0xbda999ff	-0.082813255
10	0xbd35ac1b	-0.044353586
11	0x3c4266d3	0.0118653355
12	0x3da0ebb6	0.07857458
13	0xbd1bd605	-0.0380459
14	0x3d8d6896	0.06904714
15	0x3c7fc584	0.015611056
16	0xbe226c6d	-0.15861674
17	0xbdfc470c	-0.123182386
18	0xbe56a94d	-0.2096302
19	0x3c0955e1	0.0083822915
20	0xbe0fe855	-0.14053471
21	0xbb842208	-0.004032377
22	0xbdf3ac2a	-0.11898072
23	0x3e1452b6	0.14484677
24	0xbb19bde4	-0.002345913
25	0xbd8ea14b	-0.06964358
26	0xbe44c9ef	-0.19217657
27	0xbe761e53	-0.24035005
28	0xbdc3f322	-0.09567858
29	0xbe05243f	-0.13002108
30	0x3dd701a1	0.104983576
31	0x3cf8e43c	0.030382268
32	0x3db0ae69	0.08627016
33	0xbda57a0c	-0.08079919
34	0xbe030d30	-0.12798
35	0x3dba9c0a	0.09111793
36	0x3ce45391	0.027871879
37	0x3d58d158	0.05293402
38	0xbda45738	-0.08024448
39	0xbdcce59b	-0.10004731
40	0x3dca63f1	0.098823436
41	0x3c9db396	0.019250672
42	0xbdb524e6	-0.088449284
43	0x3c9285ea	0.01788612
44	0xbc44b779	-0.012006634
45	0x3db7edda	0.089809135
46	0xbdb8178f	-0.089888684
47	0x3d35b7a5	0.04436459
48	0xbdf90b3c	-0.12160346
49	0x3dd54088	0.10412699
50	0xbd3f8936	-0.046761714
51	0x3c14ddb4	0.009086061
52	0xbe1661e6	-0.14685783
53	0x3ddccb62	0.1078098
54	0xbcbfc201	-0.023407938
55	0xbb56a9f4	-0.0032755109
56	0xbe4b10ac	-0.19830579
57	0xbe3886e5	-0.18020208
58	0x3da2ea86	0.07954888
59	0x3d0fafbd	0.035079706
60	0x3dcfafe8	0.10140973
61	0xbda51f86	-0.08062653
62	0xbdd6b780	-0.104842186
63	0xbdb7ab54	-0.08968225
64	0x3dddf1a0	0.10837102
65	0x3e1a50bf	0.15069865
66	0xbd3a4392	-0.045474596
67	0x3d90c2d8	0.070684135
68	0xbd72c500	-0.059269905
69	0x3d8a7e88	0.06762415
70	0xbd9264de	-0.07148145
71	0xbd9efe86	-0.0776339
72	0xbd35a5b9	-0.0443475
73	0x3d60b892	0.05486352
74	0x3dfb0c1d	0.1225817
75	0xbc624641	-0.013810695
76	0xbd291888	-0.04128316
77	0x3e0807e5	0.13284262
78	0xbd17c64e	-0.037054352
79	0x3de48c65	0.11159591
80	0xbded5a1f	-0.11589455
81	0x3c61bb94	0.013777632
82	0xbd9de0a6	-0.07708864
83	0xbdaf1ec9	-0.08550794
84	0xbe20b960	-0.15695715
85	0xbca5bef5	-0.020232657
86	0x3c675766	0.0141199585
87	0xbbef81e8	-0.007309187
88	0xbe2d7c65	-0.16941984
89	0xbd0ce7e2	-0.03440083
90	0xbb21157a	-0.0024579451
91	0xbdface7c	-0.12246415
92	0x3da6c0bf	0.08142232
93	0xbe392542	-0.18080619
94	0xbe5b26e8	-0.2140156
95	0xbddf8841	-0.1091466
96	0xbd1f15aa	-0.03883902
97	0xbe799119	-0.24371757
98	0x3e2e765f	0.17037342
99	0x3dee8533	0.116464995
100	0xbda488ba	-0.08033891
101	0x3cf207a1	0.029544653
102	0xbdc025e7	-0.09382229
103	0x3d98fd74	0.07470217
104	0xbdbd94b6	-0.0925688
105	0xbdb7907e	-0.089631066
106	0xbded459b	-0.11585542
107	0xbae37080	-0.0017352253
108	0xbe021161	-0.12701942
109	0xbdb9cbfc	-0.0907211
110	0x3d8926e8	0.06696874
111	0x3dff92b3	0.124791525
112	0xbe243977	-0.16037546
113	0xbe128ace	-0.14310762
114	0x3d38db4f	0.045131024
115	0xbc369d06	-0.011145836
116	0x3d95fa9a	0.07323189
117	0xbd125dca	-0.035733975
118	0xbe7d638d	-0.24745007
119	0xbd32bda6	-0.043637894
120	0xbd47ab4a	-0.04874734
121	0xbdbe670f	-0.092970006
122	0x3e1909e2	0.14945176
123	0x3d1f19b8	0.038842887
124	0x3d1cb743	0.03826071
125	0x3dcbbb4e	0.09947835
126	0xbdaefdf4	-0.085445315
127	0x3db32dae	0.08748947
128	0x3d3b2956	0.045693718
129	0xbe079319	-0.13239707
130	0xbdee5020	-0.116363764
131	0xbe248277	-0.16065393
132	0xbd871e35	-0.065975584
133	0xbb96f936	-0.004607345
134	0xbd6c1b98	-0.057643503
135	0xbd6d2d85	-0.05790474
136	0x3de57488	0.11203867
137	0x3c928815	0.017887155
138	0xbddfd438	-0.109291494
139	0x3dbc6300	0.0919857
140	0xbe345379	-0.17609967
141	0x3da6e002	0.08148195
142	0xbe2f11c0	-0.17096615
143	0x3d5e514c	0.05427675
144	0x3d39f1dd	0.045396674
145	0xbcfda74c	-0.030963562
146	0x3e211ad8	0.15732896
147	0x3cc8911f	0.024483262
148	0xbe1a6ebd	-0.15081306
149	0x3d2af956	0.04174169
150	0x3d75b75a	0.05998931
151	0x3e396e4c	0.18108481
152	0x3e1bffa8	0.15234244
153	0xbe158c66	-0.14604339
154	0x3cfc2fb7	0.030784471
155	0x3da00d96	0.07815091
156	0x3df303e9	0.1186598
157	0xbe104806	-0.14089975
158	0x3c2ae34b	0.010430167
159	0xbc1586a5	-0.00912634
160	0xbc56d8af	-0.013113185
161	0x3e002d53	0.1251729
162	0xbd9929b2	-0.07478656
163	0xbd886059	-0.06659002
164	0x3d4f523c	0.050615534
165	0x3d66cdc6	0.056348585
166	0xbd9bda2c	-0.07609972
167	0xbdd9172c	-0.10600123
168	0xbdeb6426	-0.11493711
169	0x3d3b167d	0.045675743
170	0xbd135f28	-0.03597942
171	0x3e182185	0.14856537
172	0xbe228813	-0.1587222
173	0xbd845a6b	-0.06462558
174	0xbdbb5b28	-0.09148246
175	0x3d70a7ed	0.058753897
176	0xbd9ffeae	-0.07812248
177	0xbdf7a864	-0.12092665
178	0xbd6336cd	-0.055472184
179	0xbe31a6c4	-0.17348772
180	0xbdbd0553	-0.09229531
181	0xbe01cb83	-0.1267529
182	0xbd4c5de3	-0.049894225
183	0x3cc55b25	0.024091313
184	0xbe2f06e9	-0.1709248
185	0xbdc179f6	-0.0944709
186	0x3e0c964a	0.13729206
187	0x3d417bc1	0.04723716
188	0xbb0d5962	-0.002156817
189	0xbe10594b	-0.14096563
190	0xbddb4dc5	-0.10708193
191	0x3e0c569c	0.13704914
192	0x3e08278a	0.13296333
193	0xbe1c500e	-0.15264913
194	0xbd5a7a27	-0.05333915
195	0xbda86a0a	-0.0822335
196	0x3dd48f27	0.10378867
197	0x3d36dab2	0.044642158
198	0x3d2436b6	0.04009124
199	0x3ddfc29e	0.10925792
200	0xbd2341bb	-0.039857607
201	0xbdf914b0	-0.12162149
202	0x3d87aa11	0.066242345
203	0x3e0e420a	0.1389238
204	0xbe1c33ac	-0.15254086
205	0xbe12c965	-0.14334638
206	0x3da20af4	0.079122454
207	0x3d40ddb6	0.04708644
208	0x3d2c7d6c	0.0421118
209	0xbe0b8c97	-0.1362785
210	0x3e0989f8	0.13431537
211	0x3cf5da85	0.030011425
212	0x3befc422	0.007317082
213	0xbd9489f0	-0.07252872
214	0xbe19daba	-0.15024844
215	0x3ddc472a	0.10755761
216	0x3c3fbce7	0.011702753
217	0xbdea60d0	-0.11444247
218	0xbd9d4ef8	-0.07681078
219	0xbdad70db	-0.08468791
220	0xbda8d479	-0.08243651
221	0x3df76640	0.120800495
222	0x3ddcac78	0.10775083
223	0xbe328632	-0.17434004
224	0x3c94e8f3	0.018177485
225	0x3d24de7c	0.04025124
226	0x3db53743	0.08848431
227	0x3e28cbfa	0.16484061
228	0x3e122639	0.14272393
229	0xbde9f8d6	-0.11424415
230	0x3d187bd6	0.037227474
231	0x3daa7a32	0.08324088
232	0x3dbfb82b	0.09361299
233	0xbcad7248	-0.021172658
234	0xbe3175bb	-0.17330067
235	0xbdefa311	-0.11701024
236	0xbda0513f	-0.078279965
237	0xbb99b214	-0.004690418
238	0xbda837e5	-0.08213786
239	0xbe53f78b	-0.20699899
240	0xbe22b7a5	-0.15890367
241	0x3d4c0f7f	0.049819466
242	0x3d706432	0.058689304
243	0x3be80540	0.007080704
244	0x3d0bc808	0.03412631
245	0x3e1be99c	0.15225834
246	0x3dc9f531	0.0986122
247	0x3de5482b	0.111954056
248	0x3d3388fa	0.043831803
249	0xbc3880a0	-0.011261135
250	0xbe3fd91c	-0.18735164
251	0xbdce2eed	-0.10067544
252	0xbbf8fd1e	-0.0075985333
253	0x3bf5ee94	0.0075052474
254	0xbc076cfa	-0.008265728
255	0xbe510f4b	-0.2041599

pi.bias f4 [3]
0	0x3c24f8b4	0.010069061
1	0xbd5f571b	-0.05452643
2	0x3c8912d2	0.016732607
