ddpg/checkpoints/ddpg_pher/critic.pth (torch, 282878 bytes, 5 tensors)

fc1.weight f4 [256, 15]
0	0x3e5da0bb	0.21643345
1	0xbdb12ce7	-0.086511426
2	0x3d0fd453	0.035114598
3	0x3e0f9ed2	0.14025429
4	0xbe949cea	-0.29025966
5	0xbd16c59d	-0.036809552
6	0x3cdc24ce	0.026873019
7	0xbcc752f2	-0.024331544
8	0x3d346735	0.04404374
9	0xbedf0c74	-0.43564188
10	0x3edb5121	0.42835334
11	0xbe3361d9	-0.17517795
12	0x3dc3e907	0.09565931
13	0x3db8253d	0.08991478
14	0x3e22cdab	0.15898769
15	0x3f3b98b5	0.7327989
16	0xbe5e1186	-0.21686372
17	0xbe224593	-0.15846853
18	0xbd38c191	-0.045106474
19	0x3e01f218	0.12690008
20	0x3cffe627	0.031237675
21	0x3f1bfd87	0.6093373
22	0x3d83f05f	0.064423315
23	0x3dfd32ab	0.1236318
24	0xbf08b1ab	-0.533961
25	0x3e5265ea	0.2054669
26	0xbd1e0ae8	-0.03858462
27	0x3e224760	0.1584754
28	0xbc96d493	-0.01841191
29	0x3c1dbba2	0.009627255
30	0x3ec30b12	0.38094383
31	0x3ea8c794	0.32964766
32	0x3d5d90b7	0.05409309
33	0x3d881768	0.066450894
34	0x3df2c6a8	0.11854297
35	0xbddbbb19	-0.107290454
36	0x3c22ea40	0.009943545
37	0x3e202ada	0.15641347
38	0x3d06a6e1	0.032873992
39	0xbef83dc3	-0.4848462
40	0xbefa2764	-0.48858178
41	0xbf07bf29	-0.5302606
42	0xbe0b0b1f	-0.13578461
43	0x3daefff9	0.08544917
44	0xba064f1e	-0.0005123484
45	0xbe1c5267	-0.15265809
46	0xbe364b3d	-0.17802139
47	0xbe4e7687	-0.20162402
48	0x3e885ef1	0.26634935
49	0x3cc2a928	0.0237623
50	0xbe83fae3	-0.2577735
51	0xbe9136ae	-0.2836203
52	0xba295f14	-0.0006461006
53	0xbf00b85e	-0.5028132
54	0xbd33cdd7	-0.043897476
55	0x3f0d8c6a	0.5529238
56	0xbd152e28	-0.03642097
57	0xbe0b535b	-0.13606016
58	0xbd856295	-0.06512944
59	0xbe9c88b7	-0.30573055
60	0xbeae6026	-0.3405773
61	0xbd6e91a5	-0.058244366
62	0xbe2984ad	-0.16554518
63	0x3e418963	0.18900065
64	0x3e07a2ea	0.1324574
65	0xbcf834c9	-0.030298607
66	0xbec34502	-0.38138586
67	0xbe26ed9e	-0.16301581
68	0xbe0a403b	-0.13501064
69	0xbf172b88	-0.590508
70	0x3e8ea406	0.27859515
71	0xbeff1c26	-0.49826163
72	0x3cc497f9	0.023998247
73	0x3dec0473	0.11524286
74	0x3ebe2c40	0.37143135
75	0x3e8a45a3	0.27006254
76	0x3eb6f88e	0.35736507
77	0xbed4534e	-0.41469806
78	0xbe0be96d	-0.13663264
79	0x3e5f6d45	0.21819027
80	0x3c9ff3bc	0.019525401
81	0xbde3e097	-0.111268215
82	0x3d1a2a9a	0.037638284
83	0xbeb70bcd	-0.3575119
84	0xbf267c2a	-0.6503321
85	0xbe927d01	-0.28610995
86	0x3de6c0a3	0.11267211
87	0x3e825c1d	0.25460902
88	0xbd8d4995	-0.068988
89	0xbdce3cfb	-0.10070225
90	0x3e86ceb1	0.26329568
91	0x3eaf3269	0.34218147
92	0x3eb83b64	0.3598281
93	0x3e2cf17b	0.16888992
94	0x3dc325f8	0.09528726
95	0x3d760348	0.060061723
96	0x3e9d8df5	0.30772367
97	0xbde0db1a	-0.1097929
98	0x3cdc33c9	0.026880162
99	0x3f3a5a82	0.72794354
100	0x3e19c5aa	0.15016809
101	0xbe023186	-0.12714204
102	0x3e0a0328	0.13477767
103	0x3e6f914a	0.23395267
104	0x3e063638	0.1310662
105	0xbe722d4c	-0.23650092
106	0xbea4a3b2	-0.3215614
107	0x3d339429	0.04384247
108	0xbd4785bd	-0.048711527
109	0xbcc324bc	-0.023821227
110	0x3dc79292	0.09744753
111	0xbe64eff4	-0.2235716
112	0xbdd71db5	-0.10503713
113	0x3e007389	0.12544073
114	0x3ef58455	0.47952524
115	0x3efa3bb0	0.48873663
116	0x3ea70de3	0.32627782
117	0xbc745888	-0.014913686
118	0xbd617f3c	-0.05505298
119	0x3ba7c12d	0.005119464
120	0xbe6b585d	-0.22982927
121	0x3e24421e	0.16040847
122	0xbc11c16d	-0.008896214
123	0xbe2f2b7b	-0.1710643
124	0x3e380aa6	0.17972812
125	0xbe0723ae	-0.13197204
126	0xbd911a75	-0.070851244
127	0x3e917c49	0.28415135
128	0xbe056a1f	-0.13028763
129	0x3e793feb	0.24340789
130	0xbe1a15b2	-0.15047339
131	0x3e616718	0.22011983
132	0xbe141f58	-0.14465082
133	0x3d07c86b	0.033150118
134	0xbe138753	-0.14407091
135	0x3ea364df	0.31912896
136	0x3ecfe8df	0.40607354
137	0x3e514555	0.20436604
138	0x3dfa6a05	0.12227253
139	0x3e52f829	0.20602478
140	0xbe8bd0b2	-0.2730766
141	0x3e2aad21	0.16667606
142	0x3e348b06	0.17631158
143	0x3dd72f7c	0.10507104
144	0x3f1388fc	0.57630897
145	0xbd6716ed	-0.056418348
146	0xbea3f9c4	-0.32026494
147	0x3e874c98	0.26425624
148	0x3d8d1f0d	0.06890688
149	0xbd53259b	-0.051549535
150	0xbe48e3b6	-0.19618115
151	0xbe7be1b9	-0.24597825
152	0x3e66b5e0	0.22530317
153	0xbe013487	-0.12617694
154	0x3e09a47c	0.13441652
155	0x3e4f0597	0.20216976
156	0xbe26e02b	-0.16296451
157	0x3a723d0b	0.00092406635
158	0x3dc2571a	0.094892696
159	0xbc920272	-0.017823432
160	0x3e236c11	0.15959193
161	0x3e73e9bb	0.2381963
162	0xbe9e8833	-0.30963287
163	0xbb60dc45	-0.0034310978
164	0x3dcf6be5	0.10128001
165	0x3debd0a0	0.115144014
166	0x3ee23d28	0.44187284
167	0xbf05134e	-0.5198258
168	0x3c51c10d	0.012802375
169	0x3d60e8a0	0.05490935
170	0xbd532202	-0.051546104
171	0xbd97ad37	-0.07406085
172	0x3f0097b2	0.5023147
173	0xbdedc081	-0.11608983
174	0x3f04de8c	0.5190208
175	0xbee4cac7	-0.44685957
176	0x3df4cd2d	0.11953197
177	0xbd5fc437	-0.054630484
178	0x3c0c6213	0.008568305
179	0xbd1e0805	-0.038581867
180	0x3e97047f	0.29495618
181	0xbe7fb466	-0.2497116
182	0x3e49209f	0.1964135
183	0x3e5702b8	0.20997131
184	0xbcb993c9	-0.022653477
185	0xbe3dabad	-0.1852252
186	0xbdd3388d	-0.103135206
187	0xbe0dec2e	-0.13859627
188	0x3e3b756d	0.18306513
189	0x3e5c246a	0.21498266
190	0x3e2675bd	0.16255851
191	0x3e44247a	0.1915454
192	0xbe2ea367	-0.1705452
193	0xbe937f70	-0.28808165
194	0xbde2de65	-0.11077575
195	0x3e96cf07	0.29454824
196	0xbebbe7df	-0.3670034
197	0x3e593d73	0.21214847
198	0x3b90a492	0.0044141496
199	0xbc8a9ba6	-0.016919922
200	0x3d1491b8	0.03627178
201	0x3eb36062	0.35034472
202	0xbeae4e4f	-0.3404412
203	0x3f34e7c3	0.7066614
204	0xbf24ca02	-0.6437074
205	0x3f2d1dc9	0.67623574
206	0xbf81bd40	-1.013588
207	0x3cb5e2f6	0.02220295
208	0xbc9d94da	-0.019236017
209	0x3cdb744b	0.026788851
210	0xbe64cdb2	-0.22344092
211	0x3e1d1530	0.15340114
212	0xbf1d5458	-0.61456823
213	0x3db9f998	0.09080809
214	0x3e324f84	0.17413145
215	0xbe0dbf0b	-0.13842408
216	0x3e22873e	0.15871903
217	0xbdd2caf0	-0.102926135
218	0xbf2a5eff	-0.665512
219	0xbd6e28ed	-0.0581445
220	0x3e6abfde	0.22924754
221	0x3d748ed4	0.059706524
222	0x3e1e20ae	0.15442154
223	0xbe4f3cc8	-0.2023803
224	0x3e421b7e	0.189558
225	0xbc8479d1	-0.016171368
226	0xbdb8bcc4	-0.09020379
227	0x3cab8216	0.020936053
228	0xbd08cd4e	-0.03339892
229	0x3e595c80	0.21226692
230	0xbde7992a	-0.113085106
231	0x3e8a7f9a	0.27050477
232	0x3e384a80	0.1799717
233	0x3e589126	0.2114912
234	0xbe5f0efd	-0.21783061
235	0xbe9d30ea	-0.3070138
236	0x3e962b2b	0.2932981
237	0x3dbe783b	0.09300276
238	0xbe9cdd8e	-0.30637783
239	0xbe0b4ff8	-0.13604724
240	0xbd3f48a2	-0.046700127
241	0x3e180c71	0.14848496
242	0xbe668812	-0.22512844
243	0x3e80633e	0.25075716
244	0xbe6bade2	-0.2301555
245	0xbde14d05	-0.110010184
246	0x3df7c4ef	0.12098109
247	0x3e1ea3b0	0.1549213
248	0xbdf884d7	-0.12134712
249	0xbca55c16	-0.020185512
250	0x3e6c0053	0.23046999
251	0xbee69a1e	-0.45039457
252	0x3df0a08a	0.117493704
253	0x3e2b0ebb	0.16704838
254	0xbd4a4ecf	-0.049391564
255	0x3f29b41a	0.6629044

fc1.bias f4 [256]
0	0x3e58ba07	0.21164714
1	0x3e453d75	0.19261725
2	0x3e31292e	0.17300865
3	0xbda72d8a	-0.08162983
4	0xbebad386	-0.36489505
5	0x3da56a88	0.0807696
6	0xbe64736c	-0.22309655
7	0x3df7a162	0.12091328
8	0x3daac1ab	0.083377205
9	0xbe4ad7fd	-0.19808955
10	0x3c8fe30e	0.017564323
11	0xbc8f0575	-0.017458657
12	0x3df86e6b	0.121304356
13	0x3d0815aa	0.033223785
14	0xbe73ef5b	-0.23821776
15	0xbe50f598	-0.20406187
16	0x3e64f20d	0.2235796
17	0x3e2c8a5c	0.16849655
18	0xbca0754f	-0.019587187
19	0x3de694b8	0.112588346
20	0x3e810c3c	0.25204647
21	0xbe6cd147	-0.23126708
22	0xbd22623b	-0.03964446
23	0xbe9a4d29	-0.30136994
24	0x3d7dc4c8	0.061955243
25	0x3c5f2d13	0.013621586
26	0x3dac6e69	0.084194966
27	0x3df46954	0.11934152
28	0x3dd76f86	0.10519318
29	0xbe97a63f	-0.29619023
30	0xbd87fb10	-0.06639683
31	0xbcbba68b	-0.022906562
32	0x3e6624ee	0.22475025
33	0x3e21fa5b	0.1581816
34	0x3d2f882f	0.042854484
35	0x3d97ffc1	0.07421828
36	0x3dbd7acf	0.092519395
37	0xbe5c5adf	-0.2151904
38	0x3dd0a68d	0.10188017
39	0xbd8a06b5	-0.067395605
40	0xbe07604d	-0.1322033
41	0x3e7e999b	0.24863283
42	0x3db52002	0.08843996
43	0x3e2780ab	0.16357677
44	0x3d490125	0.049073357
45	0xbe34cb58	-0.17655694
46	0xbdcd4248	-0.10022408
47	0xbdc5ad17	-0.09652155
48	0xbe8f02bc	-0.27931774
49	0x3d594b95	0.053050596
50	0xbe43d667	-0.19124757
51	0x3e0bc02b	0.13647525
52	0xbd474c2a	-0.04865662
53	0xbe8d6480	-0.27615738
54	0x3e1d6b4e	0.15372965
55	0x3d4de4fa	0.050267197
56	0x3e57c5b9	0.21071519
57	0x3b84d3d9	0.0040535745
58	0x3d8944fc	0.06702611
59	0x3e40cb7a	0.1882762
60	0xbea6582c	-0.32489145
61	0x3db8b83a	0.090195134
62	0xbe51a693	-0.204737
63	0x3e24d23d	0.16095825
64	0x3e864e5a	0.26231652
65	0xbe007634	-0.12545091
66	0xbdb5fbcc	-0.08885917
67	0x3e3809c9	0.17972483
68	0xbddb0381	-0.10694028
69	0x3dd38f60	0.10330081
70	0x3e6b7801	0.22994997
71	0xbe68c9be	-0.22733209
72	0x3c7380a4	0.014862213
73	0x3e7587dd	0.23977609
74	0x3e04aa4d	0.1295559
75	0xbd466107	-0.048432376
76	0xbe0e65ad	-0.13905974
77	0xbe2c788a	-0.16842857
78	0xbdcb1cb9	-0.09917588
79	0x3e042421	0.12904407
80	0x3dcb3ecd	0.09924088
81	0x3dbbafd0	0.09164393
82	0xbdbe5b43	-0.092947505
83	0xbe56331d	-0.20917936
84	0xbe0018fd	-0.12509532
85	0x3ca0f8ba	0.019649852
86	0xbdb93fd4	-0.090453774
87	0x3e1dcaca	0.15409389
88	0xbe4738ea	-0.19455305
89	0x3a6e0014	0.0009078991
90	0x3d80d59b	0.06290742
91	0xbdf2d033	-0.11856117
92	0x3d7d48b6	0.06183692
93	0xbe0e0244	-0.13868052
94	0xbd8899d7	-0.066699676
95	0x3e81bcaf	0.25339267
96	0xbde76a13	-0.11299529
97	0xbe15371a	-0.14571801
98	0x3c06b597	0.008222005
99	0x3e1cc041	0.15307714
100	0x3e097cee	0.13426563
101	0x3df70fd9	0.120635696
102	0xbe409ee1	-0.18810607
103	0xbe7d987c	-0.247652
104	0xbe2cce32	-0.16875532
105	0xbc568568	-0.01309333
106	0x3c547a9d	0.012968686
107	0xbe3c0e12	-0.18364742
108	0xbe837658	-0.25676227
109	0xbdf63c2d	-0.12023196
110	0x3ddc8035	0.10766641
111	0x3e1e2eb8	0.1544751
112	0x3e4c1091	0.19928195
113	0xbdb67d35	-0.089106
114	0xbdc1b952	-0.09459175
115	0x3d99b87a	0.07505889
116	0xbe4d0ca0	-0.20024347
117	0x3e2a9c09	0.16661085
118	0x3dcb3df1	0.09923924
119	0x3e0c031b	0.1367306
120	0xbe30db4f	-0.1727116
121	0x3d8c4edc	0.06850979
122	0xbe3cb388	-0.1842786
123	0x3c05244b	0.008126329
124	0x3e048074	0.12939626
125	0x3dc4c70b	0.09608277
126	0xbd1c45bf	-0.038152453
127	0xbea6b8d3	-0.32562885
128	0x3dea1af4	0.11430922
129	0xbe75e45c	-0.24012893
130	0x3d33f59f	0.043935414
131	0xbe1790f0	-0.14801383
132	0x3e182d65	0.14861067
133	0xbdc5d195	-0.09659115
134	0x3d807312	0.06271948
135	0x3dc34f13	0.095365666
136	0xbe0f8932	-0.1401718
137	0xbe1c0420	-0.15235949
138	0xbc83abfa	-0.016073216
139	0xbc84b518	-0.016199633
140	0xbe26570c	-0.16244143
141	0x3df88001	0.1213379
142	0x3e3c4ab3	0.1838787
143	0xbd73f71b	-0.05956183
144	0xbd209b32	-0.039210506
145	0x3e2643bd	0.16236778
146	0xbe7ba080	-0.24572945
147	0x3d0bdda0	0.034146905
148	0x3d8d73fc	0.06906888
149	0x3e21f6ff	0.15816878
150	0x3e58af20	0.21160555
151	0xbea285c5	-0.31742683
152	0xbdc63cc1	-0.09679557
153	0x3e2a2b99	0.16618194
154	0x3d65d085	0.056107063
155	0xbe9080bc	-0.28223217
156	0x3dd31deb	0.10308441
157	0x3d47d919	0.048791025
158	0x3cc7ed72	0.024405215
159	0x3d3eb4f3	0.046559285
160	0xbe411fca	-0.18859783
161	0xbe2a45d6	-0.16628203
162	0xbe9d7e4e	-0.30760425
163	0xbc530e9a	-0.012881899
164	0x3dc448b1	0.09584177
165	0xbccbfadf	-0.024899898
166	0x3e45675b	0.19277708
167	0x3dd863c8	0.10565907
168	0xbdd72f66	-0.105070874
169	0xbe986198	-0.29761958
170	0xbce382e1	-0.027772369
171	0x3d81fc2e	0.063469276
172	0xbde011f9	-0.10940928
173	0x3e29fbfd	0.16600032
174	0xbe01f1f0	-0.12689948
175	0x3e287a21	0.16452838
176	0xbe42f45d	-0.1903853
177	0xbbd1a30a	-0.0063976096
178	0xbe701ab3	-0.23447685
179	0x3e246d02	0.16057208
180	0xbd08d020	-0.03340161
181	0xbe5e2389	-0.21693243
182	0xbdbc9c87	-0.09209543
183	0x3e05b06b	0.1305558
184	0x3e6daa92	0.23209599
185	0xbcd718f8	-0.026257023
186	0xbd248c58	-0.040172905
187	0x3d9629db	0.07332202
188	0xbe0a6895	-0.13516457
189	0xbd4e6d30	-0.050397098
190	0xbe03c1c7	-0.12866889
191	0x3e45b9e1	0.19309188
192	0x3e68f1e7	0.22748528
193	0x3e0ebe27	0.13939725
194	0x3e8eb694	0.2787367
195	0x3dff9f62	0.12481572
196	0x3e1e9829	0.15487732
197	0xbcdad984	-0.026715048
198	0x3da9c8ff	0.0829029
199	0x3df08292	0.11743654
200	0xbdfd4ae2	-0.123677984
201	0x3e3e5167	0.1858574
202	0xbddc9148	-0.10769898
203	0x3b0ae076	0.0021190918
204	0x3d572727	0.052527573
205	0x3ddbfb42	0.10741283
206	0x3de3bede	0.111203894
207	0xbddc84f4	-0.10767546
208	0x3d86e4be	0.06586598
209	0x3e0c253f	0.13686083
210	0x3c869bba	0.016431678
211	0xbdf3546f	-0.11881339
212	0x3dbf404d	0.09338436
213	0xbc592b4a	-0.01325495
214	0xbdc6f99f	-0.0971558
215	0x3e197c73	0.1498888
216	0x3dbb50c0	0.09146261
217	0xbea2aac0	-0.31770897
218	0x3e399740	0.18124104
219	0xbeac8d02	-0.3370133
220	0x3da55d01	0.0807438
221	0x3e4f1c29	0.20225586
222	0xbe7626ed	-0.24038287
223	0x3d25e2ca	0.040499486
224	0x3b34c41b	0.0027582708
225	0x3db9b35f	0.090674154
226	0x3e8ca7b4	0.27471697
227	0x3b9c833c	0.0047763865
228	0x3e1501d0	0.14551473
229	0x3e203756	0.15646109
230	0x3d995d18	0.07488459
231	0xbe741d55	-0.23839314
232	0x3dcceb1e	0.100057825
233	0xbe121beb	-0.14268462
234	0x3e81a356	0.25319928
235	0x3d86cfff	0.06582641
236	0xbe2689c6	-0.16263494
237	0x3cce0fe6	0.025154065
238	0xbd8800b2	-0.066407576
239	0xbba5e5a5	-0.005062776
240	0xbe3cb3d5	-0.18427975
241	0x3d9eaa51	0.07747329
242	0xbe983553	-0.29728183
243	0x3d005db5	0.031339366
244	0x3db1b989	0.08677966
245	0x3d47cc46	0.048778795
246	0x3e103dba	0.14086047
247	0xbd0d56f4	-0.034506753
248	0x3e48b888	0.19601643
249	0x3d9f28e0	0.07771468
250	0x3dbfaf13	0.09359565
251	0xbe28e201	-0.16492464
252	0xbcab7256	-0.020928543
253	0x3d7ac7b1	0.061225597
254	0x3dfde8ad	0.12397895
255	0xbdac5c8e	-0.08416091

fc2.weight f4 [256, 256]
0	0x3bbdd89c	0.005793644
1	0xbd8ac029	-0.06774933
2	0x3b914abc	0.004433958
3	0x3d6079c2	0.054803617
4	0xba53aa03	-0.0008074345
5	0xbb8cc8fe	-0.004296421
6	0xbd51ad89	-0.051190887
7	0xbd7e9ddb	-0.06216226
8	0x3d007792	0.03136403
9	0x3d60a615	0.05484589
10	0x3d58fad5	0.052973587
11	0xbd5c0277	-0.05371329
12	0x3bf26a12	0.0073978985
13	0x3c8db92c	0.01730021
14	0xbd8aaa2d	-0.0677074
15	0x3a97b1a6	0.0011573329
16	0x3b8c8643	0.004288466
17	0xbbbc49ea	-0.005746116
18	0x3cbbb5d4	0.02291385
19	0x3c1a4274	0.009415258
20	0xbce46066	-0.027877998
21	0xbd231eb1	-0.03982419
22	0x3cac995d	0.021069223
23	0xbd8601c4	-0.065433055
24	0x3c538bac	0.012911718
25	0xbc99e642	-0.018786553
26	0xbcd5dd5a	-0.026106525
27	0x3d3c9fe7	0.046050932
28	0x3ca21401	0.01978493
29	0x3d360b41	0.044444326
30	0x3cdaa72c	0.026691042
31	0x3cf6b076	0.03011344
32	0xbd1d9aa4	-0.038477555
33	0x3c8558af	0.01627764
34	0xbd555375	-0.052081544
35	0x3d26d992	0.040734835
36	0x3b3961cb	0.002828705
37	0xbd01faf2	-0.03173346
38	0xbd8c65be	-0.06855343
39	0xbbbafef2	-0.0057066614
40	0x3d013ca5	0.031551976
41	0x3d4d065d	0.050054897
42	0xbca87c77	-0.020567162
43	0x3c4de7fd	0.012567517
44	0x3d25deb2	0.040495582
45	0xbc43126e	-0.011906249
46	0x3d625ca5	0.055264134
47	0x3d31c84f	0.04340392
48	0x3d59442c	0.05304353
49	0xbd8ba783	-0.0681906
50	0xbd732995	-0.059365828
51	0xbd8030e6	-0.06259327
52	0xbd4b9ed5	-0.04971202
53	0x3ccb08c5	0.024784455
54	0xbcb1db87	-0.021711124
55	0xbd862a6d	-0.06551061
56	0xb8e6c574	-0.00011004033
57	0xbd35e98e	-0.04441219
58	0xbb269cdb	-0.0025423083
59	0x3cd86370	0.026414603
60	0x3d64d363	0.055865657
61	0x3cd0814c	0.025452279
62	0x3d478507	0.04871085
63	0xbd02bb1a	-0.031916715
64	0x3c2cf1b8	0.010555677
65	0xbc198b6e	-0.0093716215
66	0xbd268d6e	-0.04066222
67	0xbd14757a	-0.036244847
68	0x3d28a4a2	0.04117263
69	0xbd376960	-0.044778228
70	0xbd7a3b63	-0.06109179
71	0xbd878c8c	-0.06618604
72	0xbc588259	-0.013214671
73	0xbd6eaf68	-0.05827275
74	0xbcd2f9a0	-0.025753796
75	0x3bfbf3cd	0.0076889754
76	0x3a4944fb	0.00076778204
77	0xbbe661cd	-0.0070307017
78	0x3cc5c316	0.024140876
79	0xbd736f6b	-0.05943243
80	0xbd835a0c	-0.064136595
81	0x3d149431	0.03627414
82	0xbce6ac54	-0.028158344
83	0x3d3a51d8	0.04548821
84	0xbca5e883	-0.020252472
85	0xbc4e3eb8	-0.0125881955
86	0xbc9791af	-0.018502085
87	0xbca32860	-0.019916713
88	0x3b28b9aa	0.002574543
89	0xbc40400b	-0.011734019
90	0xbd05873d	-0.032599676
91	0x3cd89959	0.02644031
92	0xbd1215f9	-0.035665486
93	0xbc2d10a3	-0.0105630485
94	0x3d16f5f0	0.036855638
95	0xbd1eb7ec	-0.03874962
96	0xbc914272	-0.017731879
97	0xbd47b7ce	-0.048759274
98	0xbd716294	-0.058931902
99	0x3c224b35	0.009905626
100	0xbd800620	-0.06251168
101	0xbcf36a89	-0.029713886
102	0xbd8adb90	-0.067801595
103	0xbc98099a	-0.018559266
104	0x3b803afb	0.003913281
105	0x3d294ab5	0.04133101
106	0xbd474815	-0.048652727
107	0x3ce37ad8	0.027768537
108	0xbcd82f17	-0.026389642
109	0xbd648997	-0.05579528
110	0x3bd70161	0.0065614437
111	0x3d44e5f1	0.04807085
112	0x3c80e8b4	0.015735961
113	0xbd42aa36	-0.047525607
114	0x3cda3e4f	0.02664104
115	0xbd50c9e5	-0.05097379
116	0xbbd24a98	-0.0064175837
117	0xbd5ba7aa	-0.053626694
118	0xbd387f00	-0.04504299
119	0xbcc3ac00	-0.023885727
120	0xbd018334	-0.031619266
121	0xbd520808	-0.05127719
122	0x3a323545	0.0006798099
123	0xbd8a2c7d	-0.06746767
124	0xbd1e8bc6	-0.038707517
125	0x3d4d42cd	0.050112534
126	0xbca8ade7	-0.020590736
127	0x3cadb4df	0.02120441
128	0xba38bbc7	-0.0007047024
129	0xbc10f77d	-0.008848068
130	0xbd279dc0	-0.040921926
131	0x3d37c640	0.0448668
132	0xbd4b675d	-0.04965912
133	0xbd6f4673	-0.058416795
134	0xbd479d5f	-0.048734065
135	0xbd6a4cc4	-0.057202116
136	0xbceebdac	-0.029143177
137	0xbd705926	-0.05867877
138	0x3d1d4c03	0.03840257
139	0xbd123180	-0.035691738
140	0xbd5c396c	-0.0537657
141	0x3d2e9a15	0.042627413
142	0xbd89823a	-0.06714292
143	0x3d4ab8a1	0.049492482
144	0x3cb57dc3	0.022154694
145	0x3ca651a0	0.020302594
146	0xbd34a22b	-0.044099968
147	0xbc5afe40	-0.013366282
148	0xbc55191b	-0.013006474
149	0xbd5d0c69	-0.053966913
150	0x3b1ae102	0.002363265
151	0x3d22b2ef	0.039721426
152	0xbd0bec27	-0.03416076
153	0xbd2c7e49	-0.042112622
154	0xbc84a21c	-0.016190581
155	0xbd8ada68	-0.06779939
156	0x3c112410	0.008858696
157	0xbceee9da	-0.029164243
158	0x3d195bd2	0.037441082
159	0x3d0fc5c3	0.03510071
160	0xbd51e89d	-0.051247228
161	0x3cdd1a44	0.026990063
162	0x3c889e40	0.016677022
163	0xbd342847	-0.043983724
164	0xbd866290	-0.06561768
165	0xbd536be4	-0.051616564
166	0x3d07c6ab	0.03314845
167	0xbd271dee	-0.040800028
168	0x397c38ca	0.00024053748
169	0x3d64909c	0.055801973
170	0x3cc88925	0.024479458
171	0xbc113517	-0.008862755
172	0x3d601da1	0.054715756
173	0xba6a129c	-0.00089291646
174	0xbb8931fc	-0.004186867
175	0xbc4528c0	-0.012033641
176	0xbd87ab82	-0.066245094
177	0xbd895150	-0.06704962
178	0x3c8450ee	0.016151872
179	0x3d3274ca	0.04356841
180	0xbc6c51c6	-0.014423793
181	0xbcbe80b4	-0.02325473
182	0x3cca1730	0.02466926
183	0x3d325fa6	0.04354825
184	0xbc47bdcd	-0.012191248
185	0x3d27a49d	0.04092847
186	0x3d3c526a	0.045977034
187	0x3c968cbe	0.018377658
188	0xbcdce5a2	-0.026964966
189	0xbd0c7eeb	-0.034300726
190	0xbca41832	-0.020031068
191	0xbca207b4	-0.019779064
192	0x3b31cdb5	0.0027130668
193	0xbd745e68	-0.059660345
194	0x3d3e7451	0.046497647
195	0x3d26b227	0.040697243
196	0xbbe28dbd	-0.006913869
197	0xbd1063b1	-0.035251323
198	0xbc06d0ee	-0.008228524
199	0x3d2459bb	0.040124636
200	0xbd6767c6	-0.05649545
201	0xbbeb8e19	-0.00718857
202	0x3c54691f	0.012964516
203	0xbc96be56	-0.018401306
204	0xbd36ec71	-0.04465908
205	0xbcbe3bc9	-0.023221867
206	0x3cef2211	0.029191049
207	0xbd674bbd	-0.056468714
208	0x3c38a274	0.011269201
209	0x3d2001e1	0.039064292
210	0x3cd585f0	0.026064843
211	0x3cde3d47	0.027128829
212	0x3d07af01	0.03312588
213	0x3cfa877b	0.03058218
214	0x3b6c38fe	0.0036044712
215	0xbc5ce6ac	-0.013482731
216	0xbd165cda	-0.036709644
217	0xbd561a0e	-0.05227094
218	0x3d081a4b	0.0332282
219	0x3a21da6a	0.0006174209
220	0x3d03d4d0	0.032185376
221	0x3b7340bb	0.003711744
222	0xbc3e76fc	-0.011625048
223	0xbc81aeca	-0.015830416
224	0xbc97082c	-0.018436514
225	0x3ba4562e	0.005015156
226	0x3cf28602	0.029604916
227	0x3d06e2dd	0.032931197
228	0xbcffe49f	-0.031236945
229	0x3d1b6a37	0.03794309
230	0x3d19269e	0.037390344
231	0x3c5e316f	0.013561591
232	0xbb989434	-0.004656339
233	0xbd14c443	-0.036319982
234	0x3d389ba4	0.045070305
235	0xbd60dd84	-0.054898754
236	0xbd7f5a05	-0.06234171
237	0x3ccb6627	0.024828983
238	0x3cc231d2	0.023705397
239	0x3c8d486e	0.017246451
240	0xbd53522a	-0.05159203
241	0x3b6b2c46	0.0035884543
242	0x3c8cfa1f	0.01720911
243	0xbc89259a	-0.016741563
244	0x3d2c59ae	0.042077713
245	0xbd297d62	-0.04137934
246	0x3d255000	0.040359497
247	0x3d2217e1	0.039573554
248	0xbd69396a	-0.05693952
249	0xbd8935ec	-0.06699738
250	0xbd61fdef	-0.05517381
251	0x3d3f1ef0	0.046660364
252	0x3bc33d5e	0.0059582433
253	0xbc37f453	-0.011227685
254	0xbd3aae5f	-0.04557645
255	0xbd4f9903	-0.050683033

fc2.bias f4 [256]
0	0x3caf45ac	0.021395527
1	0x3d4db70b	0.05022339
2	0xbd5f916f	-0.054582056
3	0xbc21017b	-0.009827013
4	0xbd77eb27	-0.060526993
5	0xbbd7cd07	-0.0065857205
6	0xb99c98c1	-0.0002986845
7	0x3d61ba8a	0.05510954
8	0xbd5cacec	-0.05387585
9	0x3c20e308	0.0098197535
10	0x3dac66cd	0.08418045
11	0xbd73e8d8	-0.05954823
12	0xbb17bd8b	-0.0023153748
13	0xbcb2016b	-0.021729192
14	0x3b565854	0.0032706456
15	0x3c8b28bc	0.016987197
16	0xbd3f3467	-0.046680834
17	0x3d8625c0	0.06550169
18	0x3d02cc81	0.03193331
19	0x3c536031	0.012901352
20	0x3d3d814d	0.04626589
21	0xbd4366cc	-0.047705457
22	0x3c2a3594	0.010388751
23	0xbc921138	-0.017830476
24	0xbda295c6	-0.07938723
25	0x3d88e180	0.06683636
26	0xbd04b138	-0.03239557
27	0xbd8fbf2f	-0.07018887
28	0xbce0b40e	-0.027429607
29	0xbdb8ede9	-0.09029753
30	0xbd080d30	-0.0332157
31	0x3d05ecbf	0.03269648
32	0xbccbaa65	-0.024861524
33	0xbc447482	-0.011990668
34	0xbc8fdb85	-0.01756073
35	0xbbc300f1	-0.00595104
36	0xbc7926c0	-0.015206993
37	0xbc2d02c6	-0.010559743
38	0xbc87b520	-0.01656586
39	0x3d86cc55	0.06581942
40	0xbd502b5d	-0.050822604
41	0xbd24cdbf	-0.040235277
42	0x3c853042	0.016258363
43	0x3d173df2	0.03692431
44	0x3c7e731e	0.015530376
45	0x3c9b8fd1	0.018989475
46	0xbb96f18a	-0.0046064304
47	0xbd64b5bf	-0.05583739
48	0x3bc61fa3	0.006046252
49	0xbd907a87	-0.0705462
50	0x3d95a944	0.073076755
51	0x3cc04fbf	0.023475526
52	0x3d5d141e	0.053974263
53	0x3d2ce3c2	0.042209394
54	0x3bda8a09	0.006669287
55	0xbcf414c4	-0.029795058
56	0xbcc5e6f3	-0.024157977
57	0xbd04c6d9	-0.0324162
58	0x3b474729	0.0030407405
59	0x3ca59bee	0.020215955
60	0x3d3afe5b	0.04565273
61	0x3ccd4b67	0.025060369
62	0x3d079b15	0.033106882
63	0x3c8913ae	0.016733017
64	0xbd1ff2f0	-0.039050043
65	0xbcc3518e	-0.0238426
66	0x3d86d49a	0.06583519
67	0xbd0f8ac9	-0.035044465
68	0xbdcfa5f0	-0.10139072
69	0xbb877dd7	-0.0041348743
70	0xbd29c707	-0.041449573
71	0x3d1df25c	0.03856121
72	0x3cc462ae	0.023972835
73	0xbd1fba8d	-0.038996268
74	0x3d3df1d3	0.0463732
75	0xbd00b922	-0.031426556
76	0x3d1e058a	0.0385795
77	0x3cdc920c	0.02692511
78	0x3c233466	0.009961223
79	0x3d538f47	0.05165031
80	0xbc152e5c	-0.009105291
81	0x3c56d4ca	0.013112256
82	0x3d6954be	0.056965582
83	0x3d2e7be3	0.042598616
84	0xbcfb5046	-0.030677926
85	0x3db7fa06	0.08983235
86	0xbd3c67af	-0.045997318
87	0x3cb259e9	0.021771388
88	0x3d52c541	0.051457647
89	0xbd59419c	-0.053041086
90	0xbd857184	-0.06515792
91	0x3d4966eb	0.049170416
92	0x3d0a4bfa	0.033763863
93	0x3d8454ec	0.0646151
94	0xbc187eb6	-0.009307554
95	0xbd896a84	-0.06709769
96	0x3b593ccc	0.003314781
97	0x3dd2d6c7	0.10294872
98	0xbdbf7ae8	-0.093496144
99	0xbd8bf38f	-0.068335645
100	0xbd69d56c	-0.0570883
101	0x3c2e79ef	0.010649188
102	0x3d3a2098	0.04544124
103	0x3da97e7b	0.08276077
104	0xbcc60f8d	-0.024177337
105	0x3d8da645	0.06916479
106	0xbbbeeb5e	-0.005826398
107	0x3d6d8cce	0.05799561
108	0x3c259842	0.010107102
109	0xbd7ca207	-0.06167796
110	0xbc8f0bd2	-0.017461691
111	0xbd42abf5	-0.047527272
112	0x3d664842	0.056221254
113	0x3d3ded8f	0.04636913
114	0xbd8c94ef	-0.06864344
115	0xbd3f937d	-0.046771515
116	0x3cc85ac9	0.024457352
117	0x3dbda37f	0.092597
118	0xbe3b31b6	-0.18280682
119	0x3d06ca6b	0.032907885
120	0x3d436ea4	0.047712937
121	0xbd07678f	-0.033057746
122	0x3d9df792	0.07713236
123	0x3d86a495	0.0657436
124	0xb8d36514	-0.00010080091
125	0xbd2cf790	-0.04222828
126	0x3d74f46d	0.059803415
127	0x3ad343f3	0.0016118273
128	0x3ccccf23	0.025001114
129	0x3d903d68	0.07042962
130	0x3d9ef2f6	0.07761185
131	0xbc8c36b0	-0.01711592
132	0xbe08790a	-0.13327423
133	0xbca86787	-0.020557178
134	0xbd9cfdd5	-0.07665602
135	0x3b51230c	0.0031911759
136	0xbd33764a	-0.04381398
137	0xbe219da4	-0.15782791
138	0x3d638c0e	0.05555349
139	0x3ccc6706	0.02495147
140	0x3d8b83fd	0.06812284
141	0x3d3a61ff	0.045503613
142	0xbd16b3d6	-0.0367926
143	0x3af5ce03	0.0018753413
144	0xbd66eebb	-0.056380015
145	0xba041bb8	-0.0005039531
146	0x3d83a0ac	0.0642713
147	0xbcb22e1c	-0.021750502
148	0xbcf968e1	-0.030445518
149	0xbd5cad0a	-0.05387596
150	0x3d9fd07f	0.07803439
151	0xbd238790	-0.039924204
152	0xbc6d65da	-0.014489615
153	0xbb9bc7d0	-0.004754044
154	0xbb34cde2	-0.0027588536
155	0x3c85ea3a	0.01634704
156	0xbccd7dc2	-0.02508438
157	0xbc0dc480	-0.008652806
158	0xbd76075b	-0.06006561
159	0x3da59a88	0.08086115
160	0xbb9422c5	-0.0045207464
161	0x3d2a55a0	0.041585565
162	0xbc6fb02e	-0.014629407
163	0xbd2d4489	-0.04230169
164	0x3d193eb8	0.03741333
165	0xbceb4b35	-0.028722385
166	0x3d2966ab	0.041357677
167	0xbc8fbc96	-0.01754598
168	0xbd80d926	-0.06291418
169	0x3c1c39fd	0.00953531
170	0xbc999172	-0.018746112
171	0xbe29f65b	-0.16597883
172	0xbd668ece	-0.056288533
173	0x3d3c48d0	0.045967877
174	0x3e2fa83f	0.17154025
175	0xbe5095a6	-0.20369586
176	0x3c582a85	0.013193731
177	0x3d8b6dc6	0.06808047
178	0xbca97acc	-0.020688437
179	0xbd1d89d4	-0.03846152
180	0xbd827fc1	-0.063720234
181	0x3caed319	0.021340894
182	0x3be724e0	0.0070539564
183	0xbc0ce1c3	-0.008598748
184	0xbd41850f	-0.047246035
185	0xbc1bc574	-0.009507526
186	0xbc82c8ce	-0.015964892
187	0x3da3fb70	0.08006942
188	0xbd17c3dd	-0.037052024
189	0x3c70e600	0.014703274
190	0x3c39ab88	0.0113324
191	0x3d33c799	0.043891523
192	0xbd1c8694	-0.03821428
193	0xbd8f977d	-0.07011316
194	0xbc38ba90	-0.011274949
195	0xbd6b933c	-0.05751346
196	0x3d2a2de7	0.041547682
197	0x3dbb3f11	0.09142888
198	0xbd803c84	-0.062615424
199	0x3c7ac181	0.015304924
200	0xbcefb9ea	-0.029263455
201	0xbd380ae9	-0.04493228
202	0x3c13618e	0.008995427
203	0x3ca1f94f	0.0197722
204	0x3d9d776b	0.07688793
205	0xbd3cd62b	-0.046102684
206	0xbd2a488a	-0.041573085
207	0xbc553ac8	-0.013014503
208	0xbc7995f8	-0.015233509
209	0x3d414825	0.047187943
210	0xbd17d8f6	-0.037072144
211	0x3d89d2b8	0.067296445
212	0xbd5ba2cc	-0.053622052
213	0x3ccceaaa	0.02501424
214	0x3d5bb877	0.053642716
215	0x3de524b2	0.1118864
216	0x3c0884d3	0.008332449
217	0xbd189f10	-0.03726107
218	0xbd3eb68c	-0.04656081
219	0xbd8f42f4	-0.06995192
220	0xbb5cb798	-0.0033678766
221	0xbdb26d8a	-0.08712299
222	0xbd3d67e6	-0.046241663
223	0xbd6595aa	-0.056050934
224	0xbd106be4	-0.035259143
225	0xbcd077bf	-0.025447724
226	0xbd81b3ff	-0.0633316
227	0x3cd8c13f	0.026459334
228	0x3ba7eaef	0.005124442
229	0xbce42108	-0.027847782
230	0xbd27bb93	-0.04095037
231	0xbd68822e	-0.056764774
232	0xbc9012b5	-0.017587045
233	0xbb273d9c	-0.00255189
234	0x3dc1f336	0.09470217
235	0x3ca373d2	0.019952688
236	0x3d3a77a1	0.045524243
237	0xbd049049	-0.032364164
238	0xbcc5db4e	-0.024152424
239	0xbd85c6d7	-0.06532066
240	0xbd16a697	-0.036779966
241	0xbb979f7b	-0.004627166
242	0xbd209398	-0.039203256
243	0x3dc7e60f	0.09760677
244	0xbd005de3	-0.031339537
245	0xbd9d65f7	-0.07685464
246	0xbde95d64	-0.11394766
247	0xbde928c7	-0.11384731
248	0x3ca84e86	0.020545255
249	0xbce45e38	-0.027876958
250	0xbcec2454	-0.028825916
251	0x3d9c2775	0.07624713
252	0x3d2c35ae	0.04204338
253	0xbd4daa38	-0.05021116
254	0x3d855c2d	0.06511722
255	0xbd239d78	-0.039945096

q.weight f4 [1, 256]
0	0x3caea83e	0.021320459
1	0xbebedfc3	-0.37280092
2	0x3c008186	0.007843381
3	0xbec998ac	-0.39374292
4	0x3ca72a95	0.020406047
5	0xbd9c6f86	-0.07638459
6	0xbea9187b	-0.3302649
7	0xbb5e9fed	-0.0033969835
8	0x3b940b4d	0.0045179487
9	0xbce4f3f2	-0.027948353
10	0x3e2c6a33	0.16837387
11	0x3b721b1a	0.0036942423
12	0x3cae4620	0.021273673
13	0x3dc944ed	0.098276
14	0x3d98d09f	0.07461666
15	0xbe889c0b	-0.2668155
16	0x3e89d89b	0.2692307
17	0xbf7722e3	-0.9653761
18	0x3d7b9253	0.061418843
19	0xbe8da4d7	-0.27664825
20	0x3eb79f3a	0.35863668
21	0x3d58c84c	0.052925393
22	0xbe3d180f	-0.18466209
23	0x3e315fb5	0.17321666
24	0x3bc06e1f	0.0058725025
25	0xbdc638e4	-0.0967882
26	0x3e39d805	0.18148811
27	0x3ebcd11e	0.36878294
28	0xbe09fb8f	-0.13474868
29	0x3e82f2bb	0.25575814
30	0xbec0b20e	-0.37635845
31	0x3d442459	0.047886226
32	0xbd0d8c1d	-0.03455745
33	0xbbc49ac3	-0.0059998943
34	0xbee2b60e	-0.44279522
35	0x3e230f0a	0.15923706
36	0x3e448773	0.19192295
37	0x3d47dd3c	0.04879497
38	0x3e8a0ae9	0.2696145
39	0xbdc8d53e	-0.09806298
40	0x3e98a24c	0.29811323
41	0x3c4a853f	0.01236087
42	0xbea36ad6	-0.31917447
43	0xbe3ed994	-0.18637687
44	0xbdbdb230	-0.09262502
45	0xbf01ceba	-0.50706065
46	0xbeae335e	-0.34023565
47	0x3e3223f7	0.17396532
48	0xbe3e9b97	-0.1861404
49	0x3e0814f8	0.13289249
50	0xbe1216a9	-0.14266457
51	0x3da17037	0.078827314
52	0xbdd387cf	-0.10328638
53	0x3c95c021	0.01828009
54	0xbe9cc461	-0.30618575
55	0xbe91499c	-0.28376472
56	0xbcb395c9	-0.021922009
57	0x3cc637d4	0.024196543
58	0xbe15aa0c	-0.14615649
59	0x3e67290e	0.22574255
60	0xbe3f73ae	-0.18696472
61	0xbe9fbd3d	-0.31199065
62	0xbdef7964	-0.11693075
63	0xbec78ceb	-0.389747
64	0x3ec605da	0.3867634
65	0xbe9105a5	-0.2832462
66	0x3e32eea8	0.17473853
67	0x3d3e2f1f	0.046431657
68	0x3e15cbe7	0.14628564
69	0xbf25cbeb	-0.6476428
70	0x3f34d7de	0.7064189
71	0xbe94b7d2	-0.29046494
72	0xbe2fa5ce	-0.17153093
73	0x3d443354	0.047900513
74	0xbe3a6de2	-0.1820598
75	0x3d36040c	0.044437453
76	0x3ecc774b	0.39934763
77	0x3d1095d0	0.035299122
78	0x3e393796	0.1808761
79	0xbf25fcf8	-0.64839125
80	0x3d0cd402	0.034381874
81	0xbe5457b1	-0.20736577
82	0xbe93cf4d	-0.28869095
83	0x3d4a79d4	0.04943259
84	0x3d594ffc	0.053054795
85	0xbea602dc	-0.32424057
86	0x3f1cea12	0.6129466
87	0xbf01f27e	-0.5076064
88	0xbe488512	-0.19582012
89	0xbbbed902	-0.005824209
90	0x3ad09d83	0.0015916083
91	0xbe541ac8	-0.20713341
92	0xbcc0178b	-0.023448726
93	0xbcf70392	-0.03015307
94	0x3e943fd0	0.28954935
95	0x3c1dc128	0.009628572
96	0x3c2c27cf	0.010507538
97	0x3f389cc2	0.72114193
98	0x3ea98792	0.33111244
99	0x3c6ac62b	0.0143294735
100	0x3c4af65f	0.012387841
101	0xbe65f29a	-0.22455826
102	0x3e86dd91	0.26340917
103	0xbeab5aa1	-0.33467582
104	0xbe722543	-0.23647027
105	0x3e9cc8c1	0.30621913
106	0xbeb4fba0	-0.35348225
107	0xbd93658a	-0.071971014
108	0x3e0d8df1	0.13823678
109	0xbd55d840	-0.052208185
110	0xbea8a609	-0.32939175
111	0xbeaf7ad5	-0.342734
112	0x3e0f3887	0.13986407
113	0xbe0b59bf	-0.13608454
114	0x3f14df00	0.5815277
115	0x3eb21bba	0.3478678
116	0x3e70ecb3	0.23527794
117	0xbda4f810	-0.08055127
118	0x3f7e83c0	0.99419785
119	0x3d941559	0.07230634
120	0xbd25b4f1	-0.040455762
121	0x3eab93cb	0.33511195
122	0xbd768da1	-0.06019366
123	0xbd2f0c49	-0.042736325
124	0xbce7364a	-0.02822413
125	0x3d09cf38	0.033644885
126	0x3db264d0	0.08710635
127	0xbe62aa68	-0.22135317
128	0x3c9910d8	0.01868479
129	0xbd0e3df5	-0.034727056
130	0xbdddb96b	-0.10826381
131	0xbf08a047	-0.53369564
132	0x3edace2e	0.42735428
133	0x3e5db8b6	0.21652493
134	0x3dec1e56	0.115292236
135	0x3e507db2	0.20360449
136	0x3e398565	0.18117292
137	0x3f491bec	0.7855823
138	0xbd210000	-0.03930664
139	0x3cd378e3	0.02581448
140	0xbdb76bc5	-0.08956102
141	0xbd23b285	-0.03996517
142	0x3d04d12d	0.032426048
143	0xbedcdca4	-0.43137085
144	0xbccbba6c	-0.024869166
145	0xbefa06df	-0.48833367
146	0xbddc8200	-0.10766983
147	0xbc865e93	-0.016402518
148	0x3ec038ec	0.37543428
149	0x3a1571b3	0.00057008414
150	0xbd981eca	-0.074277475
151	0x3ce85741	0.028361918
152	0x3d05c7cf	0.032661255
153	0xbd20caaf	-0.039255794
154	0x3e6e9bf6	0.23301682
155	0x3bc36a74	0.005963618
156	0x3d374e8d	0.044752646
157	0xbe05bbe8	-0.13059962
158	0xbb6e2237	-0.0036336312
159	0x3eb9d5bf	0.36295888
160	0x3d166173	0.03671403
161	0xbe4ba886	-0.19888505
162	0xbcea213c	-0.0285803
163	0x3b8de2c2	0.00433001
164	0x3e3927c3	0.18081574
165	0xbdb721ed	-0.08942018
166	0xbe2e6ad3	-0.17032938
167	0xbeda5b65	-0.42647853
168	0x3ecd7352	0.40127045
169	0xbef9cd94	-0.48789656
170	0x3c3fa799	0.011697673
171	0x3f0b4e97	0.54416794
172	0xbe9130c5	-0.2835752
173	0x3e400c44	0.18754679
174	0xbed02b75	-0.40658155
175	0x3f0a1c34	0.53949285
176	0x3e260d4f	0.16216014
177	0xbedc4b44	-0.43026173
178	0xbeb26937	-0.34845898
179	0xbf05cac7	-0.5226254
180	0x3ea9ed33	0.3318878
181	0x3f08a4c6	0.53376424
182	0xbe8d05dd	-0.27543536
183	0x3f0bc7e4	0.54601884
184	0x3ea34365	0.31887355
185	0xbe929c1e	-0.28634733
186	0x3d12ad44	0.03580977
187	0xbe578c3f	-0.21049593
188	0xbe44d0b5	-0.1922024
189	0xbebd1674	-0.36931193
190	0xbea0f6b4	-0.3143822
191	0xbcd25614	-0.02567581
192	0xbecd2104	-0.4006425
193	0x3dc7770c	0.09739503
194	0xbe8a5079	-0.2701452
195	0x3c3ca3ac	0.011513632
196	0x3cde8fa7	0.027168108
197	0xbd954df5	-0.0729026
198	0x3c0273df	0.007962196
199	0x3b1c237b	0.002382486
200	0x3d592a72	0.053018995
201	0x3d2239dd	0.039605964
202	0x3d99694b	0.07490786
203	0x3e8ee436	0.27908486
204	0x3e987c3b	0.2978228
205	0x3d35d55e	0.044392936
206	0xbbf7b435	-0.007559324
207	0xbe3d6e05	-0.18499
208	0x3e05a71e	0.13052031
209	0xbd90e7f5	-0.07075492
210	0xbead683d	-0.3386859
211	0x3f35561a	0.70834506
212	0xbf5e6cfa	-0.86885035
213	0xbe150c9d	-0.14555593
214	0xbe2c8dac	-0.16850919
215	0x3ee585d8	0.44828677
216	0x3eb711b1	0.35755685
217	0x3e16eac9	0.14738001
218	0xbe99087b	-0.29889283
219	0x3db316fa	0.08744617
220	0x3dff0f72	0.12454118
221	0x3e30bf14	0.1726039
222	0xbedbf917	-0.42963478
223	0x3d2f6287	0.042818572
224	0x3c0ffa95	0.008787771
225	0x3a3de04f	0.00072432024
226	0xbcb0fda1	-0.021605315
227	0x3e09b3c1	0.13447477
228	0xbe47fc01	-0.19529726
229	0xbe2e0e47	-0.16997634
230	0x3e85e43b	0.2615069
231	0x3d55e823	0.052223336
232	0xbe8a4d6b	-0.2701219
233	0xbf1c4a4a	-0.61050856
234	0xbd2569d8	-0.040384144
235	0x3d3b6267	0.04574814
236	0xbe54933a	-0.20759287
237	0xbeb64bca	-0.35604697
238	0x3ab555c5	0.0013834765
239	0xbca637a3	-0.020290202
240	0xbc2c4254	-0.010513861
241	0xbe75b64a	-0.23995319
242	0x3d0b52b0	0.034014404
243	0x3f74d9b1	0.9564467
244	0x3f335207	0.7004704
245	0xbed96469	-0.4245942
246	0x3f5b93b6	0.85772264
247	0xbf2764dd	-0.6538828
248	0xbb91d171	-0.004450016
249	0xbd85ec09	-0.06539161
250	0x3e8b304a	0.2718528
251	0xbd002d94	-0.031293467
252	0xbe843174	-0.2581898
253	0x3d8c2cec	0.06844506
254	0x3e0e4d66	0.13896713
255	0x3d313a05	0.043268222
