ddpg/checkpoints/ddpg_pher/target_critic.pth (torch, 283268 bytes, 5 tensors)

fc1.weight f4 [256, 15]
000000 cc af 63 3e 48 84 b9 bd 9d da 0a 3d b4 c0 13 3e
       0.2223503 -0.09058434 0.033899892 0.14428979
000010 9a 0c 95 be df 45 22 bd 8b 4e 06 3d 36 b0 e8 bc
       -0.29111177 -0.039617416 0.03278975 -0.028404336
000020 78 6d 2f 3d dd d7 d9 be 29 ce d5 3e 9a 5e 2e be
       0.042829007 -0.42547503 0.4175885 -0.17028275
000030 83 ea bd 3d 9f 1c bc 3d 09 b9 1e 3e 6c 1a 39 3f
       0.09273245 0.091851465 0.15500273 0.7230594
000040 3e 67 6b be 21 50 1d be 3c 5b 53 bd 63 d8 04 3e
       -0.22988603 -0.15362598 -0.05160068 0.1297317
000050 7a 78 d3 3c 3b 7f 19 3f 2d 8a 52 3d ce 8e 03 3e
       0.025814284 0.59959763 0.051401306 0.12847444
000060 47 63 0b bf 8f 5e 5c 3e c1 54 1e bd 4d 2c 22 3e
       -0.5444836 0.21520446 -0.038655046 0.15837212
000070 19 1d 38 bc e1 70 12 3c 6f 75 c4 3e 6f 98 a0 3e
       -0.011237406 0.008938045 0.38370845 0.31366298
000080 92 81 4d 3d d2 51 91 3d f3 28 e9 3d fd 9b df bd
       0.050172396 0.07095684 0.113847636 -0.10918424
000090 6d 35 50 3c 84 cc 0f 3e 69 2f ed 3c 2b f3 fd be
       0.01270805 0.1404286 0.028953271 -0.49599585
0000a0 d5 c0 f8 be 00 41 06 bf e3 6d 05 be dc 84 98 3d
       -0.4858462 -0.5244293 -0.130302 0.07447216
0000b0 5c 18 0a 3c 60 77 1d be 21 3f 3d be 58 d6 42 be
       0.008428659 -0.15377569 -0.18481113 -0.19027078
0000c0 0c e8 85 3e ba 8b f4 3c 3d 74 82 be 29 c9 91 be
       0.261536 0.029851783 -0.25479308 -0.28473786
0000d0 d6 a6 f3 bb ac a0 fb be e1 91 11 bd e8 73 0b 3f
       -0.00743566 -0.4914602 -0.03553951 0.54473734
0000e0 c4 03 20 bd c3 00 04 be 5b 0d 64 bd 2e 1c 96 be
       -0.03906609 -0.12890916 -0.0556768 -0.29318374
0000f0 71 2d ab be ef 2f 56 bd 59 61 33 be f3 96 44 3e
       -0.33433107 -0.052291807 -0.17517604 0.19198208
000100 ab 1f 0a 3e ed b4 ea bc 4f 12 c0 be 38 d5 20 be
       0.13488643 -0.028650725 -0.37513968 -0.15706336
000110 e0 1c 14 be 67 0d 12 bf 83 1c 89 3e 8d 61 fd be
       -0.1446414 -0.570517 0.26779565 -0.49488488
000120 0f 1d 20 3d 87 f2 e3 3d 2c ce bf 3e d8 56 8c 3e
       0.039090212 0.11130243 0.37461984 0.27410007
000130 7d 44 bc 3e 5d b1 cd be 53 cc 0b be a3 06 61 3e
       0.36771002 -0.4017438 -0.13652162 0.21975188
000140 5b 71 11 3d f6 9b db bd c4 89 44 3d e1 69 b0 be
       0.035508495 -0.107231066 0.047982946 -0.3445578
000150 d8 0c 24 bf dc 67 8f be 10 29 ff 3d c1 46 7f 3e
       -0.640821 -0.28008926 0.12459004 0.24929334
000160 86 5f a2 bd 9e 80 c7 bd 56 0f 84 3e a9 18 ab 3e
       -0.07928376 -0.09741329 0.2579295 0.33417252
000170 6f f6 b7 3e 4e 66 28 3e 0f 53 c5 3d 7f 78 6f 3d
       0.359302 0.16445276 0.09634983 0.058464523
000180 98 ce 9a 3e 4e 42 f1 bd ab e3 d7 3c 8c bf 37 3f
       0.30235744 -0.11780225 0.026353678 0.7177665
000190 4c c5 2c 3e 7e 13 f6 bd 88 98 0a 3e d2 70 66 3e
       0.16872138 -0.120154366 0.13534749 0.22503975
0001a0 b4 21 08 3e fd 16 6c be b3 c0 a2 be 52 3c 20 3d
       0.13294107 -0.23055644 -0.31787643 0.039120026
0001b0 a4 6b 4c bd 3a 5a ef bc e9 62 bf 3d a8 d9 5e be
       -0.04990734 -0.029217828 0.093450375 -0.21762717
0001c0 69 91 cf bd 2c 3b f7 3d 59 1d f3 3e 04 c6 ef 3e
       -0.10135157 0.12071833 0.47483328 0.4683076
0001d0 89 4b a8 3e bd f6 50 bc 79 70 57 bd da a3 42 bb
       0.3287013 -0.0127541395 -0.052597497 -0.0029699714
0001e0 58 b5 69 be 5e cc 25 3e c6 59 c9 bb 29 f5 2e be
       -0.22823083 0.16191241 -0.006144735 -0.17085709
0001f0 54 0b 35 3e d0 36 0c be 55 d4 8d bd 76 41 92 3e
       0.17680103 -0.13692784 -0.06925265 0.28565568
000200 e4 98 02 be 7e d5 6b 3e 3e 54 16 be f9 9a 60 3e
       -0.12753636 0.2303066 -0.14680573 0.21934117
000210 be a2 15 be 4f 11 06 3d 44 6a 15 be 25 94 a7 3e
       -0.14612862 0.03273135 -0.14591318 0.32730213
000220 47 c1 cb 3e 76 50 3b 3e 19 9f 11 3e 6c 6e 4e 3e
       0.39795896 0.18292412 0.14220847 0.2015931
000230 2d 7c 88 be c2 0b 33 3e c2 3b 2c 3e aa 45 ab 3d
       -0.2665724 0.17484954 0.16819671 0.08362897
000240 f2 1e 13 3f 9e 82 a3 bd 3c 61 a7 be f5 22 87 3e
       0.57469094 -0.079838976 -0.3269137 0.26393858
000250 16 c9 6a 3d 16 0c 7c bd d7 fc 46 be 9d 1c 76 be
       0.057320677 -0.061534964 -0.19432388 -0.24034353
000260 06 ac 65 3e 3a 28 06 be 18 93 03 3e c9 1d 51 3e
       0.22428903 -0.13101283 0.1284908 0.20421518
000270 4e f9 24 be 31 ec d6 3b 49 43 c0 3d 9f c9 7a bb
       -0.16110727 0.006558918 0.093878336 -0.0038267148
000280 05 13 20 3e 68 72 71 3e e2 f9 9c be 19 0b 56 bc
       0.15632255 0.23578799 -0.30659395 -0.013064169
000290 ae de c4 3d e6 0a ed 3d 9a 93 dc 3e 9d b2 04 bf
       0.09612785 0.11574344 0.4308136 -0.5183504
0002a0 ec e9 c4 3c 5b be 3a 3d 10 b0 5e bd fd 72 96 bd
       0.024037324 0.045591693 -0.054367125 -0.07346151
0002b0 db 85 fb 3e bb ba ea bd 30 a7 f8 3e 9f e1 dc be
       0.4912556 -0.11461397 0.48565054 -0.43140885
0002c0 21 22 f1 3d 80 f7 54 bd 42 19 8e 3c 38 7a 25 bd
       0.11774088 -0.051993847 0.017346028 -0.04039976
0002d0 f0 22 97 3e 3e ef 7b be e7 ff 48 3e 5b 3f 5a 3e
       0.29518843 -0.24602982 0.19628869 0.2131323
0002e0 6a 18 d7 bc 40 6b 3d be eb be d2 bd ee 26 0a be
       -0.026256759 -0.18497944 -0.10290321 -0.13491413
0002f0 b9 54 3b 3e a4 ff 61 3e 89 e6 1a 3e be 01 40 3e
       0.18294038 0.22070175 0.15127005 0.18750665
000300 3d 83 34 be 7c 3f 90 be c5 97 e8 bd 14 78 9a 3e
       -0.17628188 -0.28173435 -0.11357073 0.30169737
000310 6d 1e ba be 28 40 54 3e c3 16 51 3b bd 79 70 bc
       -0.36351338 0.20727599 0.0031904436 -0.014677462
000320 0b c0 16 3d 6f 09 b7 3e df 84 ac be 79 a8 33 3f
       0.03680424 0.35749385 -0.33695123 0.70178944
000330 61 15 25 bf 48 17 2c 3f 7f cf 81 bf 2f 6e b1 3c
       -0.64485747 0.67223024 -1.0141448 0.021658985
000340 bd 8e 8e bc 28 3c e0 3c 65 5d 64 be a0 15 22 3e
       -0.017402047 0.027372435 -0.22301252 0.15828562
000350 4e ab 13 bf 29 d9 a1 3d c6 31 34 3e 27 08 23 be
       -0.57683265 0.07902748 0.17597112 -0.15921079
000360 ac f7 22 3e 42 ca c8 bd f6 b5 20 bf 24 af 4e bd
       0.15914792 -0.098042026 -0.6277765 -0.050459996
000370 b3 e2 73 3e 3a a3 7e 3d ac 73 1e 3e 0e b4 48 be
       0.23816948 0.062167384 0.15473813 -0.19599935
000380 c8 06 48 3e a7 50 a1 3b 98 f4 99 bd 80 5e 72 3c
       0.19533837 0.0049229446 -0.07517356 0.014793038
000390 cf 70 22 bd fb 87 5a 3e 61 4f f1 bd 8e 4c 95 3e
       -0.039658364 0.21340935 -0.117827184 0.2915997
0003a0 a6 ae 47 3e ce 46 52 3e f4 f9 62 be d1 a7 9e be
       0.19500217 0.20534822 -0.22165662 -0.3098741
0003b0 5d 64 8f 3e c7 1e c0 3d a9 83 93 be 9f 06 0a be
       0.2800626 0.0938087 -0.28811386 -0.13479088
0003c0 aa 3e 54 bd 7c 7c 15 3e 19 e7 61 be 96 cc 7a 3e
       -0.051817574 0.14598268 -0.22060813 0.24492106
0003d0 21 39 65 be 8e 92 f8 bd 05 4a ed 3d c7 13 1c 3e
       -0.22385074 -0.12137328 0.11586384 0.1524192
0003e0 d6 42 ef bd b8 6f 14 3a 7a 85 66 3e 13 c6 e4 be
       -0.1168267 0.00056623993 0.22511855 -0.4468237
0003f0 e0 7b 00 3e 0c 5d 28 3e 74 8e 30 bd 87 13 28 3f
       0.12547255 0.16441745 -0.043104604 0.65654796

fc1.bias f4 [256]
000000 a4 cb 54 3e 4e 72 42 3e 42 5f 2c 3e 4c 75 ac bd
       0.20780808 0.18988916 0.16833213 -0.0842081
000010 5e e0 ba be 2a e8 9d 3d 6a 17 62 be 54 ea 03 3e
       -0.36499304 0.077102974 -0.22079244 0.12882358
000020 76 75 b1 3d c0 c6 48 be c1 d0 ce 3c 82 a9 e1 bc
       0.08664982 -0.19607067 0.025246026 -0.027546648
000030 55 ec 00 3e d7 a8 10 3d 98 9e 72 be 05 b9 50 be
       0.12590154 0.03531727 -0.23693311 -0.2038308
000040 6e 62 66 3e c7 a5 2c 3e e8 42 c3 bc fa 77 ef 3d
       0.22498485 0.16860114 -0.023835614 0.116928056
000050 1e f1 82 3e 5a d7 78 be f3 1a 11 bd 7e e6 96 be
       0.25574583 -0.243009 -0.03542609 -0.29472727
000060 40 b7 8f 3d 69 18 3e 3c 31 2f b7 3d 37 e7 e3 3d
       0.07017374 0.0116024995 0.08944548 0.11128085
000070 cc f6 ed 3d ec b3 96 be e9 7f 81 bd bb ce d5 bc
       0.116193384 -0.29434144 -0.06323225 -0.026099553
000080 bc 31 6b 3e 29 80 26 3e fe ab 36 3d cf 26 a3 3d
       0.22968191 0.16259827 0.04459762 0.079663865
000090 98 5e b7 3d 55 91 5c be 65 4a d1 3d d3 d0 8e bd
       0.08953589 -0.21539815 0.10219268 -0.06973424
0000a0 4f 52 0e be 89 1c 80 3e 9e 7c b8 3d 9a 49 2b 3e
       -0.13898586 0.2502177 0.09008144 0.16727296
0000b0 73 85 5f 3d 85 d6 32 be b9 23 cf bd a7 19 b9 bd
       0.054570626 -0.17464645 -0.101142354 -0.09038096
0000c0 f2 26 8d be d4 ba 6e 3d 6c 8b 41 be 23 9b 15 3e
       -0.27568775 0.058283642 -0.18900841 0.14609961
0000d0 89 65 34 bd 81 e7 8a be ba cd 16 3e a0 c5 57 3d
       -0.044042144 -0.27129748 0.14726916 0.052678704
0000e0 27 00 5b 3e bd 34 1b 3c 1d 19 99 3d 5b 0c 3f 3e
       0.21386777 0.009473023 0.07475493 0.18657057
0000f0 eb 37 a1 be 7a 80 b0 3d a4 2c 56 be 81 db 26 3e
       -0.31487975 0.08618255 -0.20915467 0.16294672
000100 7b b5 83 3e a3 6c f7 bd 47 5a c2 bd b9 ad 3a 3e
       0.25724396 -0.12081268 -0.09489875 0.18230332
000110 84 7c dd bd 32 83 d4 3d 33 c0 6e 3e 87 6b 65 be
       -0.10814765 0.10376586 0.23315506 -0.224043
000120 31 7b 7e 3c 40 24 7a 3e d7 9a 0a 3e d4 9e 5b bd
       0.015532301 0.24427891 0.13535629 -0.053618267
000130 83 3e 0c be fe ce 26 be 81 38 d3 bd be ee fc 3d
       -0.13695721 -0.16289899 -0.10313512 0.12350224
000140 0d 92 d2 3d 2b f7 b9 3d 26 56 bf bd 5d 03 5b be
       0.10281763 0.09080347 -0.093426034 -0.21388002
000150 d7 fa fe bd c4 f2 95 3c 70 b7 b9 bd ee 43 16 3e
       -0.12450188 0.018304236 -0.09068191 0.1467435
000160 98 2e 48 be b1 7f a8 3b 6e 1f 8f 3d ab be f9 bd
       -0.19549024 0.005142175 0.069884166 -0.1219457
000170 91 df 85 3d db 05 0d be 53 7f 93 bd 29 87 7f 3e
       0.065367825 -0.13771765 -0.072020195 0.24953903
000180 3c 57 db bd 56 25 12 be 3c f6 ed 3b 7d 7d 1c 3e
       -0.10709998 -0.14272055 0.0072620194 0.15282245
000190 26 f5 08 3e 20 1d fb 3d 8f 8f 3e be 52 e5 79 be
       0.13374767 0.122614145 -0.18609451 -0.24403885
0001a0 f2 1b 28 be ef 93 3d bc 61 b5 06 3c 31 1a 38 be
       -0.1641691 -0.011570915 0.008221955 -0.17978741
0001b0 90 1d 81 be f1 fc fc bd 04 51 d3 3d 28 8c 1d 3e
       -0.25217867 -0.12352932 0.10318187 0.15385497
0001c0 da 78 4d 3e cf 78 b8 bd 04 87 c5 bd 90 dc 9f 3d
       0.20065632 -0.090074174 -0.09644893 0.07805741
0001d0 98 56 4f be 50 a0 30 3e 88 f0 bf 3d 51 ac 10 3e
       -0.20247877 0.17248654 0.093720496 0.14128233
0001e0 d6 23 24 be 5e 4a 8e 3d 87 a8 3c be a9 bf bb 3b
       -0.16029295 0.06947778 -0.18423663 0.005729635
0001f0 c1 40 0e 3e 67 c9 c1 3d 59 33 29 bd af 46 a5 be
       0.13891889 0.094622426 -0.041308735 -0.3228049
000200 a4 66 f0 3d 53 0b 7a be 72 a6 40 3d 04 f1 12 be
       0.11738327 -0.24418382 0.047033735 -0.14349753
000210 34 38 1e 3e e1 92 c3 bd e7 ac 83 3d 49 ee c3 3d
       0.15451127 -0.09549499 0.06429463 0.09566934
000220 26 2d 15 be a1 1f 13 be 28 08 99 bc 41 18 5a bc
       -0.14568004 -0.14367534 -0.018680647 -0.013311447
000230 fa 4c 26 be 9f db f7 3d 4a 90 3f 3e 41 15 64 bd
       -0.16240302 0.12102436 0.18707386 -0.05568433
000240 6c 6a 1c bd 32 20 2c 3e 23 a1 75 be 62 e3 0b 3d
       -0.03818743 0.16809157 -0.2398725 0.034152396
000250 c8 e6 8f 3d 6c 4f 23 3e b1 25 5a 3e 93 49 9b be
       0.0702644 0.15948266 0.2130344 -0.3032957
000260 5c fd be bd 70 99 2d 3e 7d 31 6c 3d a9 ba 8e be
       -0.09325668 0.16953063 0.057664383 -0.27876785
000270 d7 53 d7 3d a4 03 63 3d c5 83 ce 3c 6b 19 4a 3d
       0.10514038 0.055423394 0.025209317 0.049340647
000280 14 0a 46 be 4e 87 2e be 08 d3 9a be 26 ce 70 bc
       -0.19339782 -0.17043802 -0.3023913 -0.014697587
000290 00 c5 c0 3d e1 a7 c5 bc fc 91 40 3e 90 ac d0 3d
       0.09412575 -0.024127902 0.18805689 0.10189164
0002a0 50 5c cb bd 4a 7a 91 be 04 b8 e2 bc b1 1d 77 3d
       -0.099297166 -0.28413612 -0.027675636 0.06033105
0002b0 25 7d d2 bd 02 dc 27 3e 72 ce fe bd c9 30 22 3e
       -0.10277776 0.1639252 -0.1244172 0.15838923
0002c0 da ef 3d be 1c a8 af bb f7 63 74 be 50 d3 20 3e
       -0.18548527 -0.0053606164 -0.23866259 0.1570561
0002d0 b9 85 ce bc e5 82 5d be f2 78 b5 bd ed 8c ff 3d
       -0.025210248 -0.21631964 -0.08860959 0.12478051
0002e0 13 57 6c 3e a0 3d e8 bc 47 0b 21 bd fc 52 ab 3d
       0.23080091 -0.028349698 -0.039317396 0.083654374
0002f0 87 20 11 be 72 ab 62 bd ff 28 08 be f4 72 44 3e
       -0.14172564 -0.055339284 -0.13296889 0.19184476
000300 b4 9d 69 3e 85 97 13 3e 2a 3e 8e 3e c1 f9 05 3e
       0.22814065 0.14413269 0.27781802 0.13083555
000310 86 7b 23 3e 8d 88 cc bc ca 05 ae 3d 1a e0 f6 3d
       0.15965089 -0.024967456 0.08497198 0.12054463
000320 c2 f9 ff bd 92 38 3a 3e 22 74 e4 bd 63 94 86 3a
       -0.124988094 0.18185642 -0.11154963 0.0010267611
000330 66 ff 56 3d 62 75 de 3d f4 57 f3 3d 08 3a d9 bd
       0.05248966 0.10862233 0.1188201 -0.10606772
000340 cd 63 90 3d 45 5c 05 3e 4e b5 a2 3c 77 f5 dc bd
       0.070502855 0.1302348 0.019861843 -0.10789006
000350 22 0c cc 3d 9e ef 24 bc d0 65 c1 bd 1f 34 1b 3e
       0.09963252 -0.010066895 -0.09443247 0.15156601
000360 d0 2a a7 3d 27 f9 a3 be 1d 00 3a 3e aa 4d aa be
       0.08162463 -0.32026026 0.18164106 -0.33262378
000370 16 d7 ab 3d 5f 46 50 3e a2 90 6b be 8a ea 12 3d
       0.08390634 0.20339344 -0.23004392 0.035868205
000380 7c f9 2e 3c e2 22 ba 3d a3 70 8c 3e 00 eb 06 3b
       0.010679599 0.090886846 0.27429685 0.0020586848
000390 5c a9 1a 3e 35 10 22 3e a5 03 9f 3d 00 eb 74 be
       0.15103668 0.15826495 0.07764367 -0.2391777
0003a0 f0 e9 c8 3d 0b 73 09 be 83 14 82 3e 5b 1f 86 3d
       0.09810245 -0.13422792 0.25406274 0.06548949
0003b0 4f 2a 24 be 9c f8 d2 3c ba 85 8d bd a4 6c c2 bb
       -0.16031764 0.025753312 -0.06910272 -0.005933361
0003c0 70 5b 3c be 35 58 9f 3d b6 10 98 be 44 7c f0 3c
       -0.18394256 0.07780496 -0.2970025 0.02935613
0003d0 5a 01 ae 3d 7f fa 53 3d f1 bf 0f 3e d4 fe f9 bc
       0.084963515 0.051752564 0.14038064 -0.03051702
0003e0 51 80 46 3e 32 ef a7 3d 8e 69 c4 3d 6b a0 25 be
       0.19384886 0.0819992 0.095904455 -0.16174476
0003f0 a0 94 ab bc f1 4a 80 3d cd b8 02 3e a0 83 aa bd
       -0.020944893 0.06264294 0.12765808 -0.08325887

fc2.weight f4 [256, 256]
000000 37 d9 bd 3b f5 bf 8a bd f5 4a 91 3b 12 7a 60 3d
       0.0057937163 -0.06774894 0.0044339844 0.054803915
000010 86 a8 53 ba 45 c8 8c bb 02 ad 51 bd b4 9d 7e bd
       -0.0008074123 -0.004296335 -0.051190384 -0.062162116
000020 1e 78 00 3d 9a a6 60 3d 51 fb 58 3d 52 02 5c bd
       0.031364553 0.054846384 0.05297405 -0.05371315
000030 43 6a f2 3b ac b9 8d 3c 15 aa 8a bd 05 b2 97 3a
       0.0073979213 0.01730045 -0.06770722 0.001157344
000040 a4 86 8c 3b 38 49 bc bb 57 b6 bb 3c 0d 43 1a 3c
       0.0042885114 -0.005746033 0.022914095 0.0094154
000050 bb 5f e4 bc 3f 1e 23 bd 96 99 ac 3c 1d 01 86 bd
       -0.02787768 -0.039823767 0.02106933 -0.06543181
000060 e9 8b 53 3c 16 e6 99 bc e2 dc d5 bc b7 a0 3c 3d
       0.012911775 -0.018786471 -0.026106302 0.046051707
000070 9e 14 a2 3c 8f 0b 36 3d 71 a7 da 3c cb b0 f6 3c
       0.019785222 0.044444617 0.02669117 0.030113598
000080 86 9a 1d bd 24 59 85 3c 62 53 55 bd b6 d9 26 3d
       -0.038477443 0.016277857 -0.052081473 0.04073497
000090 3f 62 39 3b a5 fa 01 bd 0d 65 8c bd c0 fe ba bb
       0.002828732 -0.031733174 -0.068552114 -0.005706638
0000a0 cc 3c 01 3d 28 07 4d 3d 77 7c a8 bc 28 e8 4d 3c
       0.03155212 0.050055653 -0.020567162 0.012567557
0000b0 ee de 25 3d f1 11 43 bc e2 5c 62 3d ef c8 31 3d
       0.040495805 -0.011906133 0.05526436 0.043404516
0000c0 c1 44 59 3d 35 a7 8b bd e4 28 73 bd a3 30 80 bd
       0.053044084 -0.068190016 -0.05936517 -0.06259277
0000d0 39 9e 4b bd 00 09 cb 3c e8 da b1 bc bd 29 86 bd
       -0.04971144 0.024784565 -0.021710828 -0.0655093
0000e0 ef c4 e6 b8 30 e9 35 bd c7 9c 26 bb c1 63 d8 3c
       -0.000110039364 -0.044411838 -0.0025423036 0.026414754
0000f0 22 d4 64 3d c9 81 d0 3c c8 85 47 3d d5 ba 02 bd
       0.055866368 0.025452511 0.048711568 -0.03191646
000100 de f1 2c 3c 76 8b 19 bc 27 8d 26 bd 1e 75 14 bd
       0.0105557125 -0.009371629 -0.040661957 -0.036244504
000110 16 a5 28 3d c8 68 37 bd 0c 3b 7a bd 6d 8c 87 bd
       0.041173063 -0.04477766 -0.061091468 -0.06618581
000120 3a 82 58 bc cb ae 6e bd 0a f9 d2 bc 73 f4 fb 3b
       -0.013214642 -0.058272164 -0.025753517 0.0076890527
000130 70 45 49 3a cb 61 e6 bb c8 c3 c5 3c 34 6f 73 bd
       0.00076778885 -0.007030701 0.024141207 -0.059432223
000140 6d 59 83 bd 5d 94 14 3d 03 ac e6 bc 17 52 3a 3d
       -0.06413541 0.036274303 -0.028158193 0.045488443
000150 4f e8 a5 bc 19 3e 4e bc 36 91 97 bc 67 28 a3 bc
       -0.020252375 -0.012588047 -0.01850186 -0.019916726
000160 2e ba 28 3b 11 40 40 bc 3d 87 05 bd a9 99 d8 3c
       0.0025745737 -0.011734025 -0.032599676 0.026440458
000170 4e 15 12 bd 57 10 2d bc 85 f6 16 3d ae b7 1e bd
       -0.03566485 -0.010562978 0.036856193 -0.03874939
000180 5e 42 91 bc c9 b7 47 bd 34 62 71 bd 4e 4b 22 3c
       -0.017731842 -0.048759256 -0.058931544 0.009905649
000190 ab 05 80 bd 84 6a f3 bc 4d db 8a bd 86 09 98 bc
       -0.06251081 -0.029713877 -0.067801096 -0.018559229
0001a0 92 3b 80 3b 7e 4b 29 3d 11 48 47 bd 9a 7b e3 3c
       0.0039133513 0.04133176 -0.048652712 0.027768899
0001b0 a2 2e d8 bc 23 89 64 bd d9 01 d7 3b b0 e6 44 3d
       -0.026389424 -0.055794846 0.0065614996 0.048071563
0001c0 34 e9 80 3c 09 aa 42 bd c1 3e da 3c aa c9 50 bd
       0.0157362 -0.04752544 0.026641252 -0.05097357
0001d0 0a 4a d2 bb b2 a7 5b bd e8 7e 38 bd d9 ab c3 bc
       -0.0064175176 -0.053626724 -0.045042902 -0.023885654
0001e0 1d 83 01 bd a2 07 52 bd 87 35 32 3a 4d 2c 8a bd
       -0.03161918 -0.05127681 0.00067981373 -0.06746731
0001f0 26 8b 1e bd 50 43 4d 3d af ad a8 bc 2e b5 ad 3c
       -0.03870692 0.050113022 -0.020590631 0.021204557
000200 10 bb 38 ba 5e f7 10 bc 07 9d 27 bd 87 c6 37 3d
       -0.00070469175 -0.008848039 -0.040921237 0.044867065
000210 c1 66 4b bd 5b 46 6f bd 39 9d 47 bd 23 4c 6a bd
       -0.04965854 -0.058416706 -0.048733924 -0.057201516
000220 a3 bd ee bc 94 58 70 bd 65 4c 1d 3d 35 32 12 bd
       -0.02914316 -0.058678225 0.038402934 -0.035692412
000230 02 39 5c bd de 9a 2e 3d fd 81 89 bd 89 b8 4a 3d
       -0.053765304 0.04262816 -0.067142464 0.049492393
000240 27 7e b5 3c c6 51 a6 3c 9f a2 34 bd 40 fe 5a bc
       0.02215488 0.020302664 -0.0441004 -0.013366282
000250 ca 18 55 bc f2 0b 5d bd a5 e1 1a 3b 36 b3 22 3d
       -0.013006398 -0.05396647 0.002363303 0.03972169
000260 f5 eb 0b bd 3f 7e 2c bd 8d a1 84 bc bd d9 8a bd
       -0.034160573 -0.042112585 -0.016190315 -0.067798115
000270 ad 24 11 3c 63 e9 ee bc 95 5c 19 3d e4 c5 0f 3d
       0.008858842 -0.029164022 0.03744181 0.035100833
000280 62 e8 51 bd c9 1a dd 3c 40 9e 88 3c f8 27 34 bd
       -0.05124701 0.026990311 0.016677022 -0.04398343
000290 fd 61 86 bd e2 6b 53 bd 04 c7 07 3d af 1d 27 bd
       -0.065616585 -0.051616557 0.03314878 -0.040799793
0002a0 33 39 7c 39 f2 90 64 3d f0 89 c8 3c 16 35 11 bc
       0.00024053901 0.055802293 0.024479836 -0.008862754
0002b0 e2 1d 60 3d 53 12 6a ba 85 31 89 bb 51 28 45 bc
       0.054716 -0.0008929122 -0.0041868114 -0.012033538
0002c0 e5 aa 87 bd c5 50 89 bd 14 51 84 3c 97 75 32 3d
       -0.066243924 -0.06704859 0.016151942 0.043569174
0002d0 53 51 6c bc 68 80 be bc 98 17 ca 3c b7 5f 32 3d
       -0.014423686 -0.023254588 0.024669454 0.043548312
0002e0 41 bd 47 bc d6 a4 27 3d 97 52 3c 3d 0d 8d 96 3c
       -0.012191118 0.040928684 0.0459772 0.018377805
0002f0 aa e5 dc bc d5 7e 0c bd 77 17 a4 bc 57 07 a2 bc
       -0.026964981 -0.034300644 -0.02003072 -0.01977889
000300 67 ce 31 3b 44 5e 74 bd af 74 3e 3d a6 b2 26 3d
       0.0027131082 -0.05966021 0.046497997 0.040697716
000310 53 8d e2 bb b6 63 10 bd ed d0 06 bc de 59 24 3d
       -0.00691382 -0.03525134 -0.008228523 0.040124767
000320 83 67 67 bd 03 8e eb bb c9 69 54 3c 46 be 96 bc
       -0.0564952 -0.00718856 0.012964674 -0.018401276
000330 c8 eb 36 bd a8 3b be bc 6a 22 ef 3c 63 4b 67 bd
       -0.044658452 -0.023221806 0.029191215 -0.05646838
000340 d7 a2 38 3c 26 02 20 3d 29 86 d5 3c 69 3d de 3c
       0.011269293 0.03906455 0.02606495 0.027128892
000350 94 af 07 3d 9b 87 fa 3c 1a 39 6c 3b 72 e6 5c bc
       0.03312643 0.03058224 0.0036044777 -0.013482677
000360 9e 5c 16 bd d2 19 56 bd 9c 1a 08 3d ce da 21 3a
       -0.03670942 -0.052270718 0.0332285 0.0006174267
000370 dc d4 03 3d 1b 41 73 3b 40 76 3e bc 15 ae 81 bc
       0.03218542 0.0037117663 -0.011624873 -0.01583008
000380 b6 07 97 bc be 56 a4 3b 63 86 f2 3c ac e3 06 3d
       -0.018436294 0.0050152233 0.029605096 0.03293197
000390 44 e4 ff bc 5d 6a 1b 3d ad 26 19 3d b1 31 5e 3c
       -0.031236775 0.037943233 0.0373904 0.013561652
0003a0 ce 93 98 bb 06 c4 14 bd cf 9b 38 3d 4b dd 60 bd
       -0.0046562916 -0.036319755 0.045070466 -0.05489854
0003b0 fc 59 7f bd c0 66 cb 3c 80 32 c2 3c 2c 49 8d 3c
       -0.062341675 0.024829268 0.02370572 0.017246805
0003c0 2a 52 53 bd 5a 2c 6b 3b 44 fa 8c 3c 05 25 89 bc
       -0.05159203 0.003588459 0.01720918 -0.016741285
0003d0 4e 5a 2c 3d b7 7c 29 bd be 50 25 3d 86 18 22 3d
       0.04207831 -0.041378703 0.040360205 0.03957417
0003e0 23 39 69 bd 6d 35 89 bd 93 fd 61 bd ff 1e 3f 3d
       -0.056939255 -0.06699643 -0.055173468 0.04666042
0003f0 b0 3d c3 3b d8 f3 37 bc 48 ae 3a bd f9 98 4f bd
       0.0059582815 -0.0112275705 -0.045576364 -0.050682995

fc2.bias f4 [256]
000000 f6 45 af 3c f6 a7 5e 3d ac 6c 63 bd 66 d2 9f bb
       0.021395665 0.0543594 -0.05552356 -0.0048773764
000010 dc ea 77 bd 64 45 95 bb a2 74 be ba 2a bb 61 3d
       -0.060526714 -0.004555391 -0.0014530609 0.055110134
000020 a2 ac 5c bd 26 e3 20 3c 32 30 b0 3d 1e e5 73 bd
       -0.053875573 0.009819781 0.086029425 -0.059544675
000030 f6 bc 17 bb e6 21 b6 bc ef 76 27 3b 5d b6 94 3c
       -0.00231534 -0.02223296 0.0025553068 0.018153364
000040 96 60 49 bd 79 66 83 3d ec c4 26 3d f1 d1 48 3c
       -0.049164377 0.064160295 0.040715143 0.012257085
000050 47 bb 32 3d c9 e2 41 bd 69 0f 15 3c 82 89 8a bc
       0.043635633 -0.04733542 0.009097912 -0.016911272
000060 87 95 a2 bd 85 3e 8b 3d 1f 6c 05 bd 89 fb 89 bd
       -0.07938676 0.06799034 -0.032573815 -0.0673743
000070 9d e0 d9 bc bf e4 af bd 47 f7 db bc 4e 55 06 3d
       -0.026596362 -0.08588552 -0.02685131 0.032796197
000080 aa 86 cb bc d9 73 44 bc 95 d8 59 bc 39 47 a9 bc
       -0.024844486 -0.011990511 -0.013296266 -0.020663844
000090 5b a8 87 bc 47 02 2d bc 44 f5 b3 bc fd 9b 82 3d
       -0.01655977 -0.010559625 -0.021967538 0.06377409
0000a0 b6 65 4a bd 7f cd 24 bd 15 e0 a4 3c 2e 31 2a 3d
       -0.049413405 -0.04023504 0.020126382 0.041550808
0000b0 a8 1f 59 3c 00 9f a2 3c c7 6c 07 bb d4 85 67 bd
       0.013252176 0.019851208 -0.0020664202 -0.056524113
0000c0 2b 2c 48 3c 84 a6 85 bd c4 db 90 3d 9d 44 b9 3c
       0.012217562 -0.06525901 0.07073167 0.022615725
0000d0 dc ea 56 3d ce e3 2c 3d 1d d2 1a 3c 9c 09 d6 bc
       0.052470073 0.04220944 0.009449509 -0.026127629
0000e0 17 ee b5 bc 5d 90 04 bd 39 ee 34 3b 21 1f c6 3c
       -0.022208257 -0.032364238 0.0027607812 0.024184765
0000f0 5e 31 43 3d 0c 08 c3 3c ae 0f 0a 3d e5 60 80 3c
       0.047654502 0.023807548 0.03370636 0.015671203
000100 c9 e8 29 bd 46 1e c2 bc b2 8f 84 3d 85 8a 0f bd
       -0.041481767 -0.023696076 0.0647272 -0.035044212
000110 c4 a4 c9 bd a5 64 80 bb 8b ad 3d bd 40 dd 20 3d
       -0.0984588 -0.0039182478 -0.04630808 0.0392735
000120 c7 82 c5 3c 46 ba 1f bd 44 c5 40 3d c5 b8 00 bd
       0.024110211 -0.038996004 0.047063127 -0.03142621
000130 67 b4 1d 3d d9 92 dc 3c 9d 0f 1c 3c 48 e4 53 3d
       0.038502123 0.026925491 0.009525207 0.051731378
000140 16 2e 15 bc cc 1d 4b 3c 97 a6 7d 3d 66 7c 2e 3d
       -0.009105226 0.012397241 0.06192645 0.042599104
000150 d5 88 fc bc a6 4c b6 3d 65 36 4d bd 0c ae ab 3c
       -0.030826965 0.08901338 -0.050100703 0.020957015
000160 66 41 6d 3d a2 41 59 bd 5d 71 85 bd c1 01 5b 3d
       0.057923697 -0.053041108 -0.06515763 0.05346847
000170 79 4a 0f 3d e4 4b 86 3d b7 fe 0e bc c6 69 89 bd
       0.034983132 0.06557444 -0.008727721 -0.06709628
000180 37 34 59 3b 84 cc d5 3d f7 74 c1 bd fd f2 8b bd
       0.0033142695 0.10439399 -0.094461374 -0.06833456
000190 63 d5 69 bd 65 1b 1d 3c e4 ee 3a 3d e6 1e a9 3d
       -0.057088267 0.009589051 0.04563798 0.082578465
0001a0 13 a9 cb bc fa bd 86 3d 88 63 d4 bb 67 5d 72 3d
       -0.024860894 0.06579204 -0.0064815916 0.059171107
0001b0 ee d4 15 3c e4 a1 7c bd 7d 2d 95 bc c3 97 33 bd
       0.009145005 -0.06167783 -0.018210167 -0.043845903
0001c0 0e 49 5b 3d d2 98 45 3d c8 47 8f bd 19 ca 33 bd
       0.053536467 0.048241444 -0.06996113 -0.043893907
0001d0 a4 87 be 3c 4b e3 bb 3d b3 d1 3e be 57 db 06 3d
       0.023258038 0.09174212 -0.18634681 0.032924023
0001e0 d0 34 46 3d 31 51 0c bd f7 d8 9f 3d f5 93 86 3d
       0.04839021 -0.034257118 0.07805055 0.06571189
0001f0 ed 2a a6 38 57 f7 2c bd c4 ce 6f 3d 00 f8 0a 3c
       7.9234924e-05 -0.04222807 0.058546796 0.008481979
000200 b0 cf cc 3c 47 e8 92 3d 3a 09 9d 3d a0 4a 56 bc
       0.025001377 0.0717321 0.076677755 -0.013079315
000210 8a b3 06 be 79 f9 ce bc 47 a2 96 bd 02 04 14 3c
       -0.13154426 -0.025265442 -0.07355171 0.009034159
000220 d6 bb 3a bd a0 e9 20 be f8 a1 63 3d c8 67 cc 3c
       -0.04558929 -0.15714121 0.055574387 0.02495183
000230 0c 02 8d 3d a9 62 3e 3d 56 b3 16 bd a1 a8 0a 3a
       0.06885156 0.04648081 -0.03679212 0.000528941
000240 fc d7 66 bd 7d 20 d9 ba 1d 4c 87 3d b8 2d b2 bc
       -0.056358323 -0.0016565468 0.06606314 -0.021750316
000250 48 a0 d6 bc 40 ab 5c bd 64 9b 9f 3d f7 83 23 bd
       -0.026199475 -0.053874254 0.0779331 -0.039920773
000260 fa 01 69 bc cc c3 a7 bb 4d 3d 0b bb 74 ea 85 3c
       -0.014221663 -0.0051197764 -0.0021246255 0.016347148
000270 21 7d cd bc 5a 55 1a bc 44 07 76 bd 06 bc ac 3d
       -0.02508408 -0.009419763 -0.060065523 0.084343
000280 4e 22 94 bb 0d 86 37 3d 86 a7 6a bc e7 43 2d bd
       -0.004520691 0.044805575 -0.014322167 -0.042301085
000290 b0 f0 e0 3c fb eb cf bc 9e ae 39 3d 57 57 93 bc
       0.027458519 -0.025381079 0.045332544 -0.017985983
0002a0 54 ba 80 bd 7b cd 3c 3c ee 90 99 bc 06 29 2a be
       -0.06285539 0.0115236 -0.018745866 -0.16617212
0002b0 3c c0 5d bd 7b fd 4c 3d 62 91 2d 3e f2 8c 4d be
       -0.054138407 0.050046425 0.1694999 -0.20073298
0002c0 21 09 41 3c 5d 12 8a 3d 1c e7 59 bc 33 6b 00 bd
       0.011781962 0.06741784 -0.01329973 -0.031352233
0002d0 ed db 75 bd 97 c1 d1 3c 76 83 cf 3b d0 da 59 bc
       -0.06002419 0.025605006 0.00633281 -0.013296798
0002e0 5a d9 4b bd e2 bf a9 3a d5 c7 82 bc 86 80 a3 3d
       -0.04976783 0.0012950862 -0.015964428 0.07983498
0002f0 1f 84 17 bd a9 c8 80 3c 83 7a 45 3c 58 9c 39 3d
       -0.036991235 0.015720682 0.012053135 0.045315117
000300 78 4b 0f bd 71 6e 8c bd e3 07 36 bc b3 92 6b bd
       -0.034984082 -0.068570025 -0.011110279 -0.05751295
000310 0e 2e 2a 3d ff f1 bc 3d f8 3b 80 bd 33 c2 7a 3c
       0.041547827 0.092258446 -0.06261438 0.01530509
000320 33 b9 ef bc 80 0a 38 bd 26 7f f7 3b a1 89 8b 3c
       -0.029263115 -0.04493189 0.007552999 0.0170334
000330 cd cf 9d 3d 9f d6 3c bd 74 25 2a bd 7f 9c 08 bc
       0.077056505 -0.046103116 -0.041539624 -0.008338093
000340 26 cf 98 bc 04 b0 44 3d ee 8d ed bc 8f 43 83 3d
       -0.018653464 0.048019424 -0.028998341 0.0640937
000350 8b 1b 55 bd 2c 3d c9 3c ab 1f 67 3d 7e f8 e6 3d
       -0.05202822 0.024565302 0.056426685 0.11277865
000360 20 77 bc 3b 09 3f 1d bd 40 ff 39 bd b6 7a 88 bd
       0.0057515055 -0.038390193 -0.04540944 -0.0666403
000370 ef 2f 1f ba 53 5f ab bd 98 f5 37 bd 1b 95 65 bd
       -0.00060725113 -0.08367791 -0.04491195 -0.0560504
000380 86 6b 10 bd a2 77 d0 bc 01 b2 81 bd 36 e4 e0 3c
       -0.035258792 -0.02544767 -0.0633278 0.02745257
000390 c3 95 0f 3c ec 56 d5 bc 09 7a 23 bd 8b 81 68 bd
       0.008763733 -0.026042424 -0.039911304 -0.056764167
0003a0 0f f7 2b bc 10 9c ec 39 b8 75 c4 3d b6 1e a4 3c
       -0.010495915 0.00045129703 0.095927656 0.020034175
0003b0 c8 76 45 3d 46 0f d1 bc 39 db c5 bc 85 c6 85 bd
       0.04820898 -0.025519978 -0.024152385 -0.06532005
0003c0 0e a6 16 bd e9 01 b1 bb 77 93 20 bd c5 c0 c4 3d
       -0.036779456 -0.005401839 -0.039203133 0.0960708
0003d0 6d e1 02 bd 08 88 9b bd 8d b8 e9 bd 6b 16 dc bd
       -0.031953264 -0.07594305 -0.114121534 -0.107464634
0003e0 26 4f a8 3c f0 03 d6 bc 8f 93 e7 bc 1a e7 9a 3d
       0.020545553 -0.026124924 -0.028268604 0.075636104
0003f0 06 a0 2b 3d ca 0d 48 bd 29 a9 86 3d cf 9c 23 bd
       0.041900657 -0.048841275 0.065752335 -0.039944466

q.weight f4 [1, 256]
000000 ee a8 ae 3c b4 41 a0 be 7b 75 1a 3c cb df c2 be
       0.021320786 -0.31300128 0.009427424 -0.38061365
000010 f6 2a a7 3c b4 2e a6 bd e3 9d a5 be a1 a0 5e bb
       0.020406228 -0.08114377 -0.3234702 -0.0033970254
000020 a5 0b 94 3b 2a f4 e4 bc 7c f9 33 3e 9b 20 72 3b
       0.0045179897 -0.027948458 0.1757564 0.0036945704
000030 7e 46 ae 3c e6 bf bc 3d 9e 4a 8e 3d ae f8 77 be
       0.021273848 0.09216289 0.06947826 -0.24215958
000040 2a ec 5e 3e b1 f0 76 bf 1c fc 59 3d f7 d6 89 be
       0.21769777 -0.96461016 0.053218946 -0.26921818
000050 87 51 a5 3e f9 fd 59 3d e1 42 35 be a9 74 1c 3e
       0.32288763 0.053220723 -0.17701294 0.15278877
000060 e3 72 c0 3b 71 50 d0 bd b5 ca 28 3e b8 1e 9d 3e
       0.0058730706 -0.10171593 0.16483577 0.306875
000070 86 0f 04 be fd 03 64 3e e0 6c b8 be f2 27 44 3d
       -0.12896547 0.22267146 -0.36020565 0.047889657
000080 90 8c 0d bd 21 9a c4 bb 46 f6 db be 02 2f c8 3d
       -0.03455788 -0.005999819 -0.4296133 0.09774591
000090 e6 74 34 3e 10 de 47 3d e1 74 81 3e b0 6c bd bd
       0.17622718 0.04879576 0.25284484 -0.09249246
0000a0 a4 e7 8f 3e c0 85 4a 3c 05 3b 9c be 96 be 35 be
       0.28106415 0.01236099 -0.30513778 -0.17748484
0000b0 9b ac 77 bd 9c 41 02 bf e1 10 ae be 8a 17 1e 3e
       -0.060467344 -0.5088136 -0.33997253 0.15438667
0000c0 50 71 32 be 29 d9 f7 3d 96 cd 10 be 81 0a 86 3d
       -0.17426038 0.12101967 -0.14140925 0.06544972
0000d0 26 5d d1 bd 5d c0 95 3c 57 0b 9a be c9 c2 88 be
       -0.10222845 0.018280203 -0.30086777 -0.2671111
0000e0 d9 d5 d7 bc 10 3a c6 3c 4c 44 17 be 57 06 4a 3e
       -0.026347088 0.024197608 -0.14772147 0.19728981
0000f0 79 c2 36 be 7c f0 a3 be b6 e5 f5 bd c4 73 c0 be
       -0.17847623 -0.32019413 -0.120067045 -0.37588322
000100 fe 9d b6 3e 45 92 8f be bd a4 28 3e ef 2f 3e 3d
       0.35667413 -0.28041282 0.16469093 0.04643243
000110 e8 55 0c 3e 1c 9e 25 bf 6d 8b 34 3f 8d d9 91 be
       0.13704646 -0.6469438 0.70525247 -0.2848629
000120 8f 8e 1f be c8 33 44 3d f8 4c 39 be 87 04 36 3d
       -0.15581726 0.047900945 -0.18095767 0.04443791
000130 a7 1d b7 3e 7d 96 10 3d 24 72 22 3e fa 16 25 bf
       0.3576481 0.035299767 0.15863854 -0.64488184
000140 c4 d4 0c 3d 08 90 58 be 0f 99 8e be 08 7a 4a 3d
       0.034382597 -0.21148694 -0.2785115 0.049432784
000150 7f 74 3b 3d 54 b8 a6 be bf c4 0d 3f 65 2a 02 bf
       0.045765396 -0.32562506 0.55378336 -0.5084594
000160 16 e7 3b be b0 d8 be bb 38 8b d0 3a 6b 51 52 be
       -0.18349871 -0.005824171 0.0015910631 -0.20538871
000170 8e 86 d8 bc fc a9 06 bd 08 44 75 3e 95 c1 1d 3c
       -0.026431348 -0.032876953 0.23951733 0.009628673
000180 4e 28 2c 3c 38 ad 3b 3f 71 ff a2 3e ca c6 6a 3c
       0.010507656 0.73311186 0.3183551 0.014329622
000190 08 f7 4a 3c 7e 80 5e be 9b 9e 8a 3e 8b 54 aa be
       0.012387998 -0.21728703 0.2707413 -0.33267626
0001a0 44 c4 70 be 3b 3c 97 3e 40 1b b5 be 7c db 99 bd
       -0.2351237 0.2953814 -0.35372353 -0.075125664
0001b0 a2 3a 05 3e f9 d8 55 bd 4f 86 a8 be c7 cd a9 be
       0.13010648 -0.052208874 -0.3291497 -0.33164808
0001c0 92 f6 f3 3d d4 f3 fd bd 29 05 06 3f 99 47 97 3e
       0.11912264 -0.12400022 0.52351624 0.29546812
0001d0 95 4c 53 3e 3f 29 a8 bd d7 9d 80 3f 91 3b 7a 3d
       0.20634682 -0.08210992 1.0048169 0.061091963
0001e0 48 2c 21 bd 10 4d 94 3e cf 10 81 bd 32 73 3b bd
       -0.03934887 0.28965044 -0.06302034 -0.045764156
0001f0 25 80 e7 bc 54 cf 09 3d 63 0f b1 3d fd 1d 54 be
       -0.028259346 0.03364499 0.08645513 -0.20714565
000200 95 11 99 3c 11 75 1b bd f3 7d e7 bd e7 21 02 bf
       0.018685142 -0.03795344 -0.1130332 -0.5083298
000210 0e 21 cd 3e a3 eb 4d 3e 73 08 bb 3d 24 40 3f 3e
       0.4006428 0.2010942 0.09132471 0.18676811
000220 4a e7 2e 3e 59 d1 47 3f 7b 64 36 bd 29 79 d3 3c
       0.17080417 0.78053814 -0.04452942 0.02581461
000230 7b d6 bb bd b6 fa 3d bd fc d1 04 3d 28 09 dd be
       -0.09171768 -0.046381675 0.03242682 -0.43171048
000240 e0 ca cb bc 5d a5 f8 be 5a df d6 bd dc 5e 86 bc
       -0.024877012 -0.48563662 -0.1049182 -0.016402654
000250 20 44 9c 3e 87 9f 15 3a f1 b6 9e bd f1 58 e8 3c
       0.30520725 0.00057076704 -0.07749737 0.028362723
000260 61 56 02 3d 5f a4 05 bd 5d a9 54 3e 43 6b c3 3b
       0.03182066 -0.03262746 0.20767732 0.0059637143
000270 ff 4e 37 3d 6d a0 f8 bd f2 22 6e bb 50 6a a6 3e
       0.04475307 -0.12139974 -0.0036336747 0.32502985
000280 15 62 16 3d a9 3c 41 be 9c 7b f6 bc 14 e3 8d 3b
       0.036714632 -0.18870796 -0.030088238 0.0043300483
000290 4b e9 0d 3e e1 86 aa bd 77 6a 2d be ed 4a d9 be
       0.13858525 -0.08326507 -0.16935144 -0.42439976
0002a0 35 fd bf 3e 63 c1 f9 be b7 a7 3f 3c cc ba 09 3f
       0.3749787 -0.48780355 0.011697701 0.53800654
0002b0 84 53 88 be b0 9b 25 3e 4d 63 d1 be da 3a 07 3f
       -0.26626217 0.16172671 -0.40896073 0.52824175
0002c0 ad 5d 04 3e 5b 33 dd be ef 6f ad be 12 3e fb be
       0.1292636 -0.43203244 -0.3387446 -0.49070793
0002d0 4b d3 99 3e c0 2a fc 3e c4 84 8d be 4c fd fc 3e
       0.30044016 0.49251366 -0.27640355 0.49412
0002e0 b6 f0 94 3e cd 33 8b be a5 ad 12 3d bb 5d 58 be
       0.29089898 -0.27187958 0.03581013 -0.21129505
0002f0 79 a7 38 be 72 95 b8 be d9 bf 94 be c8 56 f0 bc
       -0.18032636 -0.36051518 -0.29052618 -0.029338256
000300 4c 11 c7 be f4 b6 b9 3d 4d d3 8c be d7 a3 3c 3c
       -0.38880384 0.09068099 -0.2750496 0.011513672
000310 39 90 de 3c d6 ee 9a bd 84 74 02 3c 85 23 1c 3b
       0.02716838 -0.075650856 0.00796235 0.0023824882
000320 f9 2a 59 3d 1e 3a 22 3d d3 ad 9b 3d 92 3b 72 3e
       0.053019498 0.039606206 0.07601514 0.23655537
000330 a4 78 91 3e a7 d5 35 3d 9f ab f7 bb 52 ae 32 be
       0.28412354 0.044393208 -0.0075583006 -0.1744931
000340 bb 2a eb 3d 26 20 96 bd 28 08 a7 be 0a 9b 2d 3f
       0.114827596 -0.073303506 -0.3262341 0.67814696
000350 52 8d 5d bf a4 8c 17 be e9 02 23 be 8e 0a eb 3e
       -0.8654376 -0.14799744 -0.15919079 0.4590649
000360 9b 5b 9e 3e 6f ee f8 3d 27 50 91 be 23 ce 93 3d
       0.30929264 0.121548526 -0.28381464 0.07217052
000370 76 80 e9 3d 94 ea 04 3e bf 74 dd be de 62 2f 3d
       0.11401455 0.1298011 -0.43253133 0.042818896
000380 c9 fc 0f 3c 07 e1 3d 3a 87 fe b0 bc e8 07 08 3e
       0.008788296 0.00072433095 -0.021605743 0.13284266
000390 c8 39 39 be c2 b7 2b be 06 76 79 3e 99 e8 55 3d
       -0.18088448 -0.16769317 0.24361429 0.052223776
0003a0 a5 62 82 be e0 e0 19 bf d3 86 30 bd 7e b5 37 3d
       -0.25465885 -0.60108757 -0.04309733 0.04485082
0003b0 62 7f 4e be da f8 ae be 4f 56 b5 3a fe 37 a6 bc
       -0.2016578 -0.34174234 0.0013834926 -0.020290371
0003c0 de 42 2c bc 7e 7b 75 be d4 52 0b 3d 43 aa 6e 3f
       -0.010513989 -0.2397289 0.034014538 0.9322855
0003d0 5b 59 28 3f 71 cc d2 be a7 9d 4a 3f cd a5 15 bf
       0.65761346 -0.411716 0.7914681 -0.58456117
0003e0 56 d1 91 bb d3 88 88 bd 23 11 79 3e 5c 9d 0c bd
       -0.0044500036 -0.06666722 0.24322943 -0.034329757
0003f0 63 50 84 be 36 ad 57 3d 63 d0 0f 3e bf 3a 31 3d
       -0.2584258 0.05265542 0.14044337 0.043268915
