ddpg/checkpoints/ddpg_pher/target_actor.pth (torch, 282234 bytes, 6 tensors)

fc1.weight f4 [256, 12]
0	0x3ec2a74c	0.38018262
1	0x3e288589	0.1645719
2	0x3e1cbe23	0.15306906
3	0x3e972ad6	0.2952487
4	0xbe808aaa	-0.25105792
5	0x3dbfb327	0.093603425
6	0x3ce15331	0.027505489
7	0xbe134827	-0.14382993
8	0x3e2db50a	0.16963592
9	0x3e365189	0.1780454
10	0xbeb93b68	-0.36178136
11	0xbe208c29	-0.15678467
12	0x3e986676	0.29765671
13	0xbcd2b2a9	-0.025719957
14	0xbdcd1e43	-0.100155376
15	0x3e2a2d4e	0.16618845
16	0x3e4bdcb2	0.19908407
17	0x3e4032c6	0.18769369
18	0x3eceb2f0	0.40370893
19	0x3dc41ce6	0.095758244
20	0xbe972798	-0.29522395
21	0xbe9c613b	-0.3054293
22	0x3d6adabe	0.057337515
23	0xbd2a1dc9	-0.04153231
24	0xbe01ebbc	-0.12687582
25	0x3eadab37	0.3391969
26	0x3e673cac	0.22581738
27	0xbcaa08cf	-0.020756153
28	0xbe234e5c	-0.1594786
29	0xbe7ee717	-0.24892841
30	0x3e5103ad	0.20411558
31	0x3e2bc437	0.16774069
32	0xbd8bcef2	-0.06826581
33	0xbd80e881	-0.062943466
34	0xbe18e6a8	-0.14931738
35	0x3e703471	0.23457505
36	0xbe1f028b	-0.15528314
37	0xbe6abd82	-0.22923854
38	0x3d6da82e	0.058021717
39	0xbe2cb0f2	-0.16864374
40	0x3d6e897d	0.058236588
41	0xbdfc2c14	-0.12313095
42	0xbd202d22	-0.039105542
43	0x3e2e7d16	0.17039904
44	0xbe9af3ae	-0.30264038
45	0x3eba1928	0.36347318
46	0x3e7b0c81	0.24516489
47	0x3ee6f719	0.45110396
48	0x3e9a5960	0.30146313
49	0xbdbaf8ec	-0.09129509
50	0xbdf78a3b	-0.12086912
51	0xbb09126a	-0.0020915517
52	0xbd3e4cf4	-0.046460107
53	0xbe9881a9	-0.29786423
54	0x3eaba5e4	0.33525002
55	0xbe92d1d5	-0.28675714
56	0x3e7a9a89	0.24473013
57	0xbe30e233	-0.17273788
58	0x3e9bfe35	0.30467382
59	0x3e3d9bfd	0.18516536
60	0x3ee85315	0.45375887
61	0xbe3cc194	-0.18433219
62	0x3dc92d45	0.098230876
63	0x3e3a0265	0.18164976
64	0xbd8c0619	-0.068371005
65	0xbdebfe63	-0.1152313
66	0x3e91cc7e	0.28476328
67	0x3cfa2b2e	0.030538168
68	0x3e78e20a	0.24304977
69	0xbdc1b9bc	-0.09459254
70	0x3e78ce9b	0.24297564
71	0xbe589cc0	-0.21153545
72	0x3e19ce0b	0.15020005
73	0x3eb1f1af	0.34754702
74	0xbd528291	-0.05139405
75	0x3dfcb51e	0.12339233
76	0x3e6d5835	0.2317818
77	0xbe8445d8	-0.25834537
78	0x3e4feaaf	0.20304368
79	0x3e158e4f	0.14605068
80	0x3e367c57	0.1782087
81	0xbe5575b4	-0.20845681
82	0xbe956f29	-0.2918637
83	0xbd9083df	-0.070564024
84	0xbc3e4d8d	-0.011615169
85	0x3d52e30c	0.05148606
86	0x3e5f1908	0.21786892
87	0x3ddcb4c4	0.10776666
88	0xbe18d9cd	-0.14926834
89	0xbdcc7352	-0.09982933
90	0xbe134a85	-0.14383896
91	0x3e1a6648	0.1507808
92	0xbe18ff64	-0.14941174
93	0xbe3edf8a	-0.18639961
94	0x3e518499	0.20460738
95	0x3ce678d5	0.02813379
96	0x3e85b91b	0.26117787
97	0x3d8957d1	0.06706203
98	0x3d416eca	0.047224797
99	0xbda8b82f	-0.08238255
100	0xbd78aa9a	-0.060709573
101	0x3e65022b	0.22364108
102	0x3d0456e5	0.03230943
103	0x3e50fcb4	0.20408899
104	0x3e1ac846	0.15115461
105	0xbe47e912	-0.19522503
106	0x3e8ff982	0.28120047
107	0xbee64604	-0.44975293
108	0xbdc25f81	-0.09490872
109	0x3d6ae6f9	0.05734918
110	0xbe8068de	-0.25080007
111	0xbe0b3bc9	-0.13597025
112	0x3e069a6a	0.13144842
113	0xbc8ec293	-0.017426765
114	0x3e8fb6a9	0.28069046
115	0x3df1e2f9	0.1181087
116	0xbeb362e3	-0.35036382
117	0xbeb1cb3f	-0.34725377
118	0xbea4e4b1	-0.32205728
119	0x3eeb7338	0.45986342
120	0x3e0cf5d5	0.13765652
121	0xbd588248	-0.05285862
122	0xbe7288fc	-0.23685068
123	0xbdd2b2d7	-0.10288017
124	0x3e7e31eb	0.2482373
125	0x3de89bd9	0.113578506
126	0x3eeb8751	0.46001676
127	0x3d8af0d1	0.06784213
128	0x3e89eca0	0.26938343
129	0xbef7c242	-0.48390394
130	0xbe26901e	-0.16265914
131	0xbe67b4b4	-0.22627527
132	0xbdf7f775	-0.121077456
133	0x3e9fa6d5	0.3118197
134	0x3d7a774c	0.061148927
135	0xbd22d0d6	-0.039749943
136	0xbe69bf10	-0.22826791
137	0xbe5d9a19	-0.21640815
138	0xbe73d8cc	-0.2381317
139	0x3e44bfd6	0.19213805
140	0xbdfb2814	-0.12263504
141	0x3e9109e8	0.2832787
142	0xbedcb169	-0.43104103
143	0x3d962ab8	0.07332367
144	0x3ea31ee1	0.31859496
145	0xbe283365	-0.16425855
146	0xbe0e6caa	-0.1390864
147	0xbe95dab4	-0.2926842
148	0xbdfd5ece	-0.12371598
149	0x3e2b3939	0.16721047
150	0x3ea509e7	0.32234117
151	0xbda98ac7	-0.08278423
152	0x3d0048b1	0.031319324
153	0x3e831209	0.25599697
154	0x3e6b30f2	0.2296789
155	0x3eb0d249	0.34535435
156	0xbe7f3e82	-0.24926189
157	0xbddb1037	-0.10696452
158	0x3d32f94e	0.043694787
159	0xbd7497eb	-0.059715193
160	0xbe4dc44a	-0.2009441
161	0x3d85f091	0.06540025
162	0xbe49ccc4	-0.19707018
163	0x3cbc69af	0.022999613
164	0x3e693893	0.22775488
165	0x3d822861	0.06355358
166	0xbc4506d4	-0.012025554
167	0x3ec9dc38	0.39425826
168	0x3c815b8a	0.01579072
169	0x3d3572de	0.044299
170	0x3d33f45a	0.043934204
171	0x3e362386	0.17786989
172	0x3d0c512d	0.034257103
173	0xbe10e69a	-0.14150468
174	0x3e99708e	0.29968685
175	0xbead75bf	-0.33878896
176	0xbe50bb44	-0.20383936
177	0xbedf0f2a	-0.43566257
178	0x3e9892a3	0.29799375
179	0xbdb6bb51	-0.089224465
180	0x3e683e86	0.22680101
181	0xbd27382f	-0.040825065
182	0xbb2f97ba	-0.0026793317
183	0x3e8fa1d8	0.28053164
184	0xbea070d9	-0.31336096
185	0xbd6a42b9	-0.057192538
186	0xbe8525af	-0.26005313
187	0x3e942172	0.28931767
188	0x3de1c6fe	0.11024283
189	0xbddd363d	-0.10801361
190	0x3ca230fe	0.019798752
191	0x3e9649a9	0.29353073
192	0xbe207ab2	-0.15671805
193	0xbe3dd22b	-0.18537204
194	0xbe40e420	-0.18837023
195	0xbd381888	-0.04494527
196	0xbe29e599	-0.16591491
197	0x3e33497a	0.17508498
198	0x3e2286c0	0.15871716
199	0x3e1b022d	0.15137549
200	0x3d017d41	0.031613592
201	0xbee9c10b	-0.45655093
202	0xbe46b911	-0.19406535
203	0x3e10a040	0.1412363
204	0x3cef5c27	0.029218746
205	0xbe5dc7e2	-0.2165828
206	0x3e7c40ab	0.24634044
207	0xbe8ad678	-0.27116752
208	0xbe64ad7b	-0.22331803
209	0xbe59fe31	-0.21288373
210	0x3e9b73d4	0.30361807
211	0x3e9135f5	0.28361478
212	0x3eebf4aa	0.460851
213	0xbee32018	-0.44360423
214	0xbed5080d	-0.41607705
215	0xbe0dfc9b	-0.13865893
216	0x3de6b829	0.112655945
217	0x3e8eece8	0.2791512
218	0x3df0f228	0.11764938
219	0xbdadc663	-0.08485105
220	0x3ea8b4e1	0.329505
221	0x3e86319e	0.2620973
222	0xbe090b29	-0.13383164
223	0xbdea7ace	-0.114492044
224	0x3d8e6f6b	0.06954845
225	0x3e9d9a48	0.3078177
226	0xbe751dd4	-0.2393716
227	0x3da079ff	0.07835769
228	0x3e436689	0.19082083
229	0xbecfae30	-0.40562582
230	0xbe13a4db	-0.14418356
231	0xbe614412	-0.21998623
232	0x3eabe762	0.3357497
233	0xbe8b7cd3	-0.2724367
234	0xbe93d7f9	-0.28875712
235	0x3d235c10	0.03988272
236	0x3e8bbb21	0.27291206
237	0x3e9cf63e	0.30656618
238	0x3e0e1cfc	0.13878244
239	0xbde115f6	-0.10990517
240	0xbca16c37	-0.019704921
241	0x3e28dd8d	0.16490765
242	0x3e7860bf	0.24255656
243	0xbc7f95c8	-0.0155996755
244	0x3d832d84	0.06405166
245	0xbe0c5b73	-0.1370676
246	0x3ee87608	0.4540255
247	0xbe9046e9	-0.281791
248	0x3e5a09b7	0.21292768
249	0xbeadbeb8	-0.3393457
250	0x3dec7cfd	0.11547277
251	0x3e1c3105	0.15253074
252	0x3e82838f	0.25490996
253	0x3ca7f08c	0.020500444
254	0x3d23de84	0.04000713
255	0x3cc25b08	0.023725048

fc1.bias f4 [256]
0	0x3d9d755a	0.07688399
1	0x3e91a68f	0.28447387
2	0xbe464568	-0.19362414
3	0x3de9304f	0.11386167
4	0xbdce2500	-0.10065651
5	0x3e505b30	0.20347285
6	0x3e9ab7c2	0.3021832
7	0xbdf70bb2	-0.120627776
8	0x3dfcd626	0.12345533
9	0x3e529d2e	0.20567772
10	0x3e859dc2	0.26096922
11	0x3db4794b	0.08812197
12	0x3d7aea78	0.061258763
13	0xbe25b6b3	-0.16182975
14	0x3e053f88	0.13012516
15	0xbe5965c9	-0.21230234
16	0xbd9cc4d6	-0.07654731
17	0xbd881dbe	-0.06646298
18	0xbd992138	-0.07477039
19	0xbd9f5058	-0.07778996
20	0x3d43d7e5	0.047813315
21	0x3df093d7	0.11746948
22	0x3d436412	0.047702856
23	0xbe4e12f9	-0.20124425
24	0xbcf58f57	-0.029975576
25	0x3d54c9cc	0.05195026
26	0xbcf969b7	-0.030445917
27	0x3d655f9a	0.055999376
28	0x3e9083da	0.28225595
29	0xbdc74f07	-0.0973187
30	0xbdbd19d9	-0.09233446
31	0xbcdd62de	-0.027024683
32	0x3e92b00f	0.28649947
33	0xbe210813	-0.15725736
34	0xbda5f0a8	-0.08102542
35	0xbd8bd181	-0.06827069
36	0xbce4f93a	-0.027950872
37	0x3d2dd488	0.042439014
38	0x3e7185e3	0.2358623
39	0x3e8fc4a6	0.28079718
40	0x3e770e2a	0.24126497
41	0xbe15053c	-0.14552778
42	0xbe402962	-0.18765786
43	0xbdf60ce1	-0.12014175
44	0xbe4caf20	-0.1998868
45	0xbe18e016	-0.14929232
46	0xbdb9e8d0	-0.090776086
47	0xba4b8309	-0.0007763361
48	0x3d50693c	0.05088161
49	0x3e949bb3	0.2902504
50	0x3e6a75d4	0.2289651
51	0x3e30a83e	0.1725168
52	0x3e8383a0	0.2568636
53	0x3e0ab6da	0.13546315
54	0x3d7062cd	0.058687974
55	0xbe0817be	-0.13290307
56	0x3e248778	0.16067302
57	0x3e7b3fa7	0.24536
58	0x3d7c8f1d	0.06165992
59	0x3c0899ee	0.008337481
60	0xbd059524	-0.032612935
61	0x3e03c9d2	0.12869957
62	0x3ddeab14	0.10872474
63	0x3e0ecdc5	0.13945682
64	0x3be2dab1	0.0069230427
65	0x3e306cd7	0.17229019
66	0x3d0aab8e	0.033855014
67	0x3e3c1a27	0.18369351
68	0x3dbbb76a	0.09165843
69	0xb8c41b19	-9.3510556e-05
70	0x3e7ab6f5	0.24483855
71	0x3e6d5f36	0.23180851
72	0x3e080445	0.13282879
73	0x3e2ca357	0.16859184
74	0xbccd2e88	-0.025046602
75	0x3e173bc0	0.14768887
76	0x3e765611	0.24056269
77	0x3e2aa226	0.16663417
78	0x3dc5130c	0.096227735
79	0xba4ff3d2	-0.00079327554
80	0xbdd89410	-0.10575116
81	0xbdbf1463	-0.0933006
82	0xbe2b0d9b	-0.16704409
83	0xbbf32887	-0.0074206027
84	0x3e45fbe0	0.19334364
85	0x3e8ce99c	0.2752198
86	0x3d9333a2	0.071875826
87	0x3dd3c1a7	0.10339671
88	0xbd7243b3	-0.059146594
89	0x3e1669e6	0.14688835
90	0x3d8d74df	0.06907057
91	0x3e803b78	0.2504537
92	0xbd81bb2f	-0.063345306
93	0xbe385854	-0.18002445
94	0x3de58f7b	0.11209007
95	0xbbc0190f	-0.005862362
96	0x3d8e6306	0.06952481
97	0xbe31085c	-0.17288345
98	0x3e3be462	0.1834884
99	0xbe832e52	-0.25621277
100	0x3e382ce5	0.17985876
101	0xbe480e09	-0.19536604
102	0xbd9b9e17	-0.075985126
103	0xbada0fa0	-0.0016636737
104	0x3d9204f9	0.07129855
105	0x3e15cf6c	0.14629906
106	0x3d9a1dea	0.07525237
107	0x3e7719fb	0.24131005
108	0xbd510a5d	-0.051035274
109	0x3d449042	0.047989137
110	0x3df0adc5	0.11751894
111	0x3e5861cb	0.21131055
112	0x3ca41e1d	0.02003389
113	0x3e0b89c9	0.1362678
114	0x3e318c8d	0.17338772
115	0x3e07da83	0.1326695
116	0x3e6960e2	0.22790864
117	0xbe4dde55	-0.20104344
118	0x3dc1b443	0.0945821
119	0x3ddab3a0	0.10678792
120	0xbde28061	-0.110596426
121	0x3b8c1b70	0.0042757317
122	0x3e40e244	0.18836313
123	0x3e7efcc0	0.24901104
124	0x3d952332	0.072821036
125	0x3e53b111	0.20673014
126	0x3e4d16ba	0.20028201
127	0x3c3fb458	0.011700712
128	0xbe5a64f9	-0.2132758
129	0x3d9332ae	0.07187401
130	0x3e8027e9	0.2503045
131	0x3d364b9c	0.0445057
132	0x3e5c4163	0.21509318
133	0x3dd755dd	0.10514424
134	0xbd52c1f8	-0.051454514
135	0x3e8f7822	0.28021342
136	0xbe05bbc2	-0.13059905
137	0x3de9db81	0.1141882
138	0x3dd01598	0.10160369
139	0x3da649f0	0.08119571
140	0x3e2af88d	0.16696377
141	0x3d72a423	0.059238564
142	0x3d2daef1	0.042403165
143	0x3e87d256	0.2652766
144	0xbded3282	-0.11581899
145	0x3e07a823	0.13247733
146	0xbd9925e8	-0.07477933
147	0x3b003ce7	0.001956755
148	0x3e3fedbd	0.18743034
149	0xbc16a389	-0.009194263
150	0x3dce6eb0	0.10079706
151	0x3e3494d2	0.17634895
152	0xbe2672db	-0.16254751
153	0x3e82b852	0.2553125
154	0xbd8b23f3	-0.06793966
155	0x3e3a5f93	0.18200521
156	0x3d69d773	0.057090234
157	0xbb01ea83	-0.0019823618
158	0x3e3b73fe	0.18305966
159	0xbe0d50f4	-0.13800412
160	0xbe46a554	-0.19399005
161	0x3c75cc47	0.015002317
162	0x3e75538c	0.23957652
163	0x3e2fe109	0.17175688
164	0x3e75cd20	0.2400403
165	0x3d698af7	0.057017293
166	0x3c19e138	0.009392075
167	0xbe3ab3e5	-0.18232687
168	0x3deab6cd	0.11460648
169	0xbdec0dbf	-0.11526059
170	0xbe3266db	-0.17422049
171	0x3e8d59e3	0.2760764
172	0x3e414962	0.1887565
173	0x3e7f2a9d	0.249186
174	0xbe36fc4c	-0.17869681
175	0x3e70adc2	0.23503783
176	0x3e11aa61	0.1422515
177	0x3e2dbf9a	0.16967621
178	0xbda55da4	-0.08074501
179	0x3da15f3a	0.07879491
180	0x3e01adaf	0.12663911
181	0xbad9524e	-0.0016580315
182	0xbd658909	-0.05603889
183	0xba406d67	-0.0007340521
184	0x3d9b7f21	0.07592607
185	0xbc441d04	-0.0119698085
186	0x3d40e241	0.047090773
187	0xbe1f9ecc	-0.1558792
188	0xbe2594b6	-0.1617001
189	0x3e24b82c	0.16085881
190	0x3e8679fd	0.26264945
191	0xbdbe118c	-0.092806906
192	0x3d5bf08f	0.05369621
193	0xbe44b81d	-0.19210859
194	0xbc00e97d	-0.007868168
195	0xbbbc7114	-0.0057507847
196	0x3e92614f	0.28589866
197	0x3e622d72	0.22087649
198	0x3e0e8851	0.13919188
199	0x3e24cb19	0.160931
200	0xbe636196	-0.22205195
201	0x3e8ba4fc	0.2727431
202	0x3d8b327a	0.06796737
203	0x3cc8219c	0.024430089
204	0x3d17d057	0.037063923
205	0x3d8434c3	0.06455376
206	0xbe0b478d	-0.13601513
207	0x3e898ea8	0.2686665
208	0x3e88c1fc	0.26710498
209	0x3d57495d	0.0525602
210	0x3e485d51	0.19566847
211	0xbdb47f5d	-0.08813355
212	0xbd2c0cd9	-0.04200444
213	0xbdcfa443	-0.10138752
214	0x3e2d5bf2	0.16929606
215	0xbe1526d6	-0.14565596
216	0x3e8655d5	0.2623736
217	0x3d9dea66	0.077107236
218	0xbacc9843	-0.0015609342
219	0xbe354b24	-0.17704445
220	0x3e0bda6a	0.13657537
221	0x3dee422b	0.11633714
222	0x3dd1b956	0.10240428
223	0x3d475eb8	0.048674315
224	0xbe3b8927	-0.18314038
225	0x3e265ce7	0.16246377
226	0x3d32dae0	0.043665767
227	0xbe13d071	-0.14434983
228	0x3e17756b	0.14790885
229	0x3e66ace7	0.22526895
230	0x3de1e1b9	0.11029381
231	0xbcd38c0c	-0.025823615
232	0x3e567aa7	0.20945226
233	0xbca2d6ef	-0.019877879
234	0x3e5ef90b	0.2177469
235	0xbe80bc92	-0.25143868
236	0x3e0f8f14	0.14019424
237	0x3d920342	0.07129528
238	0x3e0c26b8	0.13686645
239	0x3e0834cf	0.13301395
240	0xbdb75182	-0.08951093
241	0x3d1c6e61	0.038191203
242	0x3dfa5529	0.12223274
243	0x3dc442f2	0.09583081
244	0x3d80037d	0.06250665
245	0x3ce84efa	0.028357971
246	0x3e206fb0	0.15667605
247	0x3d0fbf72	0.035094686
248	0x3e203985	0.15646942
249	0xbc2942b1	-0.010330842
250	0x3ade3540	0.0016953126
251	0xbe0b8c99	-0.13627852
252	0x3d78b85a	0.060722686
253	0x3e4fd9cf	0.20297931
254	0x3e939fff	0.28833005
255	0x3e04186c	0.12899941

fc2.weight f4 [256, 256]
0	0x3d352c9f	0.044232007
1	0xbc17def5	-0.009269466
2	0xbd485950	-0.0489133
3	0xbe0c44df	-0.13698147
4	0x3d2732c1	0.040819887
5	0x3d5ff51e	0.05467712
6	0x3d0b11c9	0.033952508
7	0x3d5f645b	0.054539066
8	0x3db075b9	0.08616204
9	0xbd2cf8f7	-0.04222962
10	0x3d334de0	0.04377544
11	0xbd9b48f5	-0.07582275
12	0xbc8840f2	-0.01663253
13	0xbd7505e4	-0.05982007
14	0x3d0f4aff	0.03498363
15	0x3cc2b717	0.023768945
16	0x3ddb85d4	0.10718885
17	0x3e08e790	0.13369584
18	0x3d00081e	0.03125774
19	0x3c4da2f6	0.01255106
20	0x39e3742e	0.00043383375
21	0x3ce6c1b2	0.028168533
22	0x3d65be15	0.05608948
23	0x3cc052bb	0.023476949
24	0xbd987985	-0.07445053
25	0x3d32f8b5	0.043694217
26	0x3da12cbe	0.07869862
27	0x3bac9dc4	0.0052678306
28	0xbbd1d0a3	-0.0064030453
29	0x3dc5a540	0.096506596
30	0xbdc104e8	-0.09424764
31	0x3df07d7f	0.117426865
32	0x3d5b1bed	0.05349343
33	0x3d1fffdf	0.039062377
34	0x3d0f0574	0.03491731
35	0xbde49252	-0.11160721
36	0x3d50d817	0.05098733
37	0x3e0dd693	0.13851385
38	0xbd63769a	-0.05553303
39	0x3ccc655d	0.024950678
40	0xbc1e1c7a	-0.009650344
41	0xbdd23546	-0.10264067
42	0x3b9cadc1	0.0047814553
43	0xbd1dd7f8	-0.038536042
44	0xbd4ce15a	-0.0500196
45	0xbb3a073b	-0.0028385657
46	0x3ce3d910	0.027813464
47	0xbd144c90	-0.03620583
48	0xbdfcf5e7	-0.1235159
49	0x3d5e06ea	0.054205813
50	0x3cbd0682	0.023074392
51	0xbd622499	-0.055210683
52	0xbc9672b3	-0.01836524
53	0xbc5df6f2	-0.013547646
54	0x3d005109	0.03132728
55	0x3c01816d	0.007904393
56	0x3d3befda	0.045883037
57	0xbd612912	-0.05497081
58	0xbc970a79	-0.018437611
59	0x3b6daa4a	0.003626483
60	0xbde1aed7	-0.11019676
61	0xbd167003	-0.036727916
62	0x3e6deb1e	0.23234221
63	0x3d383fda	0.04498277
64	0x3df0312d	0.117281295
65	0x3c7b64c7	0.015343851
66	0x3e07e833	0.1327217
67	0xbca6c267	-0.02035637
68	0x3d2eeba2	0.042705186
69	0xbd00f1ae	-0.031480484
70	0x3d130bad	0.035899807
71	0x3d03b56e	0.032155447
72	0xbca24ad8	-0.019811079
73	0xbc2faeed	-0.010722858
74	0xbd17f187	-0.037095573
75	0xbd5c82d2	-0.053835697
76	0xbbe5a867	-0.0070086005
77	0x3d882cb7	0.06649154
78	0x3d876b80	0.06612301
79	0xbcf84d3f	-0.030310271
80	0xbd018e7c	-0.031630024
81	0x3d92d208	0.071689665
82	0x3cb45a68	0.022015765
83	0x3d018053	0.03161652
84	0x3d77acf6	0.060467683
85	0x3d91b4fd	0.07114599
86	0xbc697333	-0.014248657
87	0x3d301ab4	0.042994216
88	0x3d1146f1	0.035468046
89	0xbc1645eb	-0.009171943
90	0x3dd1c7f8	0.10243219
91	0x3be147ce	0.006875015
92	0x3dd4d96d	0.10393033
93	0x3bf5b985	0.0074989223
94	0x3d87aee4	0.066251546
95	0xbd5b0796	-0.05347403
96	0x3df983f6	0.12183373
97	0x3d9e011f	0.077150576
98	0x3b2625dd	0.0025352158
99	0x3d3835a1	0.04497302
100	0x3d9e2483	0.07721808
101	0xbd48bd8e	-0.0490089
102	0x3e4aafbf	0.19793604
103	0xbd5071aa	-0.05088965
104	0xbd36b6b5	-0.044607837
105	0xbc4209b1	-0.011843131
106	0x3c55bfaf	0.013046189
107	0xbd1da156	-0.03848394
108	0xbb3667c0	-0.0027832836
109	0xbc8dcbdd	-0.017309124
110	0xbc5ba244	-0.013405386
111	0x3d3e7c4d	0.04650526
112	0x3c5acc88	0.013354428
113	0x3d2b8642	0.041876085
114	0x3d3e2ed2	0.04643137
115	0x3d8ef6b8	0.069806516
116	0xbcab9722	-0.02094609
117	0xbdc9496f	-0.098284595
118	0xbd07c94f	-0.033150967
119	0x3d7b3727	0.061331894
120	0x3dba0e81	0.09084798
121	0x3d8f513f	0.06997918
122	0x3ce05904	0.027386196
123	0x3cc8ac62	0.024496261
124	0x3cf39ed0	0.029738814
125	0x3d36ee60	0.044660926
126	0xbd01ab07	-0.031657245
127	0xbc26fac1	-0.01019162
128	0xba9cf442	-0.001197465
129	0x3c57c022	0.013168367
130	0x3b43bd34	0.0029867413
131	0x3e0dbd6d	0.13841791
132	0xbdcab37e	-0.09897517
133	0xbc85977e	-0.016307589
134	0xbc664d38	-0.014056496
135	0x3d428be0	0.047496676
136	0x3ca52e74	0.020163752
137	0x3cee52b8	0.029092178
138	0x3ca617dc	0.020275049
139	0xbcceefe2	-0.02526087
140	0x3c70d413	0.014699
141	0xbbbc9c61	-0.0057559465
142	0xbe15faa2	-0.1464639
143	0x3ce488e3	0.027897304
144	0x3da709eb	0.081561886
145	0xbd2bfd06	-0.04198935
146	0x3e26526e	0.16242382
147	0x3c61b25c	0.013775434
148	0xbd020422	-0.031742223
149	0x3d0942fb	0.033511143
150	0x39f69208	0.00047029578
151	0x3d94dadd	0.07268307
152	0xbd1e89fb	-0.038705807
153	0x3ca7157f	0.020395992
154	0xbd15dd0f	-0.03658777
155	0xbd5eac1f	-0.054363366
156	0x3c478d09	0.0121796215
157	0x3c290843	0.010316911
158	0xbdad38e8	-0.0845812
159	0x3d33a625	0.04385962
160	0x3d1edb8a	0.038783588
161	0xbd2421f3	-0.04007144
162	0xba4a88bf	-0.0007726065
163	0xbbf19808	-0.00737286
164	0xbd4d4a5b	-0.05011974
165	0xbc9d73ef	-0.01922032
166	0xbd6be575	-0.057591874
167	0xbd919b44	-0.07109693
168	0xbd95adc9	-0.073085375
169	0x3b7efb20	0.0038907006
170	0xbdde4364	-0.108526975
171	0xbbf36a17	-0.0074284184
172	0xbd020dd0	-0.031751454
173	0xbac02cbe	-0.0014661772
174	0x3d2f1909	0.042748485
175	0x3d6b9b61	0.057521228
176	0x3ccab13e	0.024742719
177	0xbd88a1ec	-0.06671509
178	0xbccc1827	-0.02491386
179	0x3d70998e	0.05874019
180	0xbbb9cc40	-0.0056701005
181	0x3bd3c7e0	0.006463036
182	0xbc81dd4c	-0.015852593
183	0xbd19bb17	-0.03753194
184	0x3daee4c6	0.08539729
185	0xbdbdb440	-0.092628956
186	0x3d8de02d	0.06927524
187	0xba73af16	-0.0009295804
188	0x3d40715e	0.046983115
189	0x3c7347aa	0.014848629
190	0xbcb61cee	-0.022230592
191	0x3dbab457	0.09116428
192	0xbdd72a0f	-0.10506069
193	0xbb825a84	-0.0039780755
194	0x3d44491a	0.047921278
195	0x3d88c21d	0.06677649
196	0x3b2bf5ca	0.002623903
197	0x3bebe6c8	0.007199142
198	0xbdbba1b5	-0.091617025
199	0x3d3f61f6	0.046724282
200	0x3d6b6c2e	0.057476215
201	0xbd3d8179	-0.046266053
202	0xbd79f86d	-0.061027933
203	0x3dfe680a	0.124221876
204	0x3e8d2c49	0.2757285
205	0x3ace790a	0.0015752625
206	0xbb45fe0f	-0.0030211245
207	0x3cf56479	0.029955136
208	0xbda2f140	-0.07956171
209	0x3e21a0cf	0.15784
210	0xbd9859b6	-0.07438986
211	0x3d77a3ed	0.060459066
212	0x3cddddc8	0.027083293
213	0x3b16d6db	0.0023016247
214	0x3d742326	0.059603833
215	0x3d6606bb	0.056158762
216	0x3d46b926	0.048516415
217	0xbd0253c2	-0.03181816
218	0x3e081019	0.13287391
219	0xbd69cc14	-0.05707939
220	0xbcf4d758	-0.02988784
221	0xbd5b0e5f	-0.053480502
222	0x3d09af57	0.033614483
223	0x3cde4897	0.027134223
224	0x3e123ce1	0.14281036
225	0xbc38683a	-0.011255318
226	0xbd66031a	-0.0561553
227	0xbd071fb2	-0.03298921
228	0x3d123508	0.035695106
229	0x3d672e3d	0.05644058
230	0xbdd5cea0	-0.10439801
231	0x3cbf985c	0.02338808
232	0x3d1c9c76	0.03823515
233	0xbcf1e4fe	-0.029528137
234	0x3c8cdf77	0.0171964
235	0xbbcc91d0	-0.006242968
236	0xbde98428	-0.1140216
237	0xbd5adae7	-0.053431418
238	0x3d9e61d4	0.07733503
239	0x3ce94ea6	0.028479885
240	0x3d923847	0.0713964
241	0x3e294b3e	0.16532609
242	0x3d453615	0.04814728
243	0x3d8f33a8	0.069922745
244	0x3e4825cf	0.19545673
245	0xbd563564	-0.05229701
246	0x3d870fc0	0.06594801
247	0xbcd2f7ec	-0.025752984
248	0xbce73f23	-0.028228348
249	0x3d4164fe	0.047215454
250	0x3def5659	0.116863914
251	0x3c83f8d4	0.016109861
252	0x3d9dd237	0.07706111
253	0xbb4f13f4	-0.0031597586
254	0x3d3cc25f	0.046083804
255	0xbc7f3b65	-0.015578126

fc2.bias f4 [256]
0	0x3d0a53b7	0.033771243
1	0xbc1738bc	-0.009229835
2	0xbd28afbb	-0.041183215
3	0x3d3b1ea9	0.045683537
4	0xbc7f30c6	-0.015575593
5	0xbcb64b41	-0.02225268
6	0xbc749cfe	-0.014930008
7	0x3d2bf3d5	0.041980583
8	0xbcd3ae7f	-0.025840042
9	0xbc3e8b7c	-0.011629935
10	0xbd73d05e	-0.059524886
11	0x3d1ab0af	0.037766155
12	0x3d28ba50	0.041193306
13	0x3c82783d	0.015926475
14	0x3ca80633	0.020510769
15	0xbd4e8531	-0.05041999
16	0x3d13463f	0.035955664
17	0x3b73f532	0.0037225005
18	0xbd337524	-0.043812886
19	0x3c81a512	0.015825782
20	0xbd2b7231	-0.04185695
21	0x3c0d79f2	0.008635031
22	0x3cb05805	0.021526346
23	0x3a45f0a3	0.0007550811
24	0xbc49e510	-0.012322679
25	0x3d83f104	0.064424545
26	0x3ceb0f72	0.028693888
27	0x3d4f9c6d	0.05068629
28	0x3d41e413	0.04733665
29	0xbd1443be	-0.036197416
30	0xbc252dec	-0.010081749
31	0xbd294276	-0.041323148
32	0x3cb09230	0.021554083
33	0xbbd52a9e	-0.0065053245
34	0x3d43aeff	0.04777431
35	0xbd034c83	-0.03205539
36	0x3d62daf7	0.055384602
37	0x3d66c237	0.05633756
38	0xbd05a899	-0.03263149
39	0x3d2fdb23	0.042933594
40	0x3d6bba41	0.057550672
41	0x3ca987e6	0.020694684
42	0xbcbe40c5	-0.023224244
43	0xbd50a979	-0.05094287
44	0x3c6e0ad5	0.01452895
45	0x3c440286	0.011963492
46	0xbcad801d	-0.021179253
47	0xbcad87df	-0.021182952
48	0x3d7a2af4	0.06107612
49	0x3d88bae7	0.06676274
50	0xbb9dd9b1	-0.0048172106
51	0xbd533285	-0.05156185
52	0x3d05c139	0.032654975
53	0xbd239579	-0.03993747
54	0x3c43ef7b	0.011958952
55	0xbd4f79b9	-0.050653193
56	0xbbb9f290	-0.0056746677
57	0xbb86f90d	-0.0041190446
58	0x3d1d82a7	0.038454678
59	0xbc01b87b	-0.007917519
60	0xbc9b8261	-0.018983068
61	0xbb2510ae	-0.0025186944
62	0x3d418995	0.04725035
63	0x3cacfb7c	0.02111601
64	0xbcdb0ce7	-0.02673955
65	0x3d7f96ad	0.062399555
66	0xbd43afc3	-0.04777504
67	0xbc72f778	-0.014829509
68	0x391a54db	0.00014718196
69	0xbc83bf7d	-0.01608252
70	0xbc70d02f	-0.014698072
71	0xbd0c76e3	-0.034293067
72	0x3c2d12e0	0.010563582
73	0x3c8efa21	0.017453255
74	0xbc9fe1d0	-0.019516855
75	0x3b9d6dd6	0.004804353
76	0xbc99917b	-0.018746128
77	0x3d24483f	0.04010796
78	0xbd3d8e38	-0.04627821
79	0x3c861d72	0.016371462
80	0x3d02e7b3	0.031959247
81	0x3d30c7e3	0.043159377
82	0xbcb7ce38	-0.0224372
83	0x3d4f383f	0.05059075
84	0x3c5facfc	0.0136520825
85	0x3b8c207f	0.004276335
86	0x3b9bfc86	0.0047603277
87	0x3d5fcc12	0.054637976
88	0xbd6ce5e2	-0.05783642
89	0xbcbebb9f	-0.023282824
90	0x3d33e188	0.043916255
91	0xbccbd41d	-0.024881417
92	0xbd1a5362	-0.037677176
93	0x3abf0d53	0.0014576114
94	0xbd04fc6f	-0.032467302
95	0xbd29722a	-0.04136864
96	0x3d78b6cf	0.060721215
97	0xbc6fc0b0	-0.014633343
98	0x3d860fea	0.06546004
99	0xbd27a000	-0.040924072
100	0x3d487fa1	0.04894984
101	0x3d730e3e	0.059339754
102	0xbcdd59bc	-0.027020328
103	0x3d83e6f9	0.06440539
104	0x3cce0f22	0.0251537
105	0xbb981fa1	-0.0046424423
106	0x3d69f036	0.05711385
107	0xbd0f21db	-0.034944396
108	0xbd194deb	-0.037427824
109	0xbd3a59f7	-0.045495953
110	0x3d24ba82	0.04021693
111	0x3beb34bc	0.0071779173
112	0xbd0d2dc0	-0.03446746
113	0x3d615d65	0.05502071
114	0xbb809c02	-0.0039248476
115	0x3c4e49b1	0.012590812
116	0x3c84dc9e	0.01621848
117	0xbcd74b64	-0.026281066
118	0x3d1080e6	0.035279177
119	0xbd32cfa2	-0.043655045
120	0xbd34ebd2	-0.04417021
121	0xbcedb28e	-0.029015806
122	0x3d13d1c1	0.03608871
123	0xbd075203	-0.033037197
124	0xbd1f8758	-0.038947433
125	0x3d70d7fd	0.058799732
126	0x3c108143	0.008819881
127	0xbc8e688e	-0.01738384
128	0xbce92cd4	-0.028463759
129	0x3d90a798	0.07063216
130	0xbc98823e	-0.018616792
131	0x3bf7e621	0.0075652753
132	0x3d68e875	0.056862313
133	0xbd357270	-0.04429859
134	0x3ce363c8	0.02775754
135	0x3d241375	0.04005762
136	0x3c838115	0.016052762
137	0x3c367cf9	0.011138194
138	0xbc64f015	-0.013973256
139	0x3cd1cd32	0.02561054
140	0x3d790071	0.060791437
141	0x3d054af3	0.03254218
142	0xbc862d5c	-0.01637905
143	0x3c39181b	0.011297251
144	0xbc604dd7	-0.013690433
145	0x3cf6b071	0.03011343
146	0x3d4dbc34	0.050228313
147	0x3cba60c3	0.022751218
148	0xbafb4743	-0.0019171018
149	0x3c2903d0	0.01031585
150	0xbd1ebc5e	-0.03875386
151	0xbc3d406b	-0.011551003
152	0xbc638415	-0.013886471
153	0x3d0db1f9	0.034593556
154	0x3cac14c6	0.021006
155	0x3d26f3fe	0.040760033
156	0xbce8f34f	-0.028436331
157	0x3c2bec4f	0.010493352
158	0xbc2b6fbe	-0.010463653
159	0x3b9c10c6	0.0047627417
160	0x3d1b8725	0.03797068
161	0xbc3d2175	-0.011543621
162	0xbcca2dac	-0.024679981
163	0x3c14e8de	0.009088723
164	0xbbe3eeea	-0.006955971
165	0x3d47f8a0	0.04882109
166	0xbb631fbb	-0.0034656364
167	0x3d1e5a7d	0.038660515
168	0x3d64d55d	0.05586754
169	0x3ca173ae	0.01970848
170	0x3d140905	0.036141414
171	0xbad9b57d	-0.0016609874
172	0x3d26d4ce	0.04073029
173	0x3c98598c	0.018597387
174	0x3d14492e	0.036202602
175	0x3d9464bd	0.07245777
176	0xbc6a08b4	-0.014284302
177	0x3d46ed04	0.04856588
178	0x3d9a0e3f	0.075222485
179	0xbcf58ed3	-0.02997533
180	0x3c8fb702	0.01754332
181	0x3baa4ec5	0.0051973783
182	0xbd42eae1	-0.04758728
183	0x3c3e378d	0.011609924
184	0x3d81ef24	0.063444406
185	0x3d681924	0.0566646
186	0xbc415474	-0.01179992
187	0xbd354e54	-0.044264153
188	0x3d45af8e	0.048263125
189	0x3d71aa5c	0.059000358
190	0x3c6602ac	0.014038723
191	0x3d2e2c5c	0.042522773
192	0x3c5cbcaa	0.013472715
193	0x3c8a9e55	0.016921202
194	0xbb9a98fd	-0.0047179447
195	0x3d8a391c	0.06749174
196	0x3d5249f6	0.051340066
197	0x3d51b405	0.05119707
198	0x3d030f3c	0.03199695
199	0x3d734060	0.059387565
200	0xbd1ac907	-0.03778937
201	0x3d1066eb	0.0352544
202	0xbd257214	-0.040391997
203	0x3d9b0c60	0.0757072
204	0x3ccb0d2f	0.02478656
205	0xbcea0832	-0.028568361
206	0xbb6bbb25	-0.00359697
207	0xbae3173f	-0.0017325653
208	0x3d1059fb	0.035242062
209	0x3c25af96	0.010112664
210	0xbcf188ce	-0.029484179
211	0x3ce4f935	0.027950862
212	0xbd5e69b3	-0.05430002
213	0xbca8c1ac	-0.020600162
214	0xbc81fc42	-0.015867356
215	0x3d60270b	0.054724734
216	0xbd0329af	-0.032022174
217	0xbc0eb177	-0.008709303
218	0x3c03adde	0.008037059
219	0x3d120908	0.035653144
220	0x3d86397e	0.065539345
221	0x3bc24ae3	0.0059293373
222	0x3c8564ba	0.016283382
223	0x3d6c460a	0.057683982
224	0xbce74393	-0.028230464
225	0xbc82ceb1	-0.015967699
226	0x3ca0d395	0.01963214
227	0x3b3d82db	0.0028917107
228	0x3c8cbacc	0.017178915
229	0xbd05957b	-0.03261326
230	0xbc300215	-0.010742684
231	0x3c53692b	0.012903492
232	0xbb376104	-0.002798141
233	0xbd1c80d4	-0.038208798
234	0x3d567b3d	0.052363623
235	0xbc97d3c6	-0.018533599
236	0x3c150481	0.009095312
237	0x3d93c14f	0.07214605
238	0xbd514497	-0.051090803
239	0x3c9b2789	0.01893975
240	0x3cc56e84	0.02410055
241	0x3d532539	0.05154917
242	0xbc3c3e58	-0.011489473
243	0x3c9637e5	0.0183372
244	0xbd3fcd80	-0.04682684
245	0xbcc1a322	-0.023637358
246	0x3d912905	0.07087902
247	0x3c3bc86c	0.0114613585
248	0xbd1f3272	-0.038866468
249	0xbd00fafc	-0.031489357
250	0xbd312fd8	-0.043258518
251	0xbc103ef3	-0.008804071
252	0xbd03f19b	-0.032212835
253	0xbd058a25	-0.032602448
254	0xbb24a467	-0.0025122405
255	0xbd46083f	-0.048347708

pi.weight f4 [3, 256]
0	0xbe064c80	-0.1311512
1	0xbe27544b	-0.16340749
2	0x3e1c755a	0.15279141
3	0xbe09559c	-0.13411564
4	0x3daec592	0.08533777
5	0x3da87526	0.08225469
6	0xbd65e8f7	-0.056130376
7	0x3c6945df	0.01423785
8	0xbe5bbba3	-0.21458296
9	0xbda6b0d5	-0.08139197
10	0xbd31212e	-0.043244533
11	0x3c332e05	0.010936265
12	0x3da07388	0.07834536
13	0xbd17d291	-0.037066046
14	0x3d8c9546	0.06864409
15	0x3c7fc5cb	0.015611122
16	0xbe1fcfe2	-0.15606645
17	0xbdf60bd4	-0.12013975
18	0xbe537e41	-0.20653631
19	0x3c05542d	0.008137745
20	0xbe0d9b89	-0.13828863
21	0xbb84216d	-0.004032305
22	0xbdf1b63b	-0.11802336
23	0x3e12df51	0.14343001
24	0xbaed19aa	-0.0018089314
25	0xbd8c0551	-0.068369515
26	0xbe431752	-0.19051865
27	0xbe72e704	-0.23720938
28	0xbdbef7c1	-0.09324599
29	0xbe0275a5	-0.1274019
30	0x3dd58051	0.10424865
31	0x3cf549a9	0.02994235
32	0x3dae9a49	0.08525521
33	0xbda33c65	-0.07970504
34	0xbe014833	-0.12625198
35	0x3db8fa27	0.09032088
36	0x3ce1e7a7	0.02757628
37	0x3d54ea42	0.05198122
38	0xbda2da13	-0.079517506
39	0xbdc9060a	-0.09815605
40	0x3dc8cb92	0.09804453
41	0x3ca00020	0.01953131
42	0xbdb10541	-0.0864358
43	0x3c8dd81d	0.017314965
44	0xbc3b01fa	-0.0114140455
45	0x3db62d81	0.08895398
46	0xbdb5ab35	-0.08870546
47	0x3d35b7f7	0.044364896
48	0xbdf69cbd	-0.12041614
49	0x3dd3d060	0.10342479
50	0xbd401a9e	-0.046900384
51	0x3c14cc98	0.009081982
52	0xbe13a1a2	-0.14417127
53	0x3ddad961	0.10685993
54	0xbcbf0b07	-0.023320688
55	0xbb56a8d5	-0.003275444
56	0xbe47ecf4	-0.19523984
57	0xbe355cea	-0.17711225
58	0x3da18c5d	0.078881
59	0x3d0f3d23	0.034970414
60	0x3dcc7297	0.09982794
61	0xbda08a46	-0.078388736
62	0xbdd31538	-0.103067815
63	0xbdb436dc	-0.08799526
64	0x3ddc7047	0.10763603
65	0x3e189556	0.14900717
66	0xbd36f4c2	-0.044667013
67	0x3d8f959c	0.070109576
68	0xbd6d7420	-0.057972074
69	0x3d8a585d	0.06755135
70	0xbd8fc10e	-0.07019244
71	0xbd9b39b8	-0.07579368
72	0xbd2dd5fb	-0.042440396
73	0x3d5f2b9e	0.054484956
74	0x3df79526	0.12088995
75	0xbc60b5f1	-0.013715253
76	0xbd26a517	-0.040684786
77	0x3e068384	0.13136107
78	0xbd17c5e6	-0.037053965
79	0x3de1dede	0.11028837
80	0xbde90ba9	-0.11379177
81	0x3c666544	0.01406223
82	0xbd9c2399	-0.07623977
83	0xbdac7f83	-0.084227584
84	0xbe1fc2c3	-0.1560164
85	0xbca201ba	-0.019776214
86	0x3c6afacb	0.01434202
87	0xbbf2fe7e	-0.0074155917
88	0xbe2ae7f4	-0.16690046
89	0xbd0bfa2a	-0.034174122
90	0xbb3d9cd4	-0.0028932588
91	0xbdf59656	-0.11991565
92	0x3da54d3c	0.08071372
93	0xbe36036b	-0.17774741
94	0xbe58a375	-0.21156104
95	0xbddb1ed0	-0.106992364
96	0xbd20d417	-0.039264765
97	0xbe757fa5	-0.23974474
98	0x3e2c9194	0.16852409
99	0x3deba0e1	0.115052946
100	0xbda2e95d	-0.07954667
101	0x3ce9ab33	0.028524017
102	0xbdbd6fec	-0.09249863
103	0x3d975cd2	0.07390751
104	0xbdba6ee6	-0.091031834
105	0xbdb2d7f5	-0.08732597
106	0xbdea6538	-0.11445087
107	0xbb032d35	-0.002001596
108	0xbe013b95	-0.12620385
109	0xbdb5564b	-0.0885435
110	0x3d886de2	0.066615835
111	0x3dfca596	0.123362705
112	0xbe22921f	-0.15876053
113	0xbe0fdf67	-0.14050065
114	0x3d3977e7	0.045280363
115	0xbc2faa02	-0.010721685
116	0x3d952929	0.07283241
117	0xbd125dca	-0.035733975
118	0xbe77f198	-0.24213254
119	0xbd2d3d02	-0.04229451
120	0xbd47ab4a	-0.04874734
121	0xbdbb287a	-0.0913858
122	0x3e1776f2	0.14791468
123	0x3d1c507b	0.03816269
124	0x3d1c5d16	0.03817471
125	0x3dc87c11	0.09789289
126	0xbdac813a	-0.084230855
127	0x3db2c6b9	0.087293096
128	0x3d367fec	0.04455559
129	0xbe065c1e	-0.13121077
130	0xbdea5db3	-0.11443653
131	0xbe21988d	-0.1578085
132	0xbd842e8a	-0.06454189
133	0xbb96f8de	-0.004607304
134	0xbd6c2494	-0.05765207
135	0xbd6b5a6d	-0.057459284
136	0x3de3a058	0.111145675
137	0x3c8f7d52	0.017515812
138	0xbddba767	-0.10725289
139	0x3dbaeb81	0.0912695
140	0xbe30e4d7	-0.17274795
141	0x3da57b4d	0.080801584
142	0xbe2afcdf	-0.16698025
143	0x3d5b5cdd	0.05355536
144	0x3d35b80f	0.044364985
145	0xbcfa460c	-0.03055098
146	0x3e1f255e	0.15541598
147	0x3cc970a6	0.024589848
148	0xbe1749dc	-0.14774269
149	0x3d2af956	0.04174169
150	0x3d75b793	0.059989523
151	0x3e37995f	0.179296
152	0x3e1b0345	0.15137966
153	0xbe133a1f	-0.1437764
154	0x3cfc2f0c	0.030784152
155	0x3d9d96f9	0.076948114
156	0x3df11c9c	0.11773035
157	0xbe0d9c55	-0.13829167
158	0x3c2ff517	0.010739586
159	0xbc0e0396	-0.008667847
160	0xbc4d4009	-0.012527474
161	0x3dfc9fff	0.12335204
162	0xbd96ee13	-0.07369628
163	0xbd85ca3e	-0.06532715
164	0x3d4cc048	0.04998806
165	0x3d66ce62	0.056349166
166	0xbd974595	-0.073863186
167	0xbdd44486	-0.10364632
168	0xbde9be98	-0.11413306
169	0x3d3b16f7	0.045676198
170	0xbd112b0b	-0.03544144
171	0x3e167ccd	0.14696045
172	0xbe1f89c6	-0.155799
173	0xbd844a0c	-0.06459436
174	0xbdb9bd79	-0.09069342
175	0x3d6d13ec	0.057880327
176	0xbd9d4084	-0.07678321
177	0xbdf15c0e	-0.11785136
178	0xbd5ef026	-0.054428242
179	0xbe2e7b4d	-0.17039223
180	0xbdb8c331	-0.09021605
181	0xbdfece74	-0.124417216
182	0xbd4c5e68	-0.04989472
183	0x3cc47c9f	0.023985205
184	0xbe2c269d	-0.16811605
185	0xbdbef1bc	-0.09323451
186	0x3e0bc49a	0.13649216
187	0x3d40e1f4	0.047090486
188	0xbadfc258	-0.0017071469
189	0xbe0f7abb	-0.14011662
190	0xbdda1595	-0.10648648
191	0x3e0ae629	0.13564362
192	0x3e06f28c	0.13178462
193	0xbe1aa664	-0.15102535
194	0xbd552dc9	-0.052045617
195	0xbda6557e	-0.08121775
196	0x3dd363fd	0.103218056
197	0x3d33b884	0.04387714
198	0x3d2143f0	0.03937143
199	0x3ddecf55	0.10879389
200	0xbd235089	-0.039871726
201	0xbdf4fd5d	-0.11962388
202	0x3d87dad2	0.066335335
203	0x3e0ca19d	0.13733526
204	0xbe183a5c	-0.14866012
205	0xbe114076	-0.14184746
206	0x3da023a6	0.078192994
207	0x3d3ec272	0.046572156
208	0x3d2b40d8	0.041809887
209	0xbe09c3d4	-0.13453609
210	0x3e078a56	0.13236365
211	0x3cf43bc3	0.029813653
212	0x3befc423	0.0073170825
213	0xbd9427ee	-0.072341785
214	0xbe17d5b0	-0.14827609
215	0x3dda1006	0.106475875
216	0x3c3133dc	0.010815587
217	0xbde62434	-0.11237374
218	0xbd9a57f1	-0.07536305
219	0xbda92d05	-0.0826054
220	0xbda75b5a	-0.08171721
221	0x3df508ad	0.119645454
222	0x3dda0dd8	0.10647172
223	0xbe3096e6	-0.17245063
224	0x3c94e985	0.018177757
225	0x3d24749a	0.040150262
226	0x3db3ea61	0.087849386
227	0x3e26ffd5	0.1630853
228	0x3e1084fc	0.1411323
229	0xbde61e87	-0.112362914
230	0x3d153aad	0.03643291
231	0x3da9209e	0.08258174
232	0x3dbde8c6	0.09272914
233	0xbca7b25d	-0.020470792
234	0xbe2eee31	-0.1708305
235	0xbdecd3d4	-0.115638405
236	0xbd9ceb1a	-0.076620296
237	0xbb8b4ded	-0.004251233
238	0xbda5fa09	-0.08104331
239	0xbe50effa	-0.20404044
240	0xbe207005	-0.15667732
241	0x3d4a244a	0.049351014
242	0x3d706432	0.058689304
243	0x3be80552	0.0070807124
244	0x3d0b4ac5	0.034006853
245	0x3e1a7c9c	0.15086597
246	0x3dc83cc4	0.09777215
247	0x3de306ba	0.11085267
248	0x3d3388fa	0.043831803
249	0xbc3880a0	-0.011261135
250	0xbe3cfff6	-0.18457016
251	0xbdcc2329	-0.09967644
252	0xbbe2bd4e	-0.0069195395
253	0x3bf08de2	0.0073411325
254	0xbc0140b2	-0.00788896
255	0xbe4e0f7f	-0.20123099

pi.bias f4 [3]
0	0x3c237e9c	0.0099789165
1	0xbd6024fd	-0.054722775
2	0x3c862f1a	0.016379882
