rdpg/checkpoints/rdpg_traj_track/actor.pth (torch, 938734 bytes, 10 tensors)

fc1.weight f4 [256, 9]
00000000: 6fd4 533e 88d4 f9bd 0e92 483d 0250 13be
00000010: da80 013e da17 d0be c3b4 26be e136 7d3d
00000020: 19fd ba3d eed6 45be fa87 3abe d59c 153d
00000030: 1fdb d5be fefe 02be 596f f5be f64d ca3d
00000040: 4b8b df3e 923e 593e 0439 8d3e e835 70be
00000050: a42c 5b3e f44a c2bd 159a 7fbd e9c0 3abe
00000060: e0f7 1f3f ee57 5fbf 5fa4 373e d9c3 b53e
00000070: 3bba d7be 6e94 d83e ab42 dbbd dc2a 27be
00000080: 54d5 23be cf0d 44bd c0e1 ddbd 1c95 e23d
00000090: 68e2 97be 8088 b2be 6e8e a0be d33f abbc
000000a0: d423 6b3e fbb8 1bbe 1e6c 763e d6e7 1f3f
000000b0: 53ea ad3d 03bd 7dbd 92e4 c83e a9e3 123f
000000c0: f04b 193b 27e3 0f3d 26d9 f53d 8f11 2ebe
000000d0: 085c e0be eed7 e73d 07a6 98be 98ab 8ebc
000000e0: 3f74 b83e 4a58 093e d1d6 0d3e 29c0 ac3d
000000f0: 8053 c83e 38d5 29be 3fa7 363c 98c2 ac3e
00000100: 3234 b43d a092 18be a66d 5dbe b3ac 713e
00000110: 7d4e a9be 431c ca3e a49d e53e 24c2 f1bd
00000120: fe23 9fbd 5769 e93d c7c3 15be 8760 963e
00000130: 2653 8e3e 4d0a 52bd 60e3 59be 3beb 36bf
00000140: 496c 78bc 0a58 cabe 313b ac3e 6a48 8ebd
00000150: e2cf 4d3b 18f8 93bc a5ae 31bd 934c aa3e
00000160: f093 37be 76d8 a83e 2058 dc3e 615b a9be
00000170: b370 743e 9050 40be ade9 403e c8c8 933d
00000180: 396e 8b3e 8a81 a03e 5340 83be cfe9 b3bd
00000190: 27b9 80bd a841 8cbe 8cd6 543c beae 8c3d
000001a0: 4973 dd3d 25c3 f33e eaa1 443f dcc0 f33e
000001b0: 788d e63e 6cc7 723e 77ab ecbb 0ea4 f03c
000001c0: 219c a13d 2909 ecbd f894 523e e41b 40bf
000001d0: c4b7 023d c57c 9c3e fc4b ce3e 87ce 2bbe
000001e0: 42e7 3fbd c910 0cbe 503b bc3e 3816 073f
000001f0: d00e 423e 5d12 a73e f23d 90be d719 d7bd
00000200: cf56 b53d 25b8 9fbe b259 68be e854 dfbd
00000210: 143f dc3e da5a 05bd cbca 223e 1e21 84be
00000220: 650a 813d dcfd aebd 49e2 57be d9cc 72be
00000230: 0d51 0a3f fd20 103e bc05 c6be 792a 033d
00000240: 061a 9bbe 4ef6 033f 8e84 cebc 3e82 183e
00000250: 600e 123b b0cc 09be 216c 033f 2534 d5be
00000260: 62ec 0bbd 3de4 063d a155 363f 7f40 843d
00000270: b7e3 88bc 9362 ed3d 2435 45be 8d40 7f3d
00000280: 57f9 1bbf 8a07 05be 569a 083f bc13 ad3e
00000290: 17f4 cf3e 7193 343e d1f7 71be 316f 4dbe
000002a0: 169a acbd 8179 923e 4c2d 393e 2410 4f3e
000002b0: f874 29be c4d1 f4be 62e7 743e 0cb5 8dbb
000002c0: d84a 82be 3c35 4b3d e111 123f 42fa 073f
000002d0: b390 80be 0a35 d7bd bc51 7fbe 9bd7 463d
000002e0: 3133 69be eca8 91be fcbe c2be e8c1 603d
000002f0: 4561 a03e 3a23 bfbc 64b7 b3be f060 263e
00000300: a7ef adbe b180 a8be cf0e ab3e 47ea 7abd
00000310: 1ba9 80be 544d 1c3e 68b8 803e 613b 243e
00000320: 8e3b bebe 97fb a3be 83f3 96be 0ffe 11be
00000330: a887 053f 19e6 4e3e bd7b a6bd dfec 033d
00000340: 9f84 453c c083 f3bc 5c99 7a3d f574 a4be
00000350: c5c1 2abe 3127 cb3e 53b6 8e3d c4c9 dd3e
00000360: 8e95 55be b503 adbd a612 d4bd 3e3d 813e
00000370: 0757 a03e 98ab 83be 5f2e 68bd 8659 823d
00000380: 8033 0cbd be7e 553e 2f09 e6be 7840 9c3e
00000390: 30ce 3d3e de41 823e 0d03 9bbe 9cad a0bd
000003a0: 31ec babd 3e0c 8c3e 8499 ea3e de78 da3d
000003b0: 87a8 e83e b8c3 313e 181e 3fbe f3ed cbbd
000003c0: 49e0 ec3e 2d17 473e f0c3 e7bd 5307 6c3e
000003d0: 1c49 46bd 0514 ccbe 609e 74be 68de 6cbe
000003e0: fe02 4e3e ec26 2e3f c6d5 14bf 286a ab3e
000003f0: 4554 04be d967 64be c0eb 32be 53c2 51be
0.20686506 -0.1219874 0.048967414 -0.1438599 0.12646809 -0.40643197 -0.16279893 0.061819915
0.09130306 -0.1932027 -0.18215933 0.03652652 -0.4176874 -0.12792584 -0.47936514 0.09878151
0.4366096 0.21215275 0.27582562 -0.23458064 0.21403748 -0.094869524 -0.062402803 -0.18237652
0.624876 -0.87243545 0.17933796 0.35500982 -0.4213427 0.42300743 -0.10706075 -0.16324943
-0.15999347 -0.04786473 -0.10834074 0.110635966 -0.29664922 -0.34869766 -0.31358665 -0.020904457
0.22962886 -0.15207283 0.24064681 0.6246313 0.084919594 -0.061947834 0.39236885 0.5737863
0.002339121 0.03512874 0.120043084 -0.16998886 -0.43820214 0.11320482 -0.2981417 -0.017415807
0.3602619 0.13412586 0.13851477 0.08435089 0.39126205 -0.16585243 0.011148273 0.33742213
0.08799018 -0.14899683 -0.21623859 0.23601036 -0.33067694 0.39474687 0.44846833 -0.118046075
-0.07770537 0.11397045 -0.14625464 0.2937052 0.27797812 -0.051279355 -0.21278143 -0.71452683
-0.015162536 -0.39520293 0.3363891 -0.06947406 0.0031404425 -0.018062636 -0.043379445 0.33261546
-0.17927527 0.32977647 0.43035984 -0.3307753 0.23871116 -0.18780732 0.1883914 0.0721603
0.2723253 0.3134883 -0.25635013 -0.0878483 -0.06285315 -0.27393842 0.012990605 0.06869267
0.108130045 0.4760982 0.7680956 0.47608078 0.45029807 0.23708886 -0.0072225886 0.029375102
0.07891107 -0.11525185 0.2056464 -0.7504256 0.031913534 0.30563942 0.40292346 -0.16778003
-0.046851404 -0.13678278 0.36764002 0.5276828 0.18950963 0.32631198 -0.2817226 -0.105029754
0.08854448 -0.3119518 -0.22690466 -0.109048665 0.43016875 -0.032557346 0.15897672 -0.25806516
0.06300811 -0.085445136 -0.21082415 -0.23710956 0.54029924 0.14075084 -0.3867625 0.032022927
-0.30293292 0.51547706 -0.025209691 0.14893433 0.00222864 -0.13456988 0.51336867 -0.41641346
-0.03416098 0.03293251 0.7122441 0.06457614 -0.016710145 0.11591067 -0.19258553 0.06231742
-0.6092734 -0.12991157 0.533605 0.3380412 0.40615913 0.1763437 -0.2362969 -0.20061947
-0.08427827 0.28608325 0.18083686 0.20221001 -0.16548526 -0.47816288 0.2391639 -0.004324561
-0.25447726 0.049611315 0.5705853 0.5311624 -0.25110397 -0.10508163 -0.24933523 0.04854546
-0.22773434 -0.2844919 -0.38036335 0.054872423 0.3132421 -0.023332227 -0.35100853 0.16247916
-0.33971903 -0.32910684 0.33409736 -0.06125858 -0.25129017 0.15263873 0.2514069 0.16038276
-0.37154812 -0.32027885 -0.2948266 -0.14257072 0.5216012 0.20204963 -0.0812907 0.03220832
0.012055545 -0.02972591 0.06118141 -0.3212048 -0.1667548 0.39678338 0.06968369 0.43317997
-0.20857832 -0.08447973 -0.103551194 0.25242037 0.31316397 -0.25716853 -0.056684848 0.063647315
-0.0342288 0.2084913 -0.44928882 0.30517936 0.18535686 0.25440878 -0.30275765 -0.07845613
-0.09127081 0.2735309 0.45820248 0.10667585 0.45441076 0.17359817 -0.18663824 -0.099574946
0.46264866 0.19442435 -0.11316669 0.23049669 -0.048409566 -0.39859024 -0.2388854 -0.23131716
0.20118329 0.6802814 -0.5813869 0.33479428 -0.12922771 -0.2230524 -0.17472744 -0.20484285

fc1.bias f4 [256]
00000000: 4476 44be ed2c 9abe a509 8bbd 369d 1cbe
00000010: e966 9d3e 809d a63d 4361 263e a5cc 3f3d
00000020: 3597 973d 90c0 ae3d 039f 903e 3e2b 9a3d
00000030: 4343 f63d 1290 39be 3148 dd3d 9741 43be
00000040: b234 dd3d c33b 333e 5aa6 04be e7ba b63e
00000050: a15a 9d3e f9b4 cdbd d089 71bd 6f6c f8bd
00000060: aa98 97bc 2e90 763d 16ee b7bd f0f4 4e3b
00000070: 37f4 283e 84ec 863d 0acb 9d3e 6f9d 9c3e
00000080: b2a3 3b3e 2a65 553e db53 17be 9ffb 2e3e
00000090: 54f8 b4bd 8785 5d3e 1e9b a33e ad36 b1bd
000000a0: 17e1 8a3c b10c 2b3e 8fae 183e 1612 c53d
000000b0: 4b7b 6dbd 1509 993e 3fea 7e3d 8206 ab3d
000000c0: bd07 043d 444d 89be 6843 973e 3ff4 14bd
000000d0: a82e ac3e 45e4 46bc c269 a1bd 981f ab3e
000000e0: 56d8 0a3e adb7 4bbe 1f89 65be f494 1fbe
000000f0: edf9 113e 0af0 98bc da48 453e bbe2 623c
00000100: 4941 f93c 1d45 603e 648c 733e 2c72 e2bd
00000110: 2a18 c33d 12e6 e0bc 93d8 aabe 6cc4 e2bd
00000120: 4f54 e0bc a156 61be 88af 273d 3326 32bd
00000130: c519 01be 0ea2 603e ac9e 37be dc24 213e
00000140: 1934 41bc 8074 723e 3942 23bc 8521 203e
00000150: cac9 28be 3aef 613e 2000 503e 1505 ea3a
00000160: 7b44 543e b0c1 7d3e e487 b0bd 8915 a63e
00000170: 6966 8d3e 56e2 8abd 7841 0fbe 34c4 243d
00000180: 20f0 d73d 29af 503e 6ee7 a53d 39d6 3f3e
00000190: 82fc 493e 7e01 00be 4607 c43d 1bef 25bd
000001a0: 9d5c a03e 06ca 083e d5dc a03e d242 e13b
000001b0: 5a41 4b3e c354 4e3e 6eaf 3b3e 3855 833e
000001c0: baf7 5abe 90f1 863e fe1a c1bd e8ae 7fbc
000001d0: d468 9abe 2163 2bbe 97b6 073d 0eb0 a23e
000001e0: 4d57 a33e 1c69 d0bd 8bc2 9e3e a6c1 883d
000001f0: 1d4e d93d d0c7 643e 9055 1e3e 9623 01be
00000200: aac0 513e c85b 833d 1d27 a6bd b001 e73d
00000210: 5ab6 693d a25a bb3d 93c5 c43c dc4e 17bd
00000220: a143 033e 3765 af3e 3b7e 923e ddd8 e2bd
00000230: a17a b53e 4da3 7a3d eef8 0b3d a60e e43c
00000240: c24a 3cbd 22e4 f43d 274c bfbd 941c 8e3e
00000250: e251 bdbd 417d 2b3e 109f cabc dceb 33bd
00000260: de3a 4fbe 0a8d 1f3e e741 03be 4a3a 383e
00000270: 6ec3 10bc e8d8 c43d 14d2 443e 977d a13e
00000280: 0ad5 67be 509b 993e 7b69 9a3e 7351 c73d
00000290: dee0 81bd 8dbc 633e e5c7 1abe 30e3 d33e
000002a0: 1cad d7bc f687 15bd e7d8 953e e0e9 a83e
000002b0: 16c8 153d d150 943e 799f 17be a5d3 983e
000002c0: d811 5dbe 4d2c 1c3e d3bc acbd b2ac 0dbd
000002d0: 593e 043e 06dc 61be 35d8 53bd ea97 873e
000002e0: 7e20 2cbe bb01 f3bc f450 d03d bf81 8f3e
000002f0: b494 6e3e 252d 483e 23cf b53d b4ee 85be
00000300: 469c 403e 75f1 03be 84c5 8dbd 9032 323c
00000310: 9613 f63b 1d86 10be 94b2 3ebe 323e 523e
00000320: e5f7 51be e9ee 4e3e 7f66 893e bb00 e5bd
00000330: fa63 b63e 3f32 763e 2fbe 863e 9fd0 da3d
00000340: ba85 10bd 6445 bdbd 7089 993d 7831 0e3e
00000350: 3e6d 913c f253 8c3e e4e3 a23e 6bcf 9c3e
00000360: dc22 943d 6adc 733e c436 1a3e c92e 683e
00000370: fa77 073e a594 043e 4199 253d 13b1 343d
00000380: 9c89 c83d 767a 0f3e d73c 5f3c 0f9c aebd
00000390: 977d 613d 18be 81bd a6f2 13bd 725e 18bd
000003a0: 2400 33be aa60 0c3e 3162 1a3e 8236 babd
000003b0: a78f 043e 500f 883e 9c83 4a3e e471 3c3e
000003c0: fa54 8b3b 46fe 403e c3b5 a73e 871e 663d
000003d0: 6a5b 8d3d 87ed 873e a8c2 0b3e 303c e3bd
000003e0: 10ff 4f3e 37f9 863e 8b0e 163e eb1d 023e
000003f0: 733c b1bd cb2f 383e 8cbc 16be ac60 0e3d
-0.1918574 -0.301124 -0.06788949 -0.15294346 0.30742577 0.081355095 0.1624804 0.046826024
0.07401887 0.08532822 0.28246316 0.07527779 0.12024548 -0.18121365 0.10804785 -0.1906799
0.108010665 0.17503266 -0.12954083 0.3568947 0.30733207 -0.100442834 -0.05896932 -0.12130057
-0.018505413 0.060196094 -0.08980958 0.00315791 0.1649941 0.065880805 0.3081897 0.30588862
0.18324164 0.20839372 -0.14778082 0.17088173 -0.08836427 0.21632968 0.31954283 -0.08653007
0.016953034 0.1670406 0.14910339 0.0962259 -0.05797891 0.29889742 0.062235113 0.08350851
0.032233942 -0.26816761 0.29543614 -0.036365744 0.33629346 -0.012139385 -0.078815 0.33422542
0.13559088 -0.19894286 -0.22415589 -0.15584165 0.14255495 -0.018669147 0.19266072 0.013848002
0.030426638 0.21901365 0.23784024 -0.11056933 0.09526093 -0.027453456 -0.33368358 -0.11072621
-0.027383951 -0.22005703 0.040938884 -0.04349346 -0.12607487 0.21936819 -0.17931622 0.15736717
-0.011792206 0.23677254 -0.009964519 0.15637787 -0.16483226 0.22063914 0.20312548 0.0017854298
0.20729248 0.24780917 -0.08619669 0.32438305 0.27617195 -0.067814514 -0.13989818 0.040226176
0.10543847 0.20379318 0.08100782 0.18734063 0.1972523 -0.12500569 0.095717 -0.040511232
0.31320658 0.13358316 0.3141848 0.0068744207 0.19849148 0.20149522 0.1832864 0.25650954
-0.21383563 0.26356173 -0.094289765 -0.015605666 -0.30158103 -0.16737033 0.033133116 0.31774944
0.31902543 -0.10176298 0.310078 0.066775605 0.10610602 0.22341847 0.15462327 -0.12611231
0.20483652 0.0641399 -0.08112929 0.11279619 0.05705867 0.09148146 0.024019992 -0.03694044
0.12818767 0.34256908 0.2861193 -0.1107652 0.3544512 0.061190892 0.034172945 0.027839016
-0.045969732 0.119575754 -0.09340697 0.27756178 -0.092441335 0.16747 -0.02473405 -0.043926105
-0.202373 0.15581146 -0.12818108 0.17990986 -0.008835657 0.09611684 0.19220763 0.3154113
-0.22639862 0.30001307 0.301586 0.09732332 -0.06341718 0.22239895 -0.15115316 0.41384268
-0.026327662 -0.036506616 0.29267046 0.32990932 0.03656777 0.28967908 -0.14806928 0.29848972
-0.21588838 0.15251274 -0.08434453 -0.034588523 0.12914409 -0.22056589 -0.051719863 0.2648309
-0.1680927 -0.029663911 0.101716906 0.28028676 0.23298913 0.19548471 0.08877399 -0.2615868
0.18809614 -0.12885077 -0.06922439 0.010876313 0.007509659 -0.1411366 -0.1862281 0.20531538
-0.2050472 0.20208324 0.2683601 -0.1118178 0.3562315 0.24042605 0.26316974 0.106843226
-0.03528378 -0.09241751 0.07496917 0.13886058 0.017752286 0.27407795 0.31814492 0.30626997
0.072332114 0.2381455 0.15059954 0.22674097 0.13229361 0.12947328 0.040429357 0.044114184
0.09791872 0.14011559 0.013625345 -0.085258596 0.055051412 -0.06335086 -0.03612008 -0.037199445
-0.17480522 0.1370875 0.1507652 -0.09092428 0.12945424 0.26574183 0.19776767 0.18402821
0.0042520734 0.18846998 0.3275586 0.056181457 0.069022015 0.26548406 0.13648474 -0.11095464
0.20312142 0.2636201 0.14653985 0.12706725 -0.08654108 0.17986982 -0.14720362 0.034760162

lstm.weight_ih_l0 f4 [512, 256]
00000000: 8957 3ebe 7e48 08bd b07e 293e 6184 4b3e
00000010: f184 48bd 443a 3c3e dd9f 983d 6dc9 813b
00000020: 4151 5f3d fea1 bcbd 29bf a33d 3d6c 0ebe
00000030: f31d fb3d c2df cabd 880b 143d 3ad2 0f3e
00000040: 2cd9 ff3c e3e3 263d 2ab2 933d 77e3 3e3d
00000050: efed c43d 16c0 0e3e 85d6 b73d 1f4b 23bd
00000060: b499 ad3c c54a fa3d 1003 9c3d d94e 083d
00000070: 8f84 a6bd 07ba 07be 3ccc 073e d03c 113e
00000080: 628c 443e b89e 663e 0ca1 a1bc ad23 14bc
00000090: 4d60 723d f31d 8dbd 0c29 0a3e ac16 8fbe
000000a0: b5ce f4bc 803c f9bd bcf4 943d afdb d9bc
000000b0: 095c 053d 9783 e23b 2cf9 183e 1f7c 223b
000000c0: 1389 d03d fe74 3bbc 6f88 72bc e49e 673e
000000d0: 5750 ebbb d9b0 f8bd 3f09 12bd 37a3 a93d
000000e0: 4284 5e3e f016 8f3c 4c6d 563c ad03 12bd
000000f0: 1685 823c 1b85 983d 6f42 d53d 5551 243e
00000100: c9a5 11bd 0c09 2a3e ee29 0f3e 4320 043e
00000110: d1c0 0d3e 6efb f43b 5635 3ebd a68b 72bb
00000120: 1dd7 c1bd f7b5 2bbe 3c59 03be 1fd7 1c3e
00000130: 0961 3fbd b25a ed3d 4a87 b33d 86ee c53d
00000140: 88d9 503b 38f4 bb3d 699f 963c b9ca d8bb
00000150: a56d edbd 8dac 433d 4e8d 8d3d fb9d ba3c
00000160: 0f27 9cbd 3af4 223d 22eb e0bc 87c4 ca3d
00000170: 3863 9a3d b594 f7bd 8eca 04be 7906 063e
00000180: b007 863d dd7f dc3d 0f29 f5bc 0422 cdbc
00000190: ec0f 583e ebf5 d4bc ef5b 6b3d a76a 14bd
000001a0: 66c5 743e 1f8f 75bd 42d1 c53d 4d45 ed3d
000001b0: f10c e93d 8733 443e 18a5 63bc 20f3 f23d
000001c0: 716e e8bd 5a28 8c3d 8977 bf3c b993 19bd
000001d0: c0be f33c a292 273c 5c3b 4f3c 2276 df3d
000001e0: 9e9c 96bd 45a9 92bd 1aa6 e83d 4c4d 1bbd
000001f0: f9a6 3c3e a4af 153e b509 88bd e149 11be
00000200: 904d 733d d71a 2dbc e6d2 da3d bb9e b33d
00000210: 2b6a ac3b 121b 123e c5a7 4fbb 6622 63bd
00000220: 9071 803d a345 543d 4ae5 1c3e 8614 b73d
00000230: ce6d 813e c4b5 1e3d 2641 1e3d 8afe 953e
00000240: dadc d3bd d4da f83d 520f f33d 5871 c23d
00000250: a530 2e3e a0db 003d 2188 18be 1429 fabc
00000260: d2bb ecbc 54e9 2abd b63c f33e f4b8 923d
00000270: 5ee0 ac3d 730c 813c 3d26 ac3e bb4d 213e
00000280: 15dc 55be 5736 163e 858b ac3d 9ebe c93d
00000290: 0600 46bd ef74 2c3d 09df 80b9 02de 763e
000002a0: 405a b63d 9f1c cebd 1e04 6ebd ec8b 883a
000002b0: f614 983c 39c1 0a3e a2e9 eeba d2ef ad3e
000002c0: 7a6c ad3c 3fab 9d3a a51a 02be 58bb a0bb
000002d0: b0ac 363d 7df0 de3c b43b 29be 2e30 0fbd
000002e0: 81f8 ca3e c034 8a3d b4dc 30bd 4eb5 b33d
000002f0: bbb8 3c3e 4587 473e 04b5 68bd a28e a63d
00000300: 8326 2e3d 95ce febc b086 0f3e ed4a 063e
00000310: 041c bb3d 2d53 58bd ced2 00be b060 f33d
00000320: 5097 b03d 21c6 46bd 3cb7 0d3e 4821 af3a
00000330: 6635 df3d c68d 3c3e e630 4e3c c473 2f3e
00000340: b9b9 583e e786 f2bd 6911 2d3d b154 073e
00000350: 41e4 6d39 7eb5 ef3d 7443 773d 6a99 123e
00000360: 0a05 673d e8e2 2eba 2101 193e 19fe 713e
00000370: 79a0 163e 4294 063e 15bd 9f3e dfbf efbb
00000380: 8a19 c0ba ce4b 1e3e e963 dd3d b1af 5bbd
00000390: 7456 9b3c 7d8c 553c ea48 843c 10d3 aebd
000003a0: bcd8 b0bd 3ada 9e3d fb1a f43d 11ea 0fbe
000003b0: 8d50 88bd eaa3 433d 648a 5c3e 24df 3f3d
000003c0: 5493 603d 4be9 463b 9570 223e 55e7 fc3d
000003d0: ed8e 1abd 57eb ae3c fb50 4b3e dbe1 29be
000003e0: 5d73 953e dceb e73d 8723 793e 797f b4bd
000003f0: b2ed 353d abe6 a0bd de68 c2bd c808 aa3c
-0.1858808 -0.03327226 0.16552234 0.19874717 -0.048954908 0.18381602 0.074523665 0.0039607794
0.05452085 -0.09210585 0.07995445 -0.13908477 0.12261572 -0.0990596 0.03614381 0.14045039
0.031231485 0.040744673 0.072117165 0.046603646 0.09615695 0.13940462 0.08976463 -0.039866563
0.021191455 0.122212924 0.076177716 0.03327832 -0.08130752 -0.13254558 0.13261503 0.14183354
0.19194177 0.22521484 -0.019730113 -0.009041709 0.05917387 -0.06890478 0.1349222 -0.27946985
-0.029883722 -0.121697426 0.07273242 -0.026594011 0.032558475 0.0069126594 0.14938802 0.002479322
0.10182395 -0.011441467 -0.014803036 0.22619206 -0.007181208 -0.12143106 -0.03565335 0.08283084
0.2173014 0.017466992 0.013087582 -0.035648037 0.015932601 0.07447263 0.10413062 0.1604665
-0.035558496 0.16605014 0.13980839 0.12902932 0.13843085 0.007476262 -0.046437584 -0.0037009506
-0.09464858 -0.16768633 -0.12827009 0.15316437 -0.0467234 0.115895644 0.08766039 0.09664635
0.003186794 0.091774404 0.01838656 -0.0066159633 -0.11593179 0.04777198 0.06911717 0.02278041
-0.07624637 0.039783694 -0.02745587 0.09900766 0.07538456 -0.120889105 -0.12967893 0.13088407
0.06544435 0.107665755 -0.029926805 -0.025040634 0.21099824 -0.02599617 0.05746072 -0.036234524
0.23903427 -0.059950944 0.096590534 0.11585484 0.113794215 0.19160281 -0.013894342 0.11862779
-0.1134919 0.06843634 0.023372428 -0.037494395 0.029754043 0.010227831 0.01264843 0.10911204
-0.07354091 -0.07161192 0.11359806 -0.037915513 0.1842307 0.14617783 -0.066424765 -0.14188339
0.05940014 -0.010565481 0.10684757 0.0877051 0.0052616796 0.14268139 -0.0031685692 -0.055452727
0.0627166 0.051824223 0.15321842 0.089394614 0.25279087 0.038747564 0.03863635 0.2929576
-0.103448585 0.12151113 0.118681565 0.09494275 0.17010744 0.03145945 -0.14895679 -0.030537166
-0.028898153 -0.041726425 0.47507256 0.07164183 0.08441232 0.015753007 0.33622923 0.15752308
-0.20884736 0.14669167 0.08425049 0.098508105 -0.048339866 0.042103704 -0.00024580237 0.24108127
0.089039326 -0.10064053 -0.058109395 0.0010417677 0.018564682 0.13550271 -0.0018227587 0.3397203
0.02116989 0.0012029185 -0.12705477 -0.0049051456 0.04459828 0.027214283 -0.16526681 -0.034958057
0.39642718 0.067483425 -0.04317923 0.087748155 0.18429844 0.19485195 -0.056813255 0.08132674
0.042517196 -0.031104365 0.14016223 0.1311452 0.09136203 -0.052813698 -0.12580416 0.11883676
0.086226106 -0.048528794 0.1383943 0.0013361359 0.10898857 0.18413457 0.0125849005 0.17134005
0.21164598 -0.11842137 0.04225293 0.13215901 0.00022687113 0.11704539 0.060367063 0.14316335
0.05640129 -0.0006671385 0.14941837 0.23632087 0.14709653 0.13142493 0.31198946 -0.007316574
-0.0014656049 0.15458605 0.10810072 -0.05363435 0.018962122 0.013033983 0.01614805 -0.08536351
-0.08635089 0.07756467 0.119192086 -0.14054133 -0.06655989 0.047763743 0.21537167 0.046843663
0.054828003 0.0030351456 0.15863259 0.123488106 -0.03773396 0.021352453 0.1985511 -0.16590063
0.29189578 0.113242835 0.24329959 -0.08813376 0.044416137 -0.078564964 -0.09492658 0.02075614

lstm.weight_hh_l0 f4 [512, 128]
00000000: 0225 af3c 7324 a13d 394e d8bd 2c60 cf3d
00000010: dff6 6e3e 5c8c 9d3d a63e c0bd 23a5 5d3e
00000020: d578 33be a25a 893d a940 04be 2010 913e
00000030: 7809 5c3e b7b4 32bd c99c 2bbe c60e 0abd
00000040: 5ee7 18bd 7b43 cdbc 70a7 97bc 6af0 c43d
00000050: 4283 613e 7258 933c ef84 cfbd e729 083d
00000060: 3ec5 0bbe 643e a0bd 8ebc 363e b5b3 3f3d
00000070: 8898 e5bd 31df 3a3d 41d4 26be e9ff 06be
00000080: f8ac 883c f05e 233e 1522 b73d 2c9a 4fbd
00000090: 771c cf3d 0894 973c 8f82 363e 5aa6 063e
000000a0: a05d 3e3d ca89 843e 3cf1 87bd 0c0b 0d3e
000000b0: cfcb fdbc 4824 3fbe 629e 483c 46ad 2f3e
000000c0: 844f 72be 411a b83d eff1 273d 96aa d53d
000000d0: 53cb 143e 973e e73d c30f 033d 7d1f adbc
000000e0: b96f aebc 1315 f0bd f90e 61bd bdef 6ebc
000000f0: d6b8 15bd 5b6e 053e 6e0a fabd 585e 083d
00000100: 8ed0 edbd 86e5 35bd f786 8abd 96fd 193d
00000110: 4fd7 febd 4f82 4f3d ac57 85bb a114 19be
00000120: 8aa8 8bbd 9670 eabd 6e37 4f3d 92b9 643c
00000130: 9479 a63d d4d1 cfbd 770a 923d 96ea bd3d
00000140: 0d58 12bd 61b4 363e f178 9d3d d17a e6bc
00000150: 8644 473e 773c 54bc ee4b 9c3d 8f35 623d
00000160: deca 23be a751 31be 6ea5 42be 884b 1cbe
00000170: 1625 703d 133f ce3d 5635 d5bb 32a9 12be
00000180: 9031 8fbc f976 86bd 4d16 3b3d 8ecf aa3b
00000190: 2492 4dbe 8d2a a03d 191f 2f3e ed26 84b9
000001a0: 3446 44be 23c6 963e 2191 a2bd 9b59 42be
000001b0: 4775 ce3c ff1a af3d 2a16 763e 7bf5 fb3d
000001c0: dc31 5ebc 150d cf3b fb21 df3a 9c58 23be
000001d0: d960 c6bd 6901 643e 7b6f d9bc 140f 76be
000001e0: 835c 4b3d 5ae1 d5bc 664a d23b a134 003e
000001f0: 816a a63c 53ad f13d ec64 a2bd d1b7 a73d
00000200: 87dd 92bd 5057 b0bd 18c1 553d ddbc c1bd
00000210: 7de0 f8bd b368 cdbd 1d52 7dbd 701f 05be
00000220: fa8f 9037 598a f7bd 60a4 d03d eeea 5fbd
00000230: bace 91bd 95de 543d edb9 433e 5654 ccbd
00000240: 28ef 13be fe96 b63a ee04 283d 6587 7fbc
00000250: 163f b9bd 2f26 84bd f226 c1bd a99e f43d
00000260: a174 ba3b 1f6e fe3d 0207 34bd 9b8c 59bd
00000270: feea a6bd da8f 05be 7409 db3d 4f64 93bd
00000280: 3780 3f3d 2acd d93c 5262 f6bb df63 e53d
00000290: eb7d 363d a466 7cbe a4b6 be3d 4076 08be
000002a0: b535 a03d b601 34bd 03af 88bd 2b14 733d
000002b0: aebb 3a3e 0747 d03c c13d bf3b fea4 12bd
000002c0: 7db6 f33c 2045 643d 79fb c73c ca73 b43d
000002d0: 3589 b43d d8e3 febd edfe 993b 6e0b 94bb
000002e0: 7a4a 31bc 7da5 f9bc 2bad be3d 9429 8bbd
000002f0: 3852 6ebd 699e e6bd 5d36 d13d f066 bcbd
00000300: 86d4 82bd 2b62 85bc b9c9 b23d 7350 16be
00000310: 6262 2d3e 94f5 f9bd eea5 cd3d 7152 c8bd
00000320: ff23 e53c 3955 cf3c ab35 be3d efce 373d
00000330: 5cd3 e7bc b56e 473d e4c0 6ebe 4480 9dbd
00000340: e8ce 1fbd 8a33 29bd c883 b0bc 9f59 47bd
00000350: a719 26be 4124 5fbc 4763 02be 4796 48bc
00000360: b532 24bd 7323 03be 8504 7c3d facb 6b3d
00000370: 609f adbe fd44 93bd f88c ca3d e181 cd3c
00000380: 509c e5bc 587f 05be a0a5 113d 0189 18be
00000390: e78b 51bd 00af 37bd 0fee 26bd f4a0 bdbb
000003a0: 6fe7 a8bd 845d a2bd 1484 dbbc 8eaf 97bc
000003b0: c3bc 38be a86b ed3d 02c5 14bc 27cf 0fbd
000003c0: dfb2 343d 4910 943e faa1 80bc 3ef8 9f3c
000003d0: bf29 63bd 8f88 b93c 0215 acbd abf2 bebd
000003e0: d01b c53d 432b 133e 4692 a03d a42c 4bbd
000003f0: ece5 203e 2faa 4fbe 9bc2 e33d d807 3d3a
0.021379951 0.0786828 -0.10561795 0.10125765 0.23336361 0.07692787 -0.09386949 0.21645026
-0.17526563 0.0670674 -0.12915291 0.28332615 0.21487987 -0.043629374 -0.16759028 -0.033705495
-0.037330024 -0.025056591 -0.018512458 0.09616168 0.22022727 0.01798651 -0.10132777 0.033243086
-0.1364946 -0.078244 0.17845365 0.04680224 -0.11210734 0.04562301 -0.16291906 -0.1318356
0.01668404 0.15954185 0.089420475 -0.05068414 0.10112851 0.018503204 0.17823242 0.13149396
0.046476007 0.25886375 -0.06637809 0.13773745 -0.030980973 -0.18666184 0.012244793 0.17155942
-0.23663145 0.089893825 0.04100221 0.10432927 0.14530687 0.11291235 0.031997453 -0.021133179
-0.021293508 -0.117227696 -0.05494592 -0.014583525 -0.036553226 0.13030379 -0.122090206 0.0332931
-0.11612044 -0.044408344 -0.06764024 0.037595354 -0.124434106 0.05066138 -0.004069289 -0.14949276
-0.06819256 -0.11447255 0.05058997 0.013960259 0.08128658 -0.101474434 0.07130902 0.09273259
-0.035728503 0.17842247 0.07689083 -0.028134735 0.19459733 -0.012953869 0.0763167 0.05522686
-0.15995356 -0.17316304 -0.19008419 -0.15263188 0.058629118 0.10070624 -0.0065066023 -0.14322355
-0.017479688 -0.06565661 0.045675565 0.0052127307 -0.2007528 0.07820616 0.17101707 -0.00025206004
-0.19167405 0.2944804 -0.079378374 -0.18979494 0.025202407 0.08550071 0.24031892 0.12302681
-0.013561692 0.006318698 0.0017023677 -0.1595177 -0.09686441 0.22266163 -0.026542416 -0.2402919
0.049648773 -0.026108433 0.0064175604 0.12520076 0.020314457 0.11800637 -0.079294056 0.08189357
-0.07171159 -0.086104035 0.0521861 -0.09459851 -0.12152193 -0.100297354 -0.061845887 -0.13000274
1.7233182e-05 -0.120869346 0.10187602 -0.054667406 -0.07119508 0.051970083 0.19113894 -0.09977023
-0.144467 0.0013930497 0.041020326 -0.015596245 -0.09045236 -0.064525954 -0.09431256 0.119443245
0.005690173 0.12423348 -0.043951996 -0.053112607 -0.0815029 -0.13043156 0.106951624 -0.07196867
0.046753135 0.026587088 -0.007519045 0.112006895 0.04455368 -0.2464853 0.0931218 -0.13326359
0.07822744 -0.043946944 -0.06674006 0.059345406 0.18235657 0.025424493 0.005836219 -0.03580188
0.029750103 0.055729985 0.024411904 0.088111475 0.08815233 -0.124458015 0.004699579 -0.004517964
-0.010820979 -0.030474419 0.09310373 -0.0679504 -0.05818388 -0.11260683 0.10215447 -0.09199321
-0.06388192 -0.016282162 0.08729882 -0.14679126 0.16932061 -0.122050434 0.10041414 -0.097813495
0.027971266 0.025309192 0.0928758 0.04487508 -0.028299026 0.048689563 -0.2331577 -0.0769048
-0.03901568 -0.041308917 -0.021547213 -0.048669454 -0.16220723 -0.013619483 -0.12733184 -0.01224286
-0.04008742 -0.12806492 0.061527748 0.057567574 -0.33910656 -0.07190893 0.09890169 0.025086345
-0.028028637 -0.13036859 0.035558343 -0.14896013 -0.051158812 -0.044844627 -0.040754374 -0.0057870094
-0.082472675 -0.07927993 -0.026796378 -0.018516328 -0.18040757 0.115927994 -0.009080173 -0.035109665
0.044115897 0.28918675 -0.015702236 0.01952755 -0.055459734 0.022648124 -0.084024444 -0.09323629
0.096244454 0.14371972 0.078403994 -0.04960312 0.15712708 -0.20279764 0.111211024 0.00072109466

lstm.bias_ih_l0 f4 [512]
00000000: 1ae4 8a3d 7911 813d 4ade 093e d19a c4bc
00000010: 5ecd 823d 7c2a b03d 13af a63d 16cb d23d
00000020: 150f 613d 3860 2cbd 2406 ff3d 5029 0bbd
00000030: 26eb fb3d fd26 56bd ec22 26bc d507 9fbd
00000040: cbd8 bd3d a5ff 523e 81ac 4b3d 8adb e53d
00000050: 1edf b73d 023f 7c3d 7ecb 9f3d f643 ab3c
00000060: 52ab ff3d 3da8 86bd df53 ef3d b2f0 1a3e
00000070: 52ae 1c3e 10ef e93b e392 c03c 9790 163d
00000080: bb8a 8f3d 3840 113e 2318 3e3e 2d84 1f3e
00000090: 31d7 a83c 7359 003e 9be0 213e 5d42 cbbb
000000a0: 8abf 61bd 7b19 383d 6937 a53d d83e e73d
000000b0: 21c3 b83c 750a 5db9 74e7 67bc 4b4b 8e3d
000000c0: 4642 843d a110 093e f13c c23d a892 33bd
000000d0: 89f1 da3d 1e60 31bd 80b0 873d bb89 2d3e
000000e0: 19de fd3d 85e9 8bbc 4299 033e 79c1 a53d
000000f0: 11aa 9d3d 38b7 d6bc 8fc2 a0bd 3696 a1bc
00000100: fe20 0d3e 8980 633e ab95 203d 12a1 c53c
00000110: a649 863d e945 5d3d 3079 973d b11f 6b3e
00000120: 844c 963d 127c 173d b4e0 303e 2e7c c73d
00000130: ee86 0c3e a060 cc3c 4ecc 2f3c e719 eabb
00000140: f79a 693e 2740 243e c12a 173e ef6e dabb
00000150: 898b 72bd 1fba cd3d 6b80 a93c 2aa0 b33d
00000160: 9858 17bd 092a 963c 2c64 b43d ca6b 66bc
00000170: 2c00 76bc c19b c13d 8185 0b3e baba 1b3e
00000180: ab65 3bbd bef5 2e3d 6a17 363e 7663 0b3e
00000190: 5ed2 073e 6851 a13d 8a5d 423d 88af 373d
000001a0: bd36 aebc 9872 013e f22f 41bd 1090 e83d
000001b0: 1a15 3a3e 3ded 13bd 9917 65bb ac7c 543e
000001c0: 9a34 c23d 64b6 66bd 85d6 1e3e b11f 393e
000001d0: 156c 0c3e 4308 c43c 5b63 dbbc 03a7 9d3d
000001e0: 1939 a13d 5597 303d 7795 463e d21f 2f3e
000001f0: 4b84 243d a431 22bc 0181 9d3c e4b0 413e
00000200: 55a9 09bd 01f8 babc 1e0a 843c 9c1b 84bd
00000210: 51b9 023d 09c9 80bd d956 733c b028 15be
00000220: e79c d3bd 3d07 10bc 0050 293c 4adf 87bd
00000230: 4808 29bc 9a56 1d3d b375 9ebd 33fe f5bd
00000240: f8b3 d4bd bed3 903d d8b8 73bc 83c4 84bd
00000250: e9fd ef3d 9ceb d2bd fed1 a33c fbd0 92bd
00000260: 0211 4dbc c4f1 92bd 3953 92bd a2fe bf3c
00000270: 9a6d 1a3d 5f67 303d 7e84 a8bd 9c39 ef3b
00000280: fc5d 7ebd 2adb cdbd a121 ebbd 231b b63c
00000290: fb26 1f3d a14e 5b3d fdff 08bd e8bd c0bd
000002a0: b664 94bd 0519 353d 0baf ddbd df35 38bc
000002b0: 81f8 8ebd 655a 4cbd 0b5f 92bc e81e b5bd
000002c0: 81c0 13bb d49c 18be d7f7 873c 93c5 4f3d
000002d0: 5bf9 11bd 93f7 093c de5c a0bd cc62 5e3b
000002e0: f747 af3c 9424 48bd f61d eabb f8f6 d63a
000002f0: 2035 32be f186 16bd 83f2 85bc fd97 ea3b
00000300: d453 383c c348 cdbd fcb8 eebb 0530 833c
00000310: ecb4 38bd 1a08 91bd 62e0 453d 830a 193c
00000320: 8f3f 983d edf7 a4bd bea8 8f3c 58ff 80bd
00000330: 1287 cabd 18b5 893a da37 e5bd d5ac 99bc
00000340: e88c 473d ceea efbd 81ae fbbd 6a06 933d
00000350: 7f38 043d 75d4 aabd a82b 6cbc 5a1a 38be
00000360: 719b 54bd 6911 863c 0139 96bd ea33 26be
00000370: f382 05bd cf74 15bd c493 acbc adf1 a3bd
00000380: 5dca dbbd 5aab bbbd 81a5 4dbb 8b8f b03d
00000390: f165 25be ac65 12bb a93d 70bd 766e 0abe
000003a0: 6f17 60bb 3b94 b83c e03b 69bb 5506 d2bd
000003b0: 905b b0bd f1b8 0f3b dde6 7dbd 778b 35bd
000003c0: 66a3 55bc 8d90 7f3d 0345 ebbd 8c33 2ebc
000003d0: d9dc 24bc daa5 f1bd 9431 8cbd 54cf 9fbd
000003e0: ea75 5ebd 4c5d 63bc 010f cdbc 3d63 9bbd
000003f0: 8115 e5bc e893 38bc 201e 98bd 44f4 24bc
0.06781788 0.06302161 0.13463703 -0.023999603 0.06386827 0.08601853 0.081388615 0.10292642
0.054946024 -0.04208395 0.12452343 -0.033974946 0.123007104 -0.052283276 -0.010140162 -0.07765166
0.092698656 0.20605333 0.04972506 0.112235144 0.08978103 0.061583526 0.07802485 0.02090643
0.12483849 -0.06575058 0.11685919 0.1513088 0.15300873 0.007139094 0.023507541 0.036758985
0.070088826 0.14184654 0.18563895 0.15577765 0.020610424 0.12534122 0.15808336 -0.0062029795
-0.055114307 0.044946175 0.08067209 0.11291283 0.022553982 -0.00021080098 -0.014154304 0.06947955
0.06457953 0.1338525 0.0948428 -0.043841034 0.106906004 -0.043304555 0.066254616 0.16947071
0.123958774 -0.017079124 0.12851432 0.080935426 0.07698453 -0.026210412 -0.07849609 -0.019724946
0.13782117 0.22217001 0.039205234 0.024124656 0.06557016 0.05402175 0.073961616 0.22961308
0.07338813 0.036983557 0.17273217 0.09740482 0.13723347 0.024948418 0.010729862 -0.007144201
0.2281302 0.16040097 0.14762403 -0.0066660563 -0.059215102 0.100452654 0.020691117 0.08770783
-0.036949724 0.01833059 0.08808169 -0.014063785 -0.015014689 0.09453536 0.13625146 0.1520795
-0.045751255 0.042714827 0.1778237 0.1361216 0.13263842 0.07876855 0.047452487 0.044845134
-0.021266336 0.1264137 -0.047164865 0.11355603 0.18172112 -0.03611492 -0.0034956692 0.20750684
0.09482689 -0.056326285 0.1551152 0.18078496 0.13713105 0.02392972 -0.026780775 0.076978706
0.07872219 0.04311307 0.19392954 0.17101982 0.040165227 -0.009899531 0.019226553 0.18915135
-0.033608753 -0.022823336 0.016118106 -0.064505786 0.031915013 -0.062883444 0.014852249 -0.14566302
-0.10332661 -0.008790788 0.010334015 -0.06634386 -0.010316916 0.038412668 -0.07737293 -0.12011375
-0.10385889 0.070716366 -0.014875613 -0.06482794 0.117183514 -0.10298845 0.019997593 -0.07168766
-0.012516262 -0.071750194 -0.0714478 0.023436848 0.03770218 0.043067332 -0.08228396 0.0073005687
-0.06210135 -0.10051568 -0.114810236 0.022229737 0.038855534 0.053541783 -0.033447254 -0.09411222
-0.072457716 0.044213314 -0.108244024 -0.011243313 -0.06980992 -0.049890894 -0.017867586 -0.088437855
-0.0022545161 -0.14903575 0.016597671 0.05072553 -0.035638195 0.008420843 -0.07830213 0.00339334
0.02139662 -0.04886301 -0.007144685 0.0016400507 -0.17403078 -0.036749784 -0.01635099 0.0071592317
0.011250455 -0.10023644 -0.0072852354 0.016014108 -0.045094416 -0.070816234 0.04830969 0.009340885
0.07433998 -0.080551006 0.017536517 -0.06298703 -0.09889044 0.0010506241 -0.111922935 -0.01875917
0.048718363 -0.11714707 -0.12289143 0.07178958 0.03228044 -0.08341304 -0.014414705 -0.17978802
-0.051906053 0.016365724 -0.073350914 -0.16230741 -0.032595586 -0.03648835 -0.021066554 -0.0800508
-0.10731957 -0.09163542 -0.0031379166 0.08621129 -0.16152169 -0.0022338433 -0.058652554 -0.135187
-0.0034193655 0.02253162 -0.0035588667 -0.10255114 -0.08611214 0.0021930302 -0.061987747 -0.044322457
-0.0130394455 0.062393714 -0.11487772 -0.010632407 -0.01006242 -0.11799212 -0.06845394 -0.078032166
-0.05431167 -0.013877224 -0.025031568 -0.075872876 -0.027964355 -0.011265732 -0.07427621 -0.010068003

lstm.bias_hh_l0 f4 [512]
00000000: bd92 a23c fce1 943d a9be f93d c70d 523d
00000010: 0142 b53d e5d7 a2bb b332 59bd 73ab d23c
00000020: ab22 073e aca1 07bd ce3d e9bb db6e 723d
00000030: 6798 0c3e 142b 71bc 99a1 f33d 4f87 a8bc
00000040: 0251 963c 0c77 243e 0f3b 633d bd38 223d
00000050: 7060 b5bb 2c5f 003e dca8 d23d a1a6 223e
00000060: 89d3 4e3e 44a0 0c3d 2ae7 cf3c b462 e33c
00000070: ad4f 533e 6650 32bd edbd 9d3d d386 073d
00000080: 9d89 b83d 25f3 de3d 0a28 ef3d dc1a 1a3e
00000090: 0d0e 9f3c 29cb 743d 68db 253e c5a6 323d
000000a0: b331 a43c 055d 803d 8f3c 2a3d 637c e53c
000000b0: f597 db3d f286 8a3d b2dc 8d3d 3f2e 3c3e
000000c0: f309 2c3d 83f7 4e3e 2644 cfbc a927 10bd
000000d0: 15fc 183e 379b 55bd f077 e53b 6af3 223e
000000e0: ad4a 2d3e 8118 193d da54 6e3e 5e64 633d
000000f0: 8d5e f73d a55f 05bd 073c a5bd 7c0b 03bd
00000100: c35b 3c3d 08aa bc3d b6f1 343d dd5f e53b
00000110: 38ac 01bd 4163 ca3d b06b 1cbd f7ac b03e
00000120: 1cdc c63d 4c53 d33d 2723 a13c a708 21bd
00000130: c2ad 5fbc ae88 fd3d 5834 ff3c b31b 103e
00000140: 252e c73d e0e5 ad3d 8541 ca3c ec4b e8bc
00000150: 4bf6 45bd 20bc 5bbc f728 0b3e 66b2 4c3d
00000160: e1cb 8abd 5f83 bbb9 b5f7 d63c 4082 f13d
00000170: b00a 823d 25be 983d 3ac7 013e 277f 6a3e
00000180: 0624 243d e8af 283e 3cbd 303e 635d da3d
00000190: 9112 d73d 8f0e d2ba 0594 0d3d f892 b43d
000001a0: 796c f83d 523a c0bc 04b4 33bd 7cd7 45bc
000001b0: 7c69 733d 4d2e 6cbd 2111 3ebd 77b3 243e
000001c0: 33a0 e13b 718a 8d3d 33a9 b03d 4c07 1b3e
000001d0: d893 023e 23a2 adbd c2a8 69bc 5fe1 1dbd
000001e0: f5bb 0c3d d275 12bd 1384 5b3e 2676 393e
000001f0: 0331 88bc ebd1 a73d 31ee 093e 3dd8 ef3d
00000200: b33e 0c3c 763f adbd 455d 8b3c f6b3 7fbd
00000210: ade0 bd3c 5e69 eebb d568 6bbd 5cfb f0bd
00000220: 8af7 4ebd 26f9 efbc de5f 4cbd 114e b63c
00000230: b601 42bd 6361 663d 9350 54bd 22a5 fbbd
00000240: b557 643d dde0 6fbb 6d42 cd3c 374e f5bd
00000250: a499 a43c 3b3e 9abd 0412 02be 6fe6 05be
00000260: b48b 08be 6288 513d 77c2 a9bd a0ba 80bc
00000270: 1aed 99bd bb94 263c dd97 8ebd fefd 15be
00000280: 0949 90bd bf1d 43bd f08f c7bd 9b2b b3bc
00000290: c6e9 2dbd 642e b2bd 8fb3 62bd 1117 0c3d
000002a0: 5902 c5bd ddab 77bd 0b9f 8dbd b9cb 323d
000002b0: d3a0 6bbc b9b6 4dbd 22fd d3bd 44ea 803d
000002c0: a1e2 afbc 3c38 bbbd 43e8 9abd 3a75 f23b
000002d0: e38e d4bd 0d05 77bd 1c83 afbd 05d0 6ebb
000002e0: 4205 babd 9864 8fbd 4426 92bd 050b 80bd
000002f0: e658 19be 9d75 0abd c462 b33d e178 11be
00000300: fa0d 16bd 4a9d ad3b 56ff 033e 81af 82bd
00000310: 623c 863d fbb3 06be 7cce fe3c 9d9d 4f3d
00000320: b55c 4e3c f2f0 20bd 7cf7 873d d33e a6bd
00000330: 7455 dabd b6c3 fdbc ce0d ab3c 20e1 bb3d
00000340: 3df0 08bd 3aa4 cfbd 76f8 20be d0be 68bd
00000350: daa8 833d 9b5d 22bb ecce ef3c 74bc 42be
00000360: 2fd6 0dbe 07e4 283d 0be3 ffbd e0a2 fbbc
00000370: 02c9 303d 3e0f d8bc 8ae3 2e3d 1c85 bcbc
00000380: 1efc e4bd 91dc d9bc 5531 f8bd ee2e 2b3c
00000390: ec7e 9abd cc8d 92bd 327c 46bd 2ff9 04be
000003a0: 98a6 08be 522f e9ba 1a10 81bd c8e6 94bd
000003b0: db97 a83c 77d0 ddbd a70c 8a3c f385 9ebc
000003c0: 952d 40bd 6af0 2b3d 6315 34bd c951 7cbd
000003d0: f79e febc d9f1 573c 26c9 a23d 429b b9bc
000003e0: d4c8 cbbd 71dd f33d cb5f dabd ff1c 7dbd
000003f0: c3b1 ce3d 036d e8bc 69f1 d2bd 1462 c5bd
0.01984536 0.072696656 0.12194569 0.05128267 0.0885048 -0.0049695843 -0.053026866 0.025716519
0.13196819 -0.033113167 -0.0071179634 0.05918775 0.13730012 -0.014719743 0.11896057 -0.020572333
0.018349174 0.16061038 0.055476245 0.03960489 -0.005535178 0.12536305 0.102861136 0.15883876
0.20197882 0.03433253 0.025378782 0.027757026 0.20635863 -0.043533705 0.07702241 0.033087563
0.09010623 0.1088622 0.11677559 0.15049309 0.01941588 0.05976406 0.16196978 0.043616075
0.02004323 0.06267742 0.04156166 0.028013414 0.10722343 0.0676402 0.0692686 0.18377016
0.042001676 0.20211606 -0.02530105 -0.035194073 0.14939912 -0.052149978 0.007002823 0.15913168
0.16923018 0.037376884 0.23274556 0.05551564 0.12078581 -0.032561917 -0.0806809 -0.031993374
0.04598595 0.092121184 0.044175826 0.006999953 -0.03165838 0.098822124 -0.038188636 0.34506962
0.09709951 0.10318622 0.019670082 -0.039314892 -0.013652267 0.12379585 0.03115289 0.14073066
0.09725598 0.08491111 0.024689445 -0.028356515 -0.048330586 -0.013411552 0.13589846 0.04997482
-0.06777168 -0.00035765299 0.026241163 0.11792421 0.06349695 0.07458142 0.12673655 0.22900067
0.040073417 0.16473353 0.17259687 0.10662343 0.10501588 -0.0016026067 0.03456499 0.088170946
0.121300645 -0.02346531 -0.04387285 -0.012075301 0.05942677 -0.057661343 -0.046403054 0.16084085
0.0068855523 0.06911171 0.08626022 0.15139502 0.1275171 -0.08478191 -0.014261426 -0.03854501
0.034358937 -0.035756893 0.21437101 0.18111476 -0.016624933 0.081943356 0.13469769 0.11711166
0.0085598705 -0.0845937 0.017012248 -0.062427483 0.023178423 -0.0072757443 -0.057473022 -0.11766693
-0.05052904 -0.029293608 -0.049896114 0.022254022 -0.047364913 0.05624522 -0.051834654 -0.12287356
0.055747706 -0.0036602535 0.025056088 -0.11977809 0.020092793 -0.07531401 -0.12702185 -0.13076185
-0.13334543 0.051155455 -0.08289044 -0.01571399 -0.07515927 0.010167296 -0.06962559 -0.14647672
-0.0704518 -0.04763579 -0.09744251 -0.021871379 -0.04245927 -0.087002546 -0.05534702 0.034201685
-0.096195884 -0.060466636 -0.06915101 0.043651316 -0.014381605 -0.050223086 -0.103510156 0.062946826
-0.02147037 -0.09141585 -0.07563832 0.0073992284 -0.10378816 -0.06030755 -0.08569929 -0.0036439907
-0.09083034 -0.070016086 -0.07136205 -0.06252102 -0.14975318 -0.03380357 0.087590724 -0.14206268
-0.036634423 0.0052982913 0.12890372 -0.06381131 0.06554486 -0.13154595 0.031104319 0.05068742
0.012595345 -0.039292283 0.06639001 -0.081174515 -0.1066083 -0.030977111 0.020880606 0.091737986
-0.033432234 -0.101387456 -0.1571978 -0.056822598 0.0642869 -0.0024775031 0.029273473 -0.19017202
-0.13851236 0.04123309 -0.12494477 -0.030717313 0.043160446 -0.026374456 0.042697467 -0.02301269
-0.111809 -0.026594432 -0.12118784 0.010448201 -0.0754374 -0.07155952 -0.048458286 -0.12985681
-0.133448 -0.0017790592 -0.06301899 -0.072705805 0.020580223 -0.10830777 0.016851736 -0.019350981
-0.04691847 0.041977324 -0.04396571 -0.061601434 -0.03108166 0.01318022 0.07948522 -0.02265704
-0.09950414 0.11907471 -0.10662802 -0.06179523 0.10092499 -0.028372293 -0.102999516 -0.096378475

fc2.weight f4 [256, 128]
00000000: 1404 3bbd 734f 183e 629c dc3d f206 463c
00000010: 4250 24bc 00e1 50bd 7f94 a7bc c8bd a33d
00000020: 9a45 95bd 7718 b6bd 419d bdbc 7021 e03c
00000030: f7aa 75bd 668e 553d ddfc 943d ad42 0c3e
00000040: 7f27 2a3c a310 ef3d bdf4 ac3d 9aee 1c3e
00000050: 95dd 523d e448 42bc 489e 4d3d 112d 34be
00000060: 6fc3 90be 9d34 8a3e 91d3 e03d abd2 11bd
00000070: 5f0f dcbd 8842 ab3c a6d1 88bd be29 013e
00000080: eeb0 09be 8b90 2e3c ddc9 a23d 1f81 bbbd
00000090: d23b 813c 81d6 2a3d 7fab 0fbe a297 e53c
000000a0: 6ea8 463d e253 8d3c 5a9b 01be 7ee6 223d
000000b0: 511d 0b3e eb7e c43d ed96 a2bd 386d c9bd
000000c0: 6be3 563d 3a42 1e3e cdeb d13c f0c6 bfbd
000000d0: 80dd 43bd f074 01bd e9bd f83b 42ed 03bc
000000e0: 2dc7 92bd 3bb0 33be 65e7 92bd a4ce 20bd
000000f0: 4440 66bd 4c18 03be ab01 293e baef 41bd
00000100: b66d a63c 7468 2a3e 0769 2d3b e749 f8bd
00000110: d23d e2bd b699 3d3e d998 4b3d 78d6 89bd
00000120: 7810 39bd 70d5 203d 6720 3e3e 0cbf 4fbe
00000130: 8330 b9bd ecee 103e 0a33 98bd 29e8 95bd
00000140: 2874 85bd 3300 da3d 2ae3 95bd b025 00bb
00000150: 1b73 f1bc 1738 c33d 9feb a33c 120b 7d3c
00000160: 3ccb 0c3e a579 f23d 6782 503e af2c 783d
00000170: 37c7 3bbc 5974 243d 5ffd e53d a38a 21bc
00000180: 3674 bbbd d5e5 ddbc 62b1 54bc bfb3 8bbd
00000190: 3eb6 133d 7a38 2abd 751d a5bd 62da ad3d
000001a0: 298d b63d a8e1 ca3d 0826 5fbe 084d db3d
000001b0: d4ee ed3d 9151 c03d f411 36be 1c80 1ebe
000001c0: f3ae 14bd fe34 16bd da04 cc3c 52d1 e03d
000001d0: 8569 e43c f6c5 58bd b326 633d ea8d d6bd
000001e0: 55dc 9bbd d173 0fbe 5ef1 02bd db99 c53d
000001f0: 60ef 4c3e 1749 b23d b064 f8bd 660d 4e3e
00000200: e6b2 7b3e 8eb9 a0bd 73d9 c2bd 2852 ccbc
00000210: 8008 66bd a85c 2b3d d477 283d 44f9 97bd
00000220: 6acd 87ba a2a0 d33c c69b ecbd 2c56 9fbd
00000230: d727 6f3e 7852 1bbe dffb 83bd 190c 343d
00000240: ba9f 11bd 729d c6bd 9acc dcbd 33db 7bbc
00000250: 12fc df3d 8225 353d 6036 b2bd 7c3c dd3c
00000260: 2df7 f1bc a9c3 55be d90c 51bd ade6 ebbc
00000270: 3132 a6bd 6f42 ccbd 12f9 ae3d 56f8 0bbd
00000280: 048e 4c3b fc05 e93d 77f7 b63b 5888 4b3c
00000290: 27b3 453d 140c 373d 8914 3a3c febf 503c
000002a0: 3690 0ebd 2b8e 8b3d c853 8c3d 06ab ac3c
000002b0: 3527 83be 3b86 c1be 34aa 393d baba abbe
000002c0: cf5c 36bd 2300 4c3d 1a29 9d3a afc4 c03d
000002d0: caf6 8b3d a050 2ebd 2cb8 91bd 62c9 b53d
000002e0: e804 d83d b345 013d b1e0 1abe 94f3 b93d
000002f0: 46ab 603e 1e8b 03be 0be4 cbbc d3a0 0e3e
00000300: 2c40 ddbb cc71 5c3d b30c f0bd 2777 cb3d
00000310: 3cdb 3d3d 082c 28be dee3 bcbd 7a3c cabd
00000320: 6eae c0bd e7bb e13d 3873 71bc 2d17 843a
00000330: dd33 64bd 79aa 3d3d bf87 a6bd 9757 dcbd
00000340: dcc5 1dbe e626 83bd a9e7 27bd 5ad5 a4bd
00000350: 471e b13d 82f2 13bd 2ab5 743c e848 cbb9
00000360: 7672 9dbd 8f5c c3bd e972 e9bd 63a5 6c3c
00000370: 5bc3 e03d b0d4 633d ac16 bcbd ddfb 7ebc
00000380: fb50 7dbc 5570 763c 233c 1dbd 31c0 5bbe
00000390: 56fc 8bbc 8a2b 9abd 463e ef3d ddbf cf3d
000003a0: fbe1 e83d e4a3 7abd 74bc 923d 8c65 e3bd
000003b0: 0a21 c8bd 9206 dc3d a81c b9bd dd83 883d
000003c0: e5bb 5bbd 1ae1 3cbe 19f2 2a3d 3b49 abbd
000003d0: 8629 76bd ce86 ec3c 097a ac3d 6326 a03b
000003e0: 0125 6f3d 70b9 8abc 61e1 5cbc b93b d73d
000003f0: e9c1 183e dd1d c33d 0dc5 8d3d 1b51 67be
-0.045658186 0.14874057 0.10772015 0.012086617 -0.010028901 -0.050995827 -0.02045655 0.07995182
-0.07288666 -0.08891385 -0.023146274 0.027359694 -0.059977498 0.052137755 0.07274792 0.1369731
0.010385393 0.11673095 0.084451176 0.15325394 0.05148085 -0.011858199 0.050199777 -0.17595316
-0.28274104 0.26993266 0.10977853 -0.0356013 -0.10745119 0.020905748 -0.06680612 0.1261358
-0.134464 0.010654579 0.079486586 -0.09155487 0.015775595 0.041708473 -0.14030264 0.028026406
0.04850047 0.017251913 -0.12656918 0.039770596 0.13585402 0.0959452 -0.07938943 -0.09835285
0.052462976 0.15454951 0.025625134 -0.09364116 -0.04781866 -0.03160566 0.0075909984 -0.008052172
-0.07166896 -0.17547695 -0.07173041 -0.039259568 -0.056213632 -0.12802237 0.16504543 -0.04734776
0.020315986 0.16641408 0.0026460306 -0.12123471 -0.110469475 0.18515667 0.049706314 -0.0673036
-0.04518172 0.03926605 0.18567048 -0.20287722 -0.09042456 0.14153641 -0.0743161 -0.07319672
-0.06516296 0.10644569 -0.07318719 -0.0019553714 -0.029473832 0.09532183 0.020009814 0.015444534
0.13749403 0.11839608 0.20362245 0.06058949 -0.011461071 0.04015002 0.11229967 -0.009859714
-0.09153025 -0.027087132 -0.0129817445 -0.06821393 0.03606247 -0.041557766 -0.08062259 0.08488919
0.08913643 0.09906322 -0.21791852 0.10708052 0.116178185 0.093905576 -0.17780286 -0.15478557
-0.036299657 -0.03667163 0.024904657 0.10977425 0.027882347 -0.052923165 0.05545683 -0.10476287
-0.076103844 -0.14009024 -0.031968467 0.09648486 0.2001319 0.08705347 -0.121285796 0.20122299
0.24579963 -0.07847892 -0.095141314 -0.024941519 -0.05616045 0.04183641 0.041129902 -0.074205905
-0.0010360901 0.025833432 -0.11553149 -0.07780108 0.23355041 -0.15168178 -0.06444525 0.04395685
-0.035552718 -0.09697999 -0.10781212 -0.015372085 0.109367505 0.044225223 -0.087017775 0.02700638
-0.029536808 -0.2087542 -0.051037643 -0.028796518 -0.08115042 -0.09973609 0.085436 -0.03417238
0.0031212578 0.113780946 0.0055836993 0.012422644 0.048266556 0.044689253 0.011357435 0.012741087
-0.0348055 0.06814226 0.068519175 0.021077644 -0.2561585 -0.37797722 0.045328334 -0.335409
-0.044522103 0.049804818 0.0011990399 0.094125144 0.06834181 -0.04255736 -0.07115206 0.08876301
0.10547811 0.03156061 -0.15124775 0.09079662 0.21940336 -0.12846038 -0.024889013 0.13928537
-0.0067520346 0.053819463 -0.11721172 0.09934836 0.046351656 -0.16423047 -0.0922315 -0.09874816
-0.0940827 0.11022168 -0.014736943 0.0010077708 -0.055713523 0.046305154 -0.0813136 -0.10758894
-0.15407509 -0.06403904 -0.040992413 -0.08048506 0.08648353 -0.036119945 0.014935771 -0.00038773497
-0.07687847 -0.095391385 -0.113988705 0.014443728 0.10974761 0.055622756 -0.09184012 -0.015562979
-0.015461202 0.0150414305 -0.03838743 -0.21460034 -0.017088097 -0.07527836 0.116817996 0.10144017
0.11371227 -0.061191455 0.07164851 -0.11103353 -0.09771927 0.10743441 -0.09038669 0.06665776
-0.053645987 -0.18445244 0.04173479 -0.08363577 -0.060098194 0.028872874 0.08421714 0.0048873886
0.0583849 -0.016934127 -0.013481469 0.10509438 0.14917721 0.0952718 0.0692235 -0.22589533

fc2.bias f4 [256]
00000000: 8d7d 1e3c 972e c5bd a56d 2f3d 3bdf d13c
00000010: 215e ea3d e934 82bc 0c18 b0bd 5ad2 77bc
00000020: effe a5bc 31a5 7fbc 5302 06be 178c 953d
00000030: 27ef 813c 9d3e 61bd 1bc6 093d 0066 7dbd
00000040: 1669 f1bc 8b85 1f3d 5f2f 8abd fbe6 1fbd
00000050: 3aba aabc 90a4 cdbd a4bf e53c 95bd 94bd
00000060: 6266 abbd 9c27 6bbd 2bb7 6a3c f266 8cbc
00000070: 970b 34bd c589 b9bb d0ed 423d f17e 85bd
00000080: 9264 213c 1216 c0bd 68a7 f7bc 9be3 613c
00000090: db4c aebb e8b9 733d 01e1 183d 4d4a 333d
000000a0: 327e 033d db2b d6bc e538 0d3d 382b 0dbd
000000b0: 478d 803c b192 8fbc 452d 21bc f75a 28bc
000000c0: 5d2c febc 92ca a7bd d3d2 493d ab6a df3b
000000d0: 2092 78bc 18d1 0bbd 1294 653d 3dc9 98bd
000000e0: aa8e 5a3d f51e adbc bfb4 96bd 1ccd c6bd
000000f0: b48d e23d 70d7 a0bc 21d8 8739 4103 2abc
00000100: 49b8 83bd ac5c b4bd 0540 023c 336a 403d
00000110: 6dc1 03bd 783e 7bbd 5030 d6bc b5cf 05be
00000120: 4c69 86ba 160b 33bd 3fa5 8a3d dec4 9b3d
00000130: e5bf cebb 69c8 acbc 7899 90bd d234 8f3d
00000140: d843 993c da3d 0d3d dc32 14bd 1059 723b
00000150: dd95 a53c c523 ab3c 9dc5 01be 36e5 c53d
00000160: 645b d33d c778 e73d 2f28 3ebb cba8 7f3d
00000170: 68b9 10be 8bec 5f3d 4ac7 1c3d 21f0 413d
00000180: 5137 adbb 7164 b5bd bfd0 9fbd 01c8 f0bd
00000190: 62a6 7fbc 2139 06bd 7be0 cbbd 1fa1 893d
000001a0: c95a 2bbd d00c 4d3d 7207 e13d fc09 c23c
000001b0: ff14 b5bd 2fb9 8fbd 96a1 813d 9538 c33c
000001c0: 638f 6abd 32c6 6ebd a5f2 9b3d 4c8f b83b
000001d0: 59c1 18be f950 e53c 93a4 b83c c61a d5bd
000001e0: 8bff b9bd 8b7b 90bc 94a5 65bd 91bb 4bbd
000001f0: b713 bbbc 00cc 883d 4dbd a23d cb6a 96bd
00000200: 5d1f d2bd ed5b 3abb 6ac8 9a3c f6fa abbc
00000210: da5b 063d 7487 63bc a5ce 6ebd c049 d53d
00000220: f2c5 363a b462 8dbd 0e8b 4bbd 0e97 ecbc
00000230: de2b f23c 1e03 b43d e9e5 a9bc f44e 953c
00000240: b042 a33d eb7f 8abc bbeb 1cbd 2ee8 99bd
00000250: a5ea d7bd 1134 963d 16f6 03be 27d5 b5bb
00000260: a8b6 bcbd 374b 713d db08 53ba 91c1 93bd
00000270: ca36 6dbd ac97 4bbd a8c4 d23d 589d c73c
00000280: 905d 11bd 59c6 9fbc 018b 08be fbf9 e5bc
00000290: 7fd9 93bc 22b8 3d3c 8faf 973d 574a 24bc
000002a0: 2441 ea3c bd90 ad3a 38da e6bd b661 ea3c
000002b0: b3fa 61bc 8deb cfbd fbf4 99bd b381 79bd
000002c0: 1758 02bd 7f61 d33b 9d01 80bd 1089 83bd
000002d0: 3393 21bd 1c33 913d 109d d3bc 3959 5cbd
000002e0: 4992 f13c 0590 97bd fafc 163d 55f9 ec3c
000002f0: 37e9 843c 4cca 95bc f02f 573d 7cab 77bd
00000300: d902 00bd d16a 22bd b141 71bd 10bb 3a3d
00000310: e6b6 d2bc 33ba 263d e142 dd3c 67d5 53bd
00000320: 24f6 8a3d 28fc 073d 3a61 c9bc 495d 25bd
00000330: b07c 79bd 4d03 a9bc 2eae 573d 85ea 5fbd
00000340: ca45 e83b 7207 d53c 4c0b 9c3d 0ce2 d4bc
00000350: fe37 b7bd f734 533c 4c2a 4abc c57d 2bbd
00000360: 5187 83bd 7a69 aa3b f2ac 373d 21bf 973d
00000370: f1d7 5e3d 40fc 593d ff95 a1bd f617 a63d
00000380: 5171 c93d 2d09 f5bc 4d5a ef3c 1c71 7cbd
00000390: 9aee 523c 440c 0e3d 8380 db3c 3ec2 aa3d
000003a0: d7c7 e3b9 9df7 f1bd e6cc 4bbc 0b3f 95bb
000003b0: d3a6 c9bd 3bde c2bb 4f8c a53c 674c 25bd
000003c0: 5558 7cbd d9d5 afbd b89c 6c3d e45f 49bd
000003d0: 2bbb 9ebd bc40 bebb c544 2ebd 3ed6 95ba
000003e0: 8fa9 9a3d 9210 253d 345f 843d 74be 2bbc
000003f0: 5914 183c c903 6bbc 3edc a2bd a38d c8bd
0.009673488 -0.09628027 0.042829175 0.02561914 0.11443735 -0.01589437 -0.085983366 -0.015125835
-0.020263163 -0.01560335 -0.13086824 0.07302111 0.015861107 -0.054991353 0.033636194 -0.061864853
-0.029469054 0.038945716 -0.067473166 -0.03903864 -0.020840753 -0.100411534 0.028045483 -0.072627224
-0.08369137 -0.05741082 0.014325897 -0.017138932 -0.043956365 -0.0056621754 0.047590077 -0.06518353
0.009850638 -0.093792096 -0.030231193 0.0137871755 -0.0053192205 0.059503466 0.037323955 0.04377203
0.03210277 -0.026143959 0.034478087 -0.034465045 0.015692366 -0.017526003 -0.009837453 -0.010275594
-0.031027013 -0.08192934 0.049273323 0.0068181357 -0.015171558 -0.034134954 0.056049414 -0.07460258
0.05335871 -0.021132926 -0.07358693 -0.0970709 0.11062184 -0.019633979 0.00025910235 -0.010376752
-0.06431634 -0.08806738 0.007949834 0.04697628 -0.032166887 -0.06133887 -0.026146084 -0.13067515
-0.001025477 -0.043711744 0.067697994 0.07605909 -0.0063094967 -0.021091657 -0.07060522 0.069924966
0.018709108 0.034482814 -0.036181316 0.0036979355 0.020213062 0.02089108 -0.1267304 0.09662859
0.10320166 0.11302333 -0.002901565 0.062416833 -0.14133227 0.054668944 0.038275994 0.047348145
-0.0052861352 -0.08857048 -0.07803487 -0.11756898 -0.015603634 -0.032769326 -0.099549256 0.067201845
-0.041834626 0.050061047 0.10987748 0.023686402 -0.08841895 -0.07017743 0.06329648 0.023830691
-0.05726565 -0.058294483 0.0761464 0.0056323167 -0.14917506 0.027992712 0.022539413 -0.10405497
-0.09081944 -0.017637035 -0.05606611 -0.049739424 -0.02283655 0.06679535 0.079462625 -0.07344588
-0.10259888 -0.002843614 0.018894393 -0.020993691 0.03280244 -0.013887275 -0.05830254 0.10414457
0.0006972245 -0.06903592 -0.04969316 -0.028880622 0.029561933 0.08789657 -0.020739513 0.018226124
0.07971704 -0.0169067 -0.038310748 -0.07514988 -0.10542802 0.0733415 -0.12886843 -0.0055490914
-0.092145264 0.05890962 -0.0008050331 -0.07214654 -0.05791358 -0.049705192 0.102914155 0.02436702
-0.03548962 -0.01950376 -0.13334276 -0.028073302 -0.018048046 0.011579545 0.07406532 -0.01002749
0.028595515 0.0013241988 -0.11272091 0.028611045 -0.0137926815 -0.101523496 -0.075174294 -0.060914706
-0.03182229 0.0064508314 -0.06250308 -0.06422627 -0.03944702 0.070898265 -0.02583173 -0.053796027
0.0294887 -0.074005164 0.03686235 0.028927485 0.016224487 -0.01828494 0.05253595 -0.060466275
-0.031252716 -0.03965265 -0.05890054 0.045588553 -0.025721978 0.040704917 0.02700943 -0.05171719
0.06785229 0.03319946 -0.024582494 -0.040372167 -0.060909927 -0.020631457 0.052656345 -0.054667015
0.0070883976 0.026004527 0.07619342 -0.025986694 -0.089462265 0.012891046 -0.012339186 -0.04186799
-0.06422294 0.005200562 0.044842668 0.07409502 0.054405157 0.05321908 -0.078899376 0.08110039
0.098360665 -0.029911602 0.029217863 -0.061631307 0.01287427 0.034679666 0.026794678 0.0833783
-0.00043445706 -0.118148066 -0.012438988 -0.0045546344 -0.09846272 -0.005946902 0.020208506 -0.040356066
-0.061607677 -0.0858571 0.057766646 -0.049163714 -0.07750543 -0.005806057 -0.042546052 -0.0011431647
0.07551872 0.040299006 0.06463471 -0.010482419 0.009282195 -0.014344164 -0.07952164 -0.0979264
