rdpg/checkpoints/rdpg_traj_track/critic.pth (torch, 802991 bytes, 11 tensors)

fc1_state.weight f4 [128, 9]
000000 23 89 ac 3d c2 68 b3 3e 0f 78 3c 3e e3 b2 09 bc
       0.08424594 0.3504086 0.18405174 -0.008404466
000010 0c f9 e2 bb 27 4c 43 3d 44 21 31 3e 1a d0 53 40
       -0.0069266614 0.047680046 0.17297846 3.3095765
000020 ba e3 9e 3e 7d ac b9 3c c9 f9 4f 3c a2 60 08 be
       0.31033117 0.022665257 0.012693831 -0.13318112
000030 34 b3 c1 3a 5b 5a 81 3c 75 c2 0f 3c 4c d4 c6 bd
       0.0014778138 0.015790155 0.0087743895 -0.09708461
000040 11 8e 8c 40 bb cf 12 3f bb 61 ba 3e 9b 3f 3f bf
       4.392342 0.5734822 0.36402687 -0.7470643
000050 7c 02 73 bc d4 8b 96 be 9e 19 96 be 40 36 cc 3e
       -0.014832135 -0.29403555 -0.2931642 0.3988514
000060 68 a5 51 bf 46 9c 09 3f 4d 80 f0 be ac 3a 97 bd
       -0.81893015 0.5375408 -0.46972886 -0.07384238
000070 cb 51 0b be 48 6b 4b 3e 21 f1 ff 3d b3 09 d6 3c
       -0.1360542 0.19865143 0.124971636 0.026127672
000080 1c 92 62 bd 7c b5 a4 bf 7e 00 ef 3f b3 ad 95 be
       -0.055315122 -1.2867885 1.8672025 -0.29234084
000090 61 a7 cd be 85 df 2a bf 4c 05 4d bf 3c 66 82 3e
       -0.40166762 -0.66747314 -0.8008621 0.25468624
0000a0 81 b6 e4 3e 9e e6 7d be 21 04 9d 3e 33 79 f7 3e
       0.4467049 -0.24795005 0.30667213 0.48334655
0000b0 d4 3e 83 be 9c 0c cc 3f 77 3e 16 bf a0 ab e3 bd
       -0.25633872 1.5941348 -0.58689064 -0.11116719
0000c0 49 38 0a 3c 90 da de bc a1 0b 5f 3c 91 3b 3f bf
       0.008436271 -0.027203828 0.013613612 -0.74700266
0000d0 50 e9 1a 3e 65 6d e1 bd 13 5a 1d 3f 1e e3 7f bf
       0.15128064 -0.110071935 0.6146557 -0.9995593
0000e0 99 33 49 c0 c3 e9 d7 3e bd 89 8b be 1b 3c 79 bb
       -3.1437743 0.42170534 -0.27253523 -0.003803021
0000f0 28 c7 32 bf 18 8a a4 bf b9 63 f2 bc 0b 95 3f bf
       -0.6983514 -1.2854643 -0.029588567 -0.74836797
000100 49 52 39 3f b1 80 a6 be 79 02 24 bc c6 2a c5 b8
       0.7239118 -0.3252006 -0.010010355 -9.401659e-05
000110 60 2a 20 bb 90 e6 16 3f 5c c1 21 bf b1 ce a0 3e
       -0.002443932 0.5894556 -0.6318567 0.31407693
000120 c6 ef fc bd d6 71 55 3e 1e c8 c8 3e 81 8e bf bc
       -0.12350421 0.20844206 0.39215177 -0.02338338
000130 30 0b 17 39 48 50 01 3d a5 4d 8f 3f c8 e0 ee 3f
       0.0001440465 0.031570703 1.119557 1.8662348
000140 20 9c ba 3e 66 8a b9 3f 46 ad 5d be 25 a6 42 c0
       0.3644724 1.4495361 -0.2164813 -3.0413907
000150 ae 11 7c 3c f6 28 99 bc 89 5a de bc d7 b3 b3 be
       0.015385075 -0.01869629 -0.02714278 -0.35098144
000160 e7 1d 38 be fe 07 98 3e cf c4 e3 3d a7 ca b5 3a
       -0.17980157 0.29693598 0.11121523 0.0013869599
000170 ae f1 bf 3e fa b8 43 3d 2d c4 71 3d a8 ca a9 bd
       0.37489074 0.04778383 0.05902498 -0.08290607
000180 9a 7f c3 bf 8f c3 5d bf 52 96 3f 3e ad fe 09 bf
       -1.5273316 -0.86626524 0.18709686 -0.5390423
000190 b2 26 3e bf 8e 3e 16 3e 83 92 a2 3c 79 5e 75 bd
       -0.74277794 0.146723 0.019845253 -0.05990455
0001a0 fc 5c 3b 3d 2a 31 af bf 7e 3e 7d 3f dd 94 45 3f
       0.045742974 -1.3686879 0.9892348 0.7718027
0001b0 b5 ea 97 3f c0 ae 05 3e a2 29 11 c0 f2 53 06 bb
       1.1868502 0.13054943 -2.268166 -0.0020496813
0001c0 cb 32 00 3d 74 f3 c9 3d c1 ce ad bf 33 b8 d4 3e
       0.03129844 0.09860888 -1.3578721 0.41546783
0001d0 94 6e 53 3e 54 c3 63 bd 06 36 22 3e 4e eb 21 3d
       0.20647651 -0.0556062 0.15840921 0.039531045
0001e0 72 e7 cd 3b 49 57 ff 39 a0 f2 a0 3c 15 10 e0 be
       0.006283694 0.00048702423 0.019646943 -0.4376227
0001f0 4c fa b9 c0 c6 15 9e be 6e ca 45 be e3 98 a3 bd
       -5.811804 -0.30875987 -0.19315502 -0.07988145
000200 d4 7f c4 bc 7c 01 b5 3b d0 a1 a6 bd 75 1a d2 3c
       -0.023986734 0.0055238586 -0.08136332 0.025647381
000210 0b 08 1b 3c 56 8b f8 3e f6 aa 20 bf cb dc dd be
       0.009462367 0.48543805 -0.62760866 -0.43332514
000220 88 bd be be 4a e8 84 3f be a2 69 3c dc cb 59 bb
       -0.37253976 1.0383389 0.014259992 -0.0033233082
000230 73 73 68 3e a9 1e 42 bf cb a3 80 3f 33 77 7c bf
       0.2270029 -0.75828034 1.0049986 -0.98619384
000240 17 90 1e 3f 14 fb be 3e b6 3f 56 3f 4b c0 36 bc
       0.61938614 0.37300932 0.83690965 -0.011154245
000250 ab 1f 59 3c e5 d4 87 3c 9e 1a 5d 3f 81 55 ad bf
       0.013252179 0.016581008 0.8636874 -1.3541719
000260 f8 62 fb be 7d a6 82 3f 56 e9 27 bf 2a 22 09 3d
       -0.49098945 1.0207058 -0.6559042 0.033479847
000270 b7 ea 0d 3d e9 9b 2f 3d 98 88 8b bd 05 7c 89 bf
       0.03464767 0.042873297 -0.068131626 -1.0740973
000280 5d 77 c1 be ee 64 97 3d cb fc e3 3e 24 f7 e0 be
       -0.3778638 0.07392298 0.44528803 -0.43938553
000290 6d 79 f2 bd 96 7e c9 be 8b 71 94 be 5c 76 f7 3e
       -0.118395664 -0.3935439 -0.28992876 0.4833249
0002a0 8f ae c0 be ba c7 8d 3c 74 3d 01 bf ae e9 b6 be
       -0.37633178 0.017307151 -0.50484395 -0.35725158
0002b0 ac 92 ed 3e 1b 5b ca 3d 2f b3 09 be c9 91 07 3e
       0.46400964 0.09880658 -0.1344726 0.13239206
0002c0 f4 9d bb 3d 69 3b c2 3e 00 e6 df 3f e4 d5 02 3f
       0.091609865 0.3793595 1.7492065 0.5110762
0002d0 79 b5 1a bf 98 98 89 be d7 03 3e 3f b3 87 55 be
       -0.60433155 -0.26874232 0.7422461 -0.20852546
0002e0 1e 20 4a bd 7c aa b6 3d f7 79 16 bf c8 ea fe bf
       -0.049347036 0.08919236 -0.58779854 -1.99154
0002f0 ca 88 55 bf d2 f3 8b 3f 09 02 7a bd 5b 41 4b c0
       -0.8341185 1.0933783 -0.061037097 -3.175864
000300 8f 6a 4d 3d 34 f3 1b 3d 9e 41 12 be 67 65 90 3e
       0.05015045 0.038073733 -0.14282843 0.28202364
000310 87 29 40 3e 5f c8 42 3d 92 3a 84 be 89 31 e8 3c
       0.18765841 0.04755437 -0.25825936 0.028343933
000320 52 2b e4 be 31 1e 53 3d 3c 92 84 be 72 0c 50 3f
       -0.445643 0.051542465 -0.25892818 0.8126899
000330 a4 1b cc be b3 ce 57 3f 43 91 84 3e c9 42 d0 bd
       -0.39864838 0.8429977 0.25892076 -0.10168988
000340 e8 e0 02 3e 11 a8 87 3d 69 88 08 3f 47 ba 85 3e
       0.12781107 0.06623853 0.53333145 0.2611868
000350 90 35 5e be b7 5b 89 3e dd ff b1 3f 2a 23 88 be
       -0.2170012 0.26827785 1.3906208 -0.26589328
000360 35 76 af be fd 1e f0 bd da 7f ae 3d 90 38 8f 3d
       -0.34269872 -0.117246605 0.085204795 0.0699321
000370 25 d4 f1 3c 49 98 0f 3e 09 95 91 be 34 ab 63 3e
       0.029520104 0.14022936 -0.28434017 0.22233278
000380 1e 01 69 3e e1 6a 52 3e 55 78 2c 3f c5 f0 98 be
       0.22754332 0.20548584 0.6737111 -0.29871193
000390 a1 be be 3c 75 3f 34 bd 57 71 2d be 97 ff 1a 3f
       0.023284258 -0.04400583 -0.16937767 0.6054625
0003a0 e3 18 66 bf 05 b6 84 bf 3b fa e6 bc 3a ba 86 be
       -0.89881724 -1.0368048 -0.028195491 -0.26313955
0003b0 38 b1 fc be 77 56 46 3d cc 71 8c 3d 3b ac 49 bd
       -0.49353957 0.048422303 0.068576425 -0.049236517
0003c0 e3 06 32 bf ac df 2b c0 75 8a b3 3e e5 d6 a1 3e
       -0.6954176 -2.6855268 0.35066572 0.31609264
0003d0 82 d0 23 bf c3 d6 4f bf aa 3c b3 3d 10 77 a1 3c
       -0.6399003 -0.81187075 0.08751805 0.019710094
0003e0 a7 e5 94 be 33 8f 0c be 72 f7 16 40 59 ef 41 bf
       -0.2908146 -0.13726501 2.3588529 -0.7575584
0003f0 bc 3a f4 be 30 e2 18 3f 56 6f 31 3f bf ee d0 bb
       -0.4770106 0.59720135 0.6931051 -0.006376117

fc1_state.bias f4 [128]
000000 14 72 e0 be e8 29 80 bd db 80 35 bf a1 6d 11 be
       -0.43837035 -0.06257993 -0.7089974 -0.14201976
000010 ea bf d0 bd 44 cb 5c 3e c2 d8 b3 be 93 05 35 3c
       -0.10192855 0.21561915 -0.3512631 0.011048692
000020 d7 83 e7 be f4 df 0f be 36 21 ab 3e 08 b0 98 3e
       -0.45217773 -0.14050275 0.33423775 0.298218
000030 1c 94 34 be 0d 19 9f 3e 87 c3 76 bd 7a 81 e7 bd
       -0.17634624 0.310738 -0.060245063 -0.113039926
000040 50 73 b5 be a8 b9 2e be 67 97 e0 be 16 ad 28 bf
       -0.3543954 -0.1706301 -0.4386551 -0.6588911
000050 4e e5 01 3d d7 a3 62 be 06 46 9e bb 52 9a f7 be
       0.031712823 -0.22132812 -0.004830125 -0.48359925
000060 38 a9 a7 be db f0 ba be 85 eb 22 3d 03 93 45 ba
       -0.3274629 -0.36511883 0.03977539 -0.000753686
000070 49 83 2f be bf dd ce be e6 e3 73 be 8b d0 9b bd
       -0.17139925 -0.40403554 -0.23817405 -0.07608136
000080 51 73 c2 be 1e 8c 9b be 07 ed 42 be a8 52 14 bf
       -0.37978604 -0.30380338 -0.19035731 -0.57938623
000090 6d 40 87 be 22 ce f3 be 83 a3 c8 be 20 bd 64 3e
       -0.2641634 -0.47618204 -0.3918725 0.2233777
0000a0 33 9e 15 3e 51 1e 18 bc 1d 3a c3 bd 4f 4f cc 3d
       0.1461113 -0.009284572 -0.095325686 0.099760644
0000b0 3d 17 b7 be 98 30 dc be bd cc 16 be 30 fe 08 bf
       -0.35759917 -0.43005824 -0.14726539 -0.5351286
0000c0 f5 97 50 be 5f bc bb be e3 7c 22 bf 51 44 f7 be
       -0.20370467 -0.36667153 -0.6347181 -0.4829431
0000d0 5e e5 ce 3d 1c 95 cb 3e 12 16 f6 bd 9f 87 15 3f
       0.10102342 0.397622 -0.12015928 0.58410066
0000e0 e7 96 23 be c7 9d 94 be 07 cb 01 be 96 d4 33 be
       -0.15975533 -0.29026625 -0.12675105 -0.17561564
0000f0 16 ea f1 bd 56 7d e5 be 0d 66 4a 3e 09 db 83 be
       -0.118122265 -0.44822186 0.19765492 -0.25753048
000100 3d 33 bf be 19 c1 41 bd c7 62 9c bd 91 1f 4c 3d
       -0.3734378 -0.047303293 -0.07636028 0.04983479
000110 c5 f7 06 bf 19 b6 96 3e ad 27 0f be 85 5d 25 be
       -0.52721816 0.29435804 -0.13979979 -0.16148956
000120 22 25 0f be 61 8a eb bd 48 1f 27 bd e9 61 03 bf
       -0.13979009 -0.11501003 -0.040801316 -0.51321274
000130 c7 c1 0a bf 9a fb 16 be 9c 19 11 3e d2 94 06 3f
       -0.5420193 -0.14744416 0.14169925 0.5257083
000140 e0 ba 75 be 58 c1 1e 3e bc c5 df be eb 2f 08 bf
       -0.23997068 0.15503442 -0.43705547 -0.53198117
000150 5a 83 55 be 05 90 62 3d a2 f9 9f be 15 cb 00 bd
       -0.20850888 0.05531313 -0.31245142 -0.031443674
000160 7a 67 f7 3e f2 51 12 be 6a 5a af be 27 4f 85 be
       0.48321134 -0.14289072 -0.34248668 -0.2603695
000170 5e 4f 84 3e f9 9c b6 3d 4e a1 16 3e 9a 49 32 bf
       0.25841802 0.08916659 0.1470997 -0.6964356
000180 dd e6 af be e1 93 a2 be 1a 19 1e be ec 29 06 be
       -0.34355822 -0.31753448 -0.15439263 -0.1310193
000190 ac f2 bd be 42 d4 16 bf 17 c5 c1 be cf 55 f3 3d
       -0.37099206 -0.5891763 -0.3784568 0.11881601
0001a0 eb 8c 94 be 72 70 d2 be bc 76 a2 be 63 22 fc be
       -0.29013762 -0.41101414 -0.31731212 -0.49244985
0001b0 43 03 43 3f 0d 58 f3 bc 9f 62 21 3e 03 bb 50 3e
       0.7617685 -0.029705072 0.15760277 0.2038384
0001c0 5d 7e 57 be 27 f0 ed 3e 77 bf 48 be 55 2f c4 be
       -0.21044298 0.46472284 -0.19604288 -0.3831736
0001d0 28 09 94 be de 17 16 bd be 74 d8 be 20 71 ac 3e
       -0.28913236 -0.036643855 -0.42276567 0.33680058
0001e0 91 a4 70 3e 24 67 7e be b3 75 b9 be 98 52 93 be
       0.23500277 -0.24844033 -0.3622261 -0.28773952
0001f0 02 02 00 bf 05 9e ab be 81 b3 6e bf ae 5e 60 be
       -0.50003064 -0.33518997 -0.9324265 -0.21911117

lstm.weight_ih_l0 f4 [512, 128]
000000 ae f1 8f bf 57 c4 d7 be d0 29 1d be a9 b4 99 bf
       -1.124563 -0.42141983 -0.15347981 -1.2008258
000010 2c 92 96 bd 59 66 c0 3d 08 24 3f bf 8e 2e 1e be
       -0.07352099 0.09394521 -0.74664354 -0.15447447
000020 d0 fb 1a 3f 77 fc bc bf 8f ff 49 be 3d 26 1c 3c
       0.60540485 -1.4764546 -0.19726394 0.009530601
000030 30 75 35 be dd 78 cb bf e0 ea aa 3e 85 3a 12 be
       -0.17720485 -1.589626 0.3338232 -0.14280136
000040 25 57 94 3d e6 44 d8 3c 2f 45 32 bf 43 78 02 bf
       0.07243184 0.02640004 -0.69636816 -0.50964755
000050 57 d0 35 bf 14 74 ac bf 5d fe b4 be 76 a8 6b be
       -0.71021026 -1.3472924 -0.35350314 -0.23013481
000060 8c 79 38 bc 9e f3 a2 be 4c e9 b7 be 6d 66 91 be
       -0.011259448 -0.3182649 -0.3592018 -0.28398457
000070 99 c0 94 be 74 bc 3f 3f 70 9e dc be ab de 10 be
       -0.2905319 0.7489693 -0.43089628 -0.14147441
000080 14 62 79 be 2f 56 cf be 68 6c 6d be f4 7b 02 3d
       -0.2435382 -0.4049544 -0.23185885 0.031856492
000090 94 cd 14 3c 10 98 f7 3d 6d 65 03 bd 0c 89 f7 bd
       0.009082217 0.120895505 -0.03207915 -0.120866865
0000a0 66 00 f9 bd 48 08 1c bf 9b e6 43 be c6 06 1f bf
       -0.12158279 -0.60950136 -0.19130938 -0.6211971
0000b0 db 8a 21 bd 35 da f5 bb 41 25 8b be 72 d0 60 bf
       -0.039439064 -0.007502819 -0.2717686 -0.8781806
0000c0 a4 3c 7f bf b1 f3 ad 3d 5c 49 8b be 6d 5d 0a bf
       -0.99701905 0.08493746 -0.27204406 -0.54048806
0000d0 cd 38 d5 be 63 b1 b7 3d 94 be 29 3e 3d 62 a0 bf
       -0.41644898 0.08969381 0.16576606 -1.252998
0000e0 2c aa 34 bf 3e fd dd bd 40 6f b8 be 41 00 b0 3e
       -0.7057216 -0.10839318 -0.36022377 0.34375194
0000f0 b9 11 04 3e 56 0a 2f bf 45 1a 16 bf f2 cb 47 3e
       0.12897386 -0.68375146 -0.58633834 0.19511393
000100 64 c8 96 bd 1e 7b 2b bf a5 fc 43 be db 2a 1e bf
       -0.0736244 -0.66984737 -0.19139345 -0.6178414
000110 e4 ed cf 3e 41 14 03 be 78 e8 86 bf 67 83 c4 be
       0.40611184 -0.12800695 -1.0539694 -0.38381502
000120 a9 d5 f7 be de 50 a2 3d d1 30 42 bf 54 95 e4 be
       -0.48405197 0.079255804 -0.7585574 -0.44645178
000130 69 50 b3 bd 8b be 2c bf 60 5c c3 be f9 2f 0b bf
       -0.087555714 -0.67478245 -0.38156414 -0.54370075
000140 a5 ca 1a 3e 4f 76 14 bf 36 e3 8d 3d 0f be 18 bf
       0.15116365 -0.57993025 0.06928103 -0.59665006
000150 61 dc dd 3d ae 41 53 bf 2a ad 97 be cb 31 0e 3f
       0.108330496 -0.82522094 -0.296243 0.5554473
000160 97 c2 97 be d6 87 04 bf f7 b3 99 bf 11 1c 7c 3d
       -0.29640648 -0.5176977 -1.2008046 0.061550204
000170 39 48 11 bf 50 2f 42 3e 9e 2d 6f 3e a6 7a b2 3e
       -0.5675083 0.18963361 0.23357245 0.34859198
000180 fa 63 31 bf da 8a 76 be 17 2d ff bd f8 f7 15 bf
       -0.6929318 -0.24076405 -0.12459772 -0.58581495
000190 6b 93 1b bf f1 33 df 3d 24 15 be bf a3 09 5e bf
       -0.60771817 0.10898579 -1.4850202 -0.86733454
0001a0 a8 94 15 bf 94 4c 80 3e a3 01 4f bc ff 6c b1 bd
       -0.58429956 0.25058424 -0.012634668 -0.086633675
0001b0 b9 02 29 bf 39 8f 8b bf 2b e3 08 bf 0a 54 e4 3d
       -0.6601978 -1.0903083 -0.5347163 0.11148842
0001c0 b6 90 df bb 47 fa 85 be 80 2e 7c bd a7 09 79 3d
       -0.006822671 -0.2616751 -0.061567783 0.06080022
0001d0 7a 8c 82 bf 07 ed 38 3f 7c 70 5e 3e f1 0b 8e 3e
       -1.019912 0.72236675 0.21722597 0.27743486
0001e0 7f 60 ce 3e 87 3a 0e bf 65 3c 29 bd 61 af 50 bf
       0.40307996 -0.55558056 -0.041317362 -0.81517607
0001f0 8f 51 0f be 88 81 74 bf 1a d4 1c bf 24 78 de 3e
       -0.13995956 -0.9551015 -0.6126114 0.43451035
000200 9a 73 e0 be ef c7 92 be 8b 71 8f be 18 4b 13 be
       -0.43838197 -0.28668162 -0.28016314 -0.14384115
000210 38 5c fe bd 12 60 0f 3f b8 99 88 bf b8 78 da be
       -0.12419933 0.56005967 -1.0671911 -0.42670226
000220 58 fc a3 bd 49 38 0d 3f 5a 40 35 3f d9 da 9f bf
       -0.08007115 0.5516401 0.7080132 -1.2488662
000230 a6 0a bd 3e 74 56 b1 3e 6c 1f 0e 3d 93 e0 8e 3f
       0.36922187 0.3463627 0.034697935 1.1162285
000240 28 09 5e 3f c6 fc 88 be fe ef 9c 3e 02 8e 23 be
       0.8673272 -0.2675535 0.3065185 -0.1597214
000250 72 3e 17 3e ef 1f 02 3f 2b 13 03 bf 95 2c e2 bd
       0.14769915 0.50829977 -0.51201123 -0.110436596
000260 27 cd fc bc 9d 36 7a be c3 1c e6 3e c0 46 2b be
       -0.030859543 -0.24434896 0.44943818 -0.16726208
000270 60 f7 07 bf 45 a6 5d be 50 2f 66 be ca 01 6c 3d
       -0.5311184 -0.21645458 -0.22478986 0.057618894
000280 24 4b 8f bc ff 3c 09 bf 77 4f b0 3e 1e b6 9b be
       -0.017491885 -0.536087 0.34435627 -0.30412382
000290 4e 11 a7 3d 09 f0 8c 3f a7 d9 f7 be 59 6f ad be
       0.081575975 1.1010753 -0.48408243 -0.33874014
0002a0 e7 c9 31 3f 79 38 be bf 56 e8 38 3f 3e da 36 3e
       0.69448704 -1.4860984 0.72229517 0.1785669
0002b0 61 3c 48 3d 0b 37 81 3f fe 7b a4 be 74 aa 64 bf
       0.048885707 1.0094923 -0.3212585 -0.8932259
0002c0 b0 e5 db bf 16 3b cc be 64 b7 67 3e b9 a4 5c 3f
       -1.717947 -0.3988883 0.22628552 0.86188847
0002d0 aa 15 40 bf 67 e8 02 3f 33 b0 dc bd 9f 9b 79 bf
       -0.75033057 0.5113587 -0.10775795 -0.97503084
0002e0 40 78 34 bf a7 fc a3 be ec 06 23 bf 0b 51 42 3f
       -0.70495987 -0.32028696 -0.63682437 0.7590491
0002f0 b2 06 91 3f a6 b0 27 bd f4 f2 2f bf 3f f4 00 bf
       1.1330168 -0.04093995 -0.6873009 -0.5037269
000300 5e 31 f5 bd 67 d8 0c 3e 70 7d 21 be c0 0c 86 be
       -0.11972307 0.13754426 -0.15770507 -0.26181602
000310 cd 4c 25 be a1 2a c6 3d f8 15 36 bf cc 24 16 bf
       -0.16142578 0.096760996 -0.7112727 -0.586499
000320 06 d0 f1 be b6 55 58 be e5 9e 2e bf b1 7f b6 be
       -0.47229022 -0.21126446 -0.68211204 -0.35644296
000330 2c 90 ed bf 0c aa 9c be ac 98 8f 3f 06 14 66 be
       -1.8559623 -0.30598485 1.1218467 -0.22468576
000340 d3 62 ab be d7 97 18 bf 2c 28 ee 3c 82 10 80 bf
       -0.33473834 -0.5960669 0.02907189 -1.0005038
000350 9e 78 9c bf 3f b3 96 3d f3 ac 1f 3f 9f 9e 2d bf
       -1.222431 0.07358407 0.62373275 -0.6782016
000360 90 32 06 bf c7 0a c7 bf b1 92 0f bf c6 8f 60 3f
       -0.524209 -1.5550164 -0.5608321 0.8771938
000370 1d 87 02 3e 5e f5 0b 3f cf 5c 89 bf 98 26 af be
       0.12746854 0.54671276 -1.0731448 -0.34209132
000380 a6 60 91 be bf 0a 7b bf ab 28 12 bf 1d d7 24 3e
       -0.2839405 -0.9806327 -0.57093304 0.16097684
000390 be 84 43 3c 29 2b bf bf 76 4e 3f 3f e6 e1 07 be
       0.011933504 -1.4935046 0.74729097 -0.13269767
0003a0 3a 39 23 3f 5e 6f 82 be e8 4a 58 bc 26 07 8c be
       0.63759196 -0.2547559 -0.013201453 -0.27349204
0003b0 71 23 15 bf 1c c8 e3 3c e6 42 46 be 9e a1 43 bf
       -0.58257204 0.02780538 -0.19361457 -0.76418483
0003c0 34 8a 21 3e b7 f2 4e bf 71 94 0b 3f d9 ec af 3f
       0.15775377 -0.80839103 0.5452338 1.3744155
0003d0 3a db 9d be 0e 77 2e 3f 12 01 4f bf 31 fe 42 3d
       -0.3083132 0.68150413 -0.8086101 0.047605697
0003e0 ba 4e 4d bf 62 57 a3 be 8d 1e 0f bf e0 98 30 bf
       -0.8019825 -0.31902605 -0.5590599 -0.6898327
0003f0 4e 9d be bf a3 e9 64 be eb 79 2a bf b3 8e 04 bd
       -1.4891756 -0.2235475 -0.6659228 -0.03236265

lstm.weight_hh_l0 f4 [512, 128]
000000 01 0e 8c bd 40 89 8f ba e0 fd bc bc c4 e3 8a 3c
       -0.068386085 -0.0010950938 -0.023070276 0.01695431
000010 b7 f7 b0 3d fe da 01 3d e4 cd e5 bc 65 04 6a bd
       0.08640998 0.031702988 -0.028052278 -0.057133097
000020 8c 8a 97 bd 0c ff d5 3c 92 e2 12 3d 81 8d 8f bd
       -0.073994726 0.026122592 0.035860606 -0.070094116
000030 0a 8a 1d 3d aa f7 74 3d 3e b0 41 3d 62 81 4a 3d
       0.038461722 0.059806503 0.04728722 0.049439795
000040 70 fc ac 3b 1a 8b d7 bc 28 2a 09 bc a8 f8 46 3c
       0.0052791163 -0.026311446 -0.008371867 0.012144245
000050 6e bf 79 3d 84 8c 96 bd ea b4 63 3d 8c 4b 59 bd
       0.060973577 -0.0735102 0.055592455 -0.053050563
000060 02 7a 72 bd c6 06 6f 3d b8 2c f4 3c 89 55 ac bd
       -0.059198387 0.05835607 0.02980648 -0.08414752
000070 6d a7 90 3d 15 bd 46 bd f0 0a 8b 3b 63 c4 22 bd
       0.07063184 -0.048520166 0.004243247 -0.03973807
000080 a5 1b 99 3d b0 2f eb bb 43 78 a8 3d b1 27 96 3d
       0.07475976 -0.0071773157 0.08226063 0.07331789
000090 20 33 d0 bb b6 2c 7f bd df 19 23 bd b4 f1 75 bd
       -0.006353751 -0.0622985 -0.039819594 -0.06004496
0000a0 23 58 5a bd 7d cc a7 bd 7c a4 9b bd a6 57 37 bd
       -0.05330671 -0.081933 -0.07599732 -0.044761322
0000b0 40 1a b2 3a 6a 0c 6b 3d 5d 2c b3 3d 6e 35 41 3d
       0.0013588145 0.057384886 0.08748696 0.047170095
0000c0 a5 32 9a bd 35 2f 62 bd 79 76 85 3d 2a 73 08 3d
       -0.07529191 -0.0552208 0.065167375 0.033312954
0000d0 5c d3 94 3c d6 e1 2c 3d b0 1a 89 bd c8 0d 21 bd
       0.01816719 0.04220756 -0.06694543 -0.039319783
0000e0 43 68 88 3d e0 a5 2c bb 4c 08 84 3c 1a 3e 70 bd
       0.06660511 -0.0026343986 0.016117238 -0.058652975
0000f0 71 57 9e 3d fc 7b b6 bc 91 d2 ac bd 40 93 5c bd
       0.07731522 -0.022275917 -0.084386 -0.053851366
000100 c4 e1 87 bd dd 21 99 3d 93 4a 10 bd 00 01 a7 bc
       -0.06634858 0.07477162 -0.03522737 -0.020386219
000110 aa f2 85 bd cf 2a 89 3d 54 8d c7 bc 2a 65 50 3d
       -0.06540425 0.06697618 -0.024359383 0.050877728
000120 81 05 b0 3d 23 0d 91 bd 2b e1 1e bd ff 5c 1e bd
       0.085948 -0.07082584 -0.038788956 -0.038662907
000130 a8 17 c2 bc a0 28 58 3c 53 c0 b4 3d cd 06 4d bd
       -0.02369292 0.0131932795 0.088257454 -0.050055314
000140 9c a3 f0 3c 4a f9 7e 3d 90 10 ba 3c 5c 5c f6 3c
       0.02937489 0.06224946 0.022712976 0.030073337
000150 e0 32 57 bc 3b cf 89 bd 85 ac a7 3d 15 75 a7 bd
       -0.013134688 -0.06728979 0.08187202 -0.081766285
000160 64 20 df bc 60 b5 0b 3d 5e 91 6f bd 6e f9 2b bd
       -0.027237125 0.03410852 -0.058488242 -0.04198592
000170 b2 19 37 3d e4 20 22 bd f2 2d 77 bd 28 41 f5 bc
       0.04470224 -0.03958215 -0.06034655 -0.029938295
000180 13 50 9a 3d ba a0 4b 3d 35 aa 98 bd ce 4d 2d 3d
       0.07534804 0.049713828 -0.074543394 0.04231053
000190 40 35 ac ba 5b 64 a1 3d b8 57 61 3c 10 a3 8c 3b
       -0.0013138428 0.078804694 0.013753824 0.0042918995
0001a0 9a e0 21 bd 15 43 77 bd 08 1d 82 bc ef de 90 3d
       -0.039520837 -0.06036671 -0.015882984 0.07073771
0001b0 e0 a3 54 3b c2 55 27 3d ad 9c 2f bd 44 8a af 3c
       0.003244631 0.04085327 -0.042874027 0.021428235
0001c0 1e e1 46 3d 4f 5b 88 bd b5 0f 89 3d 1a 0e 1f 3d
       0.048554532 -0.06658041 0.06692449 0.038831808
0001d0 da e0 b1 bd 6c f6 66 bd 22 2f 52 3d df b1 a2 3d
       -0.08685465 -0.05638735 0.05131448 0.079440825
0001e0 4c 9a 8f 3c 90 e5 41 bc 3d 58 8a bd 30 63 f4 bb
       0.01752963 -0.011834517 -0.06755111 -0.007458113
0001f0 ef 64 86 3d fd 4b 9c 3d 78 8d 13 bc 61 5c 11 bd
       0.0656222 0.07631681 -0.009005897 -0.03548849
000200 0e 08 fe bc 52 af 3f 3d 00 01 ef ba 72 07 2f bd
       -0.0310097 0.046798058 -0.0018234551 -0.04273171
000210 b3 92 af bd 5f a3 12 bd c3 4d 89 3d c0 74 1c bc
       -0.085729025 -0.035800334 0.06704285 -0.00954932
000220 80 9a 3c bd 82 7a 3e 3d 53 94 b3 3d 72 90 3c 3d
       -0.04604578 0.04650355 0.08768525 0.04603619
000230 9e 11 65 3d 2e 02 34 3d 43 88 a6 bd 2b 3f 81 3d
       0.055925004 0.04394739 -0.081314586 0.063108765
000240 a2 2c 8a bd 47 3c 40 bd 4e bd 2b 3d 3f 01 8f 3d
       -0.06746794 -0.046932485 0.041928582 0.069826595
000250 35 83 82 3d 74 43 fd 3c 40 11 8d ba dc aa d5 3c
       0.06372682 0.030915953 -0.0010762587 0.026082449
000260 3d a5 68 bd 6b fd a6 3d b0 4b 1c 3c a0 36 ed 3b
       -0.05679821 0.081538044 0.00953953 0.007239178
000270 af a3 44 bd 79 6b 90 3d 18 0d 78 3c 23 6a 2e bd
       -0.048007663 0.07051749 0.015139841 -0.04258169
000280 80 58 2d ba 08 5a 03 3c c0 b6 16 3b 2a d4 9c bd
       -0.0006612614 0.008017071 0.002299711 -0.076576546
000290 07 4b 03 bd 70 f6 c9 bb 3b e7 81 3d 44 36 82 bd
       -0.032053974 -0.006163411 0.06342932 -0.063580066
0002a0 32 4a 5b 3d d2 19 22 3d 37 1f 99 bd 95 80 a4 bd
       0.053537555 0.039575405 -0.07476657 -0.080323376
0002b0 51 4f 1c bd 3c c5 4d bd 96 52 5b 3d a4 62 2f bd
       -0.03816158 -0.050236925 0.053545557 -0.04281868
0002c0 d0 1b 96 3c 68 f8 03 3c 42 03 63 3d 3a e4 03 bd
       0.018323809 0.00805483 0.05542303 -0.032200076
0002d0 76 83 21 3d 00 10 cd b8 8c de 8e 3c a9 7a 1e bd
       0.03943201 -9.778142e-05 0.017440103 -0.038691197
0002e0 7d 7b 8c bd 5a d4 58 3d c0 b9 4a bc 5e f6 95 bd
       -0.06859491 0.05293689 -0.012373388 -0.073223814
0002f0 37 e1 a2 3d 74 3f 0d bd 12 ba 11 3d e6 bc 83 bd
       0.079531126 -0.03448434 0.03557784 -0.06432514
000300 37 a7 9a 3d 14 ff 8c bc d1 19 8b 3d ee 01 1a bd
       0.07551425 -0.017211474 0.067920335 -0.037599497
000310 e4 85 06 bd 48 0a 6b bc a4 00 a9 3c fa cc 22 3d
       -0.03284253 -0.014345713 0.020630188 0.039746262
000320 90 1f cf 3b 1c a2 81 bc 1c 38 6d bd db 37 8c bd
       0.006320901 -0.01582437 -0.05791484 -0.06846591
000330 16 a4 b1 bd bb a7 8e 3d 08 2c 9c bc ca f0 42 3d
       -0.08673875 0.06965586 -0.019063964 0.047592916
000340 4e e6 aa bd 18 4b 68 3c 80 b5 bd 3b 7c cc b1 bc
       -0.083447084 0.01417806 0.0057894588 -0.021703951
000350 2e 91 2e 3d 95 80 b1 bd 84 d9 87 3c 22 0d 7f bd
       0.042618923 -0.08667103 0.016583212 -0.062268384
000360 f0 50 fc bb 66 d4 52 3d e0 1e ca 3b 30 42 07 3c
       -0.007700078 0.05147209 0.0061682314 0.008255526
000370 7e fe 2f 3d 10 9a 0f bd 9c 1d d6 bc f7 f4 25 bd
       0.042967312 -0.035059035 -0.026137166 -0.04051682
000380 08 1c 41 3c 00 ec ab 3c c2 2c 7d 3d 68 43 a5 3c
       0.011786468 0.020986557 0.061810263 0.020173743
000390 68 7a b2 bc 57 6c 59 bd db 24 95 3d 63 ab a1 3d
       -0.021786883 -0.053081837 0.0728242 0.078940175
0003a0 e3 d5 a5 3d 1a de 33 3d c4 e5 a7 bc 0c f7 90 3c
       0.08097436 0.043912984 -0.020495303 0.017695926
0003b0 ad 54 aa 3d 26 9a 25 3d 2e 36 94 bd a0 10 62 3c
       0.08316932 0.04043021 -0.072368965 0.013797909
0003c0 70 e4 87 bd c0 3d b9 3a 66 cb 2d 3d c6 eb 36 3d
       -0.06635368 0.0014132783 0.042430304 0.044658445
0003d0 07 64 2e bd 92 3a 19 bd 01 14 ad 3d dd be 80 3d
       -0.042575862 -0.037409373 0.08451081 0.06286404
0003e0 bb dc 4e bd 2c c7 90 bd e6 28 27 3d da ff ea bc
       -0.050503474 -0.07069239 0.04081049 -0.028686453
0003f0 22 ea 2a 3d 9d f6 89 bd 00 48 97 bc e4 cd 41 bd
       0.041727193 -0.06736491 -0.01846695 -0.047315493

lstm.bias_ih_l0 f4 [512]
000000 70 c8 3e bd 92 f3 d6 bd b5 1e bd bc 52 df 5c bd
       -0.04657787 -0.10495676 -0.023085931 -0.053923912
000010 42 82 11 be 20 66 13 3f 40 19 5a be b9 97 00 bf
       -0.14209846 0.57577705 -0.21298695 -0.5023151
000020 b9 1d 16 be 4b a5 e3 3d ac 6d 74 bf 9c aa e6 be
       -0.14659776 0.111155115 -0.95479846 -0.4505204
000030 62 23 51 be b5 9b d8 3d 26 ca 2f be 99 97 39 bf
       -0.20423654 0.10576574 -0.17166957 -0.72496945
000040 80 41 5e bf 54 3a cc 3e 02 ef 02 bf 13 d1 d4 3d
       -0.86818695 0.3988825 -0.51145947 0.1039144
000050 de 63 d9 3e f0 12 91 3d d9 a6 cc be 63 83 c5 3e
       0.42459005 0.0708369 -0.39971045 0.38576803
000060 62 21 54 3e 93 fd f1 3e b6 91 2c 3f 6d d6 c5 be
       0.2071586 0.47263774 0.6740984 -0.38640156
000070 30 99 f5 be bd a5 fa 3d db 51 ff 3d 45 99 01 bd
       -0.47968435 0.12238643 0.124667846 -0.03164031
000080 54 da 6c 3d c1 6f 94 3d 5b 42 91 be 72 96 c5 3e
       0.0578254 0.07247878 -0.28370938 0.38591343
000090 3f 87 67 be 7c 29 47 3c ba b9 63 bd 94 26 9b 3c
       -0.22610186 0.012155887 -0.055597045 0.018939294
0000a0 6f bc b0 3c 58 a7 06 bf 62 11 6e 3e 22 9e c7 bd
       0.021574227 -0.52599096 0.23248819 -0.09746958
0000b0 3c d4 88 3e ab 64 c1 3e a6 28 d2 be 29 e0 e2 3d
       0.26724422 0.37772116 -0.41046637 0.110779114
0000c0 89 b2 13 bf a8 45 d0 be 2c 48 eb bc e7 9f 14 bf
       -0.576943 -0.40678144 -0.028720938 -0.5805649
0000d0 c2 3f c9 be 2e 23 54 be cd cb fc bd 3d be 53 be
       -0.39306456 -0.20716545 -0.123435594 -0.20678039
0000e0 45 ad db bd 79 87 ef be cf c2 f9 3e 96 79 13 3f
       -0.10726408 -0.46783045 0.4878144 0.576074
0000f0 b0 c8 51 be 46 4a 3c 3c 8d 7e 2e bf 40 41 62 be
       -0.20486712 0.011492318 -0.6816185 -0.22095203
000100 b8 1d b3 3e 9a 83 fd be 8a 92 de bd f2 bd b1 3c
       0.3498361 -0.49514467 -0.10867794 0.021697018
000110 58 00 b5 be 9f e7 84 be 2e c5 a0 be da d7 77 be
       -0.35351825 -0.25957963 -0.31400436 -0.24203435
000120 6b 2e 13 be 3e e0 09 3e 16 bf 33 bf 6f 1c f4 3e
       -0.14373176 0.13464448 -0.7021345 0.47677943
000130 33 e0 57 bf e1 15 47 bf d1 a8 ad 3e 60 20 a4 3d
       -0.84326476 -0.7776776 0.3391786 0.080139875
000140 25 b0 e6 be 46 a0 3f bf 8a 7a cc 3d 37 b4 eb bd
       -0.45056263 -0.7485393 0.0998431 -0.11508983
000150 29 d0 0c bd 79 b7 dd 3d 21 03 a9 be 22 a8 0d 3d
       -0.034378204 0.1082601 -0.330102 0.034584172
000160 1e 2d a7 be 23 f6 2b 3e f5 fc 40 be 25 d6 66 3d
       -0.3265161 0.16793112 -0.18846495 0.056356568
000170 b1 e4 4e bf d7 48 4e be a9 60 31 be e7 ec ff be
       -0.80817705 -0.20144974 -0.17322029 -0.4998543
000180 96 53 b0 be ff 49 96 bf 95 39 a0 bd 86 1f 35 3c
       -0.3443877 -1.1741332 -0.07823483 0.011054879
000190 24 39 40 bf fc 8c 92 bd 0a 5a 82 be 56 22 56 bf
       -0.7508719 -0.07155797 -0.2545932 -0.8364614
0001a0 89 0f 20 bf df 3f e8 3e ed 36 3c bf bc 7a c9 be
       -0.62523705 0.4536123 -0.7352131 -0.3935145
0001b0 60 ae 8b bd 70 52 54 3e 87 45 7f bf 35 65 49 bd
       -0.06820369 0.20734572 -0.99715465 -0.049168784
0001c0 06 35 3c 3e 6c 9d 79 be 00 ff bf be 7b 5c c9 be
       0.18379602 -0.24376458 -0.37499237 -0.3932837
0001d0 f5 97 9f 3e 88 e5 b8 3d b9 c3 65 be 2c 6a 99 3d
       0.31170622 0.090281546 -0.22437944 0.07490954
0001e0 e3 6b a6 be c1 d7 02 3e ba ff dc bd a5 17 7d be
       -0.32504186 0.12777616 -0.107909635 -0.24716051
0001f0 9f b1 c0 be a7 27 04 bf 33 3d 9f be e8 7c 0f bd
       -0.37635514 -0.51623005 -0.3110138 -0.03503123
000200 93 18 80 bd 91 10 9a bd da 53 21 3d e4 d7 ec 3c
       -0.06254687 -0.07522691 0.039386608 0.028911538
000210 9a 64 43 bd e5 3f 86 3d ec 90 68 bd c8 ad 67 3c
       -0.047703363 0.06555156 -0.056778833 0.014140554
000220 0c ea 32 bd 88 9f 19 bd f0 2b 8f 3b 35 39 a4 3d
       -0.043680236 -0.037505656 0.0043692514 0.08018724
000230 0e db f7 bc 00 14 0e 3a 6c 14 89 3c 28 52 57 bc
       -0.03025582 0.00054198503 0.01673337 -0.013142146
000240 be a6 80 bd d0 d4 01 3c e2 a4 82 bd 08 82 18 bc
       -0.062818035 0.007924274 -0.06379105 -0.009308346
000250 f8 fa f1 bc 7d 9e 88 bd f4 27 e3 3c 30 98 bd bc
       -0.029538617 -0.06670854 0.027729012 -0.023143858
000260 2a f6 44 3d a0 e8 15 3c 36 91 4b 3d ac 05 90 bd
       0.048086323 0.0091497 0.04969903 -0.07032332
000270 3d 1b af bd d4 c8 7b bd 70 2b 13 3c 2f ff 87 3d
       -0.08550117 -0.06147082 0.008982524 0.06640469
000280 6a 11 23 3d bf a2 41 bd 6a 71 77 3d de 09 a4 bd
       0.03981153 -0.047274347 0.060410894 -0.080096945
000290 27 f1 82 3d e2 b7 29 3d 53 2e 8c 3d e6 f2 52 3d
       0.063936524 0.04143513 0.06844773 0.051501177
0002a0 eb 07 6a bd bd f8 a0 3d 40 db bc 3b de a6 7c 3d
       -0.057136457 0.07859943 0.0057634413 0.061682574
0002b0 1f 2b a1 3d cc 1d ba bc e5 5a 18 bd f8 5b 8b bd
       0.07869553 -0.022719286 -0.03719606 -0.06804651
0002c0 e7 99 99 3d 96 ea 67 3d 4e 74 95 bd 4a 2f 49 3d
       0.07500058 0.056620203 -0.07297574 0.049117364
0002d0 37 1f ac 3d be 7c 3e 3d 41 89 55 bd 33 93 72 bd
       0.08404391 0.046505682 -0.05213285 -0.05922241
0002e0 4b f3 af bd a0 62 36 bb e2 53 a7 bd 30 c1 af bd
       -0.08591326 -0.0027829781 -0.08170296 -0.085817695
0002f0 30 1c 61 3c cf 25 95 3d 10 95 3d bc 5b c6 61 bd
       0.013739631 0.07282602 -0.011571184 -0.055120807
000300 80 aa 30 3c e2 4d 50 bd a0 99 13 bb c2 f2 8d bd
       0.010782838 -0.050855525 -0.0022521988 -0.06931068
000310 c0 99 e0 3b ee 3a 25 bd 51 11 43 bd 3c a8 cd bc
       0.006854266 -0.040339403 -0.047623936 -0.025104634
000320 6a a2 3c 3d 88 c0 2b 3c b0 1d f7 bb 04 9e 00 3d
       0.046053328 0.010482915 -0.007541381 0.031400695
000330 07 94 55 bd b0 1d 6e 3c ea 43 4c 3d 08 a5 52 3c
       -0.052143123 0.014533445 0.049869455 0.012856729
000340 b8 12 0a 3d d2 e7 16 3d ee e6 5b 3d 0c da a1 bd
       0.033709258 0.036842175 0.05368703 -0.07902917
000350 e7 bd ae 3d 94 57 51 bd 90 f6 d5 3c 8a 54 41 3d
       0.08532315 -0.05110891 0.026118547 0.047199763
000360 84 37 bb 3c e8 d8 ce 3c a2 2d 38 3d 82 df 20 3d
       0.02285362 0.025249913 0.044965394 0.039275654
000370 e5 6c af 3d a4 47 83 3c 40 fd c2 bb 18 b4 d6 3c
       0.08565692 0.016025372 -0.0059506 0.026208922
000380 90 37 3b bd a7 84 a5 3d 80 35 f6 ba 1f 07 a9 3d
       -0.045707285 0.08081942 -0.0018784255 0.08253311
000390 07 14 1c bd 32 08 54 3d d8 7a f0 3c 22 6e 8c bd
       -0.038105037 0.05176563 0.029355451 -0.06856944
0003a0 53 0e 3a bd d0 ca f4 3c 18 21 69 bc 54 2f c1 3c
       -0.045423817 0.029881865 -0.014229082 0.023582138
0003b0 c6 0a 3a 3d e6 f9 ac bd ca 51 d5 bc af 3b 70 bd
       0.04542043 -0.08446102 -0.026039977 -0.05865067
0003c0 b3 e6 23 bd 32 65 a3 bd 60 2a 2b 3b 08 b8 2d 3c
       -0.040014934 -0.07978286 0.0026117787 0.0106029585
0003d0 28 c8 04 bc 3e 8a 63 3d 08 24 52 bd 62 d3 3a 3d
       -0.008104362 0.05555176 -0.051303893 0.045611747
0003e0 d2 2d 76 bd 96 d9 0e 3d bd 68 92 3d cf 04 92 3d
       -0.06010229 0.034875475 0.071488835 0.071298234
0003f0 0c 55 83 bc 6e 5b 42 3d 7e 0d 8d bd ee 1f 63 3d
       -0.016031764 0.047450475 -0.06887339 0.055450372

lstm.bias_hh_l0 f4 [512]
000000 76 72 97 bd f4 cb 94 bd d5 5d f0 bc a7 78 56 3d
       -0.073948786 -0.072654635 -0.029341618 0.052361157
000010 b5 a3 1c bc 77 63 17 3f 0a b0 b0 be 73 6f 02 bf
       -0.009560515 0.59136146 -0.34509307 -0.5095131
000020 84 1c f7 bd 8e 11 48 3d 19 2a 68 bf 63 1d ef be
       -0.12065986 0.048844866 -0.90689236 -0.46702108
000030 ea 05 85 be 69 46 01 bd ff 04 8e be 7d fb 3a bf
       -0.25981075 -0.03156129 -0.27738187 -0.7303999
000040 6d 9a 5e bf 80 f9 8c 3e fc 14 d4 be 59 fa 1d 3e
       -0.86954385 0.27534103 -0.4142226 0.15427531
000050 56 f3 b7 3e 2c 69 1d bd 3c 70 d2 be 8e fb bf 3e
       0.35927838 -0.038430378 -0.41101253 0.37496608
000060 3b 7e 9d 3e 6c 19 15 3f 8f 20 37 3f 4f 64 8e be
       0.3076037 0.58241916 0.71534055 -0.27810904
000070 a6 de 13 bf 02 3d a3 3d 7e 52 b6 3d f2 57 47 bc
       -0.5776161 0.07970621 0.08902453 -0.012166964
000080 cf b3 64 bd 37 22 82 3d ef 97 83 be 26 50 e2 3e
       -0.05583554 0.06354182 -0.25701854 0.44201773
000090 71 4b 68 be 52 54 e8 bd c8 8c 0c be 30 10 89 3c
       -0.22685029 -0.11344208 -0.13725579 0.016731352
0000a0 18 b4 c4 3d c3 a2 13 bf 82 57 64 3e 26 4b 0f bd
       0.09604663 -0.5767023 0.22299007 -0.034983777
0000b0 9a c6 9d 3e 6e cc bd 3e 43 09 a4 be ba 3b 08 3c
       0.30815583 0.3707003 -0.32038316 0.008315021
0000c0 a7 78 18 bf 09 16 d9 be e4 71 a6 bc 77 f3 11 bf
       -0.595591 -0.42399624 -0.02031798 -0.5701212
0000d0 df b4 8f be 50 96 5e be d4 f8 37 be a4 b9 6a be
       -0.2806768 -0.21737027 -0.17966014 -0.22922379
0000e0 af a0 18 be 58 d9 ee be 32 0e 02 3f 7e c9 17 3f
       -0.14905046 -0.46650195 0.5080291 0.5929183
0000f0 9f 57 9f be af 67 01 bd d0 3b 1d bf 33 a0 40 be
       -0.31121537 -0.03159302 -0.6141939 -0.18811111
000100 9f 50 a8 3e 4e 45 13 bf f8 6e 6a be d7 e8 eb 3d
       0.3287401 -0.57527626 -0.22893894 0.1151902
000110 78 8c b0 be 11 44 1f be b7 dc 94 be 47 3b 3f be
       -0.3448217 -0.15553309 -0.29074642 -0.18674956
000120 c2 4c 85 be c3 d1 12 3e 28 92 2b bf 1a ee 08 3f
       -0.26035124 0.1433783 -0.6701989 0.53488314
000130 a5 19 59 bf 6c e6 4b bf 91 90 92 3e 75 01 26 3e
       -0.84804755 -0.7964847 0.2862592 0.16211493
000140 bb 78 c8 be f5 a6 34 bf 8f 78 b6 3d 9e 1e 59 bd
       -0.3915461 -0.70567256 0.089097135 -0.053007714
000150 40 d0 95 bd 40 66 5f 3e 07 1f 83 be 7b ea a1 3d
       -0.07315111 0.21816349 -0.2560961 0.07906052
000160 c2 21 e6 be f2 84 03 3e 37 de a9 be ce 5e 42 bc
       -0.4494763 0.12843683 -0.3317735 -0.0118634235
000170 f0 64 4a bf 21 3b 44 be 08 70 1c be 18 fb f0 be
       -0.7906027 -0.19163181 -0.15277112 -0.4706657
000180 93 90 95 be 66 45 91 bf b1 ea 47 bd be df 11 3e
       -0.29211864 -1.1349304 -0.048807804 0.14245507
000190 c1 ae 35 bf 9e 8f 99 bd 73 dd aa be 7b 4e 46 bf
       -0.7096978 -0.07498096 -0.33372077 -0.774635
0001a0 0f fe 1d bf 50 db 08 3f 7d 7d 2e bf 9e f3 87 be
       -0.6171579 0.53459644 -0.6816023 -0.26553053
0001b0 63 66 42 bc b6 1b 36 3e 1b 45 6f bf 90 cb d7 bc
       -0.011865231 0.17784008 -0.9346482 -0.026342183
0001c0 7d 1f 80 3e 70 da 46 be 45 93 db be a6 b2 ac be
       0.25024024 -0.19419265 -0.42885795 -0.33730048
0001d0 73 94 e8 3e 77 40 cc 3d f9 db 7f be fd 81 84 3d
       0.45425758 0.09973233 -0.24986257 0.06470106
0001e0 67 95 a5 be 82 e9 8a 3d 89 c4 73 be 40 8b 72 be
       -0.32340547 0.06782819 -0.23805441 -0.23685932
0001f0 22 94 c3 be d4 31 0e bf ac ab 82 be 01 0b 3c bd
       -0.38198954 -0.5554478 -0.255216 -0.04590893
000200 35 dc 97 bd ba 02 ee bc d4 9e 04 3d 54 d2 97 bd
       -0.07415048 -0.029054035 0.032378033 -0.07413164
000210 92 03 f1 bc 70 a4 79 bc a9 34 83 bd c8 7d 3d bc
       -0.029420648 -0.015236959 -0.064065285 -0.011565633
000220 fd 6a 81 3d a9 69 88 bd 41 05 9a 3d 2c 7e 07 bd
       0.063192345 -0.06660778 0.07520533 -0.03307931
000230 ef 5b b1 3d dc 4f ad 3c 74 2f e0 3c e2 fd 66 3d
       0.08660113 0.021156244 0.027366377 0.056394465
000240 42 1d 18 3d 16 59 36 3d e5 6f 87 3d 3b 49 78 bd
       0.037137277 0.044518553 0.06613139 -0.060616713
000250 44 48 0e 3d 80 76 54 3a 6b 07 4d bd ba 67 31 3d
       0.034736887 0.0008104816 -0.050055902 0.043311812
000260 5d df aa 3d 00 cb 61 bb 52 45 30 bd df a2 ac 3d
       0.083433844 -0.0034453273 -0.04303486 0.08429503
000270 75 f0 84 bd bc 44 dc bc d7 14 7e bd c8 8b 0b bc
       -0.06491176 -0.026888244 -0.062031593 -0.008517213
000280 e1 b7 9c bd 18 fb 8c bd d2 06 47 3d 17 0c 8e 3d
       -0.076522596 -0.0688383 0.04859049 0.069359
000290 6c 9f b6 3c f6 cf 35 3d b7 10 2f bd 79 dc 89 3d
       0.022292815 0.04438778 -0.04274055 0.06731505
0002a0 d0 2d c6 bc 64 f9 a7 3c 48 9b 59 3c de ec e6 bc
       -0.024191767 0.02050466 0.013281651 -0.028189119
0002b0 f4 a2 77 bd 6f 9a 93 3d f8 33 47 3c 80 dc 62 bc
       -0.06045814 0.0720719 0.012158386 -0.013846517
0002c0 1b da 9e 3d f5 48 8a bd a1 b0 89 3d d3 fe 84 3d
       0.07756444 -0.06752197 0.067231424 0.06493916
0002d0 79 0b 21 bd 18 26 dc 3c f4 f4 d9 3c 95 0d af bd
       -0.03931758 0.026873633 0.02660606 -0.085475124
0002e0 b2 75 8a bd 98 7a 4c bd 67 cb ab 3d b0 c6 d3 3c
       -0.0676073 -0.049921602 0.08388405 0.025851578
0002f0 88 46 8c bc d6 50 a4 bd c0 4c 81 3a 79 24 8f bd
       -0.017123476 -0.08023231 0.0009864792 -0.069893785
000300 fa 63 38 3d d0 4f de 3c 34 f6 b6 3c 39 d0 19 bd
       0.04501722 0.027137667 0.022334196 -0.037552092
000310 ef 8d 8b 3d 98 43 02 3d ab 66 ab 3d 4c aa df 3c
       0.06814181 0.031802744 0.08369192 0.027302884
000320 88 bb 9c bd 00 dc d9 3b a6 ec 6a 3d ae 09 d6 bc
       -0.07652956 0.0066485405 0.05735459 -0.026127663
000330 20 35 f0 bb 4a 01 7a 3d 40 94 f2 ba 50 1b 0f bd
       -0.0073305517 0.061036386 -0.0018507317 -0.034938157
000340 c8 c3 1a 3c 40 8e 6a bd 4a f9 41 3d e3 22 4b bd
       0.009446092 -0.057264566 0.04735688 -0.049593817
000350 8a 05 66 3d 38 3c 81 bd 00 46 2f ba 73 ff 3a bd
       0.056157626 -0.06310314 -0.0006686151 -0.04565377
000360 ae 8e 5b 3d c0 a0 9d 3a 6f f5 99 3d 40 39 24 bc
       0.053602867 0.0012026057 0.07517516 -0.010023415
000370 ce 07 b1 bd aa 0f 72 bd b0 b1 a2 bd b3 90 16 bd
       -0.08644067 -0.05909697 -0.079440475 -0.03675909
000380 3a 02 57 3d d2 98 10 3d 1a 5a 0d bd 1e ac 33 3d
       0.052492358 0.03530199 -0.034509756 0.043865316
000390 94 46 03 3d 28 5b 77 bd c7 2a ad bd c2 c9 0b bd
       0.03204973 -0.060389668 -0.08455425 -0.034127958
0003a0 c3 95 6e bd 84 42 ee 3c 4a 0a ac bd a4 a5 24 bd
       -0.058248293 0.029084451 -0.084004 -0.04019703
0003b0 09 e5 ac 3d 14 0d 4d bd 10 28 39 bc 11 b6 97 3d
       0.084421225 -0.0500613 -0.011301056 0.07407773
0003c0 10 32 fa bb 26 1c 84 bd f2 fc 35 bd 94 40 a5 bd
       -0.0076353624 -0.064506814 -0.04443068 -0.08068958
0003d0 c5 79 17 bd d3 57 85 3d 2c 41 a8 bc 5e 4b 7d 3d
       -0.036981363 0.06510892 -0.020538889 0.061839454
0003e0 ce e1 2f 3d e8 12 15 3c 08 e0 63 bc d7 98 38 bd
       0.042939954 0.009098746 -0.013908394 -0.045067634
0003f0 c7 92 7d bd ec 2c b1 3c 06 34 f7 bc c1 62 a1 3d
       -0.061907556 0.021627866 -0.030176174 0.07880164

fc1_action.weight f4 [128, 3]
000000 74 03 ec 3e 98 ac 73 be 34 e8 1a bd 11 f4 01 be
       0.46096385 -0.23796308 -0.037819102 -0.1269076
000010 73 8c 1c 3f fd ca e5 be 57 3d 25 bb 98 b9 a9 bc
       0.6115181 -0.4488143 -0.0025213563 -0.02071838
000020 33 35 b6 bc cc 60 52 3e df 93 d1 3d aa 07 d3 3d
       -0.022242164 0.20544738 0.10233282 0.10304196
000030 62 7f d3 bd 66 a5 ce be ac be d8 3d 7e 07 fb 3d
       -0.10327031 -0.40360564 0.10583243 0.122572884
000040 50 77 5c bd c6 23 85 3e 7e 41 f6 3c ec 2f c2 3c
       -0.053824723 0.26003855 0.030060526 0.023704492
000050 76 64 ff 3c 91 52 b3 bd d3 82 81 bd b8 f6 7d bc
       0.031175833 -0.08755983 -0.06323781 -0.015500717
000060 3e 8a 25 3e 8e 24 2b 3e c5 6f b7 3e 83 f8 67 bd
       0.16166016 0.16713163 0.3582746 -0.056633484
000070 98 16 64 bb 8f f6 c7 bd 4a d8 79 be 8f 0a aa bc
       -0.0034803506 -0.09763824 -0.24398914 -0.020756988
000080 bf 46 07 bd ff 2a a3 be 5a 19 7a be c5 db 3a 3e
       -0.033026453 -0.3186874 -0.24423733 0.18247898
000090 28 d6 7f 3c 10 34 8c bd b3 5f 6b bd b8 75 07 be
       0.015615024 -0.06845868 -0.057464313 -0.132285
0000a0 34 5b 20 bd 9c 27 7f 3e c8 a4 9e 3d fc 98 67 3c
       -0.039149478 0.24917454 0.07746273 0.014135595
0000b0 23 b8 8b b9 6f e5 cb be 07 fb 10 3e bb 4e 1e be
       -0.00026649339 -0.3982348 0.1415826 -0.15459721
0000c0 6c 21 50 bd c1 8b e0 bc d6 5d 0b bd 16 cc 5e be
       -0.050813124 -0.02741039 -0.034025036 -0.2175754
0000d0 39 19 21 bd 0d 22 c2 bc b3 a6 eb bd 57 ac bf 3c
       -0.039330695 -0.023697877 -0.11506405 0.023397608
0000e0 c8 3f df be 38 c7 41 3d bf 82 17 bc f2 64 81 3d
       -0.4360335 0.04730913 -0.009247481 0.06318082
0000f0 65 9e 99 bc b8 a5 41 bd 89 b7 fe bc bd 84 a1 be
       -0.018752286 -0.047277182 -0.031093376 -0.31546584
000100 40 a3 04 3e e0 e8 05 bf f8 15 14 3c 79 ad cf bb
       0.129529 -0.52308464 0.009038441 -0.006337818
000110 d5 ff 9b ba 0f f8 03 bb 7c 48 fb bb 5a 1a c7 3c
       -0.0011901805 -0.0020136868 -0.007668553 0.024304558
000120 1b dd cc 3d e6 26 4d bc b6 2c cb 3d f3 be 4e bc
       0.1000311 -0.012521481 0.09920637 -0.012618768
000130 73 b2 41 bc 69 2b 4a bd cd a9 84 3e 5b 74 b1 be
       -0.011822331 -0.049357805 0.25910798 -0.34659085
000140 c8 23 95 be 19 f3 09 3d e7 4a 19 3d e7 5d ff 3c
       -0.2912886 0.0336791 0.037424948 0.031172706
000150 6b 22 61 3e 75 76 07 3f 96 16 ba 3d 69 81 cd 3d
       0.21985786 0.52915126 0.09086339 0.10034449
000160 16 2c cc be 39 15 e2 be ea ff 0f 3e c2 1d 51 3d
       -0.39877385 -0.44156817 0.14062467 0.05105377
000170 a1 40 97 ba 07 c3 0e be b1 36 3c be 41 51 38 be
       -0.0011539647 -0.13941585 -0.18380238 -0.17999746
000180 d5 09 69 bc 3d ee 42 3a 1d 09 cc 3b ce a7 84 be
       -0.014223536 0.0007436013 0.0062266723 -0.25909275
000190 70 e0 00 be 50 2d 5d be 37 9c 30 3e e0 26 df 3d
       -0.12585616 -0.21599317 0.17247091 0.10896087
0001a0 c3 f3 10 3b 2b b1 f0 bc a1 1f 4e bc 7a fd dd bc
       0.002211795 -0.029381355 -0.012580783 -0.027098406
0001b0 c7 13 f2 bd 02 79 a6 be 27 b4 ca bd 29 cb 3c 3e
       -0.118201785 -0.32514197 -0.098976426 0.18436874
0001c0 88 60 43 be 07 24 ee be 5a c2 3c 3e 90 f1 18 be
       -0.19079792 -0.46511862 0.18433514 -0.14935899
0001d0 52 5d 96 bd 38 df 25 3c 93 35 21 bd 5b eb cb bc
       -0.07342018 0.01012402 -0.039357733 -0.0248925
0001e0 01 9f 60 be 28 1e 6b 3e 00 2f 62 3e 21 10 e5 bd
       -0.21935655 0.22960722 0.22088242 -0.11184717
0001f0 bf d6 b3 bc d4 a1 8a bc 2d 4e bf 3e fd 55 f5 3e
       -0.021952985 -0.016922869 0.3736433 0.47917166
000200 a5 ca c2 3e 4e 4e 36 3d 47 a5 08 3e a5 f5 21 3d
       0.3804523 0.04450827 0.13344298 0.039540906
000210 31 a2 38 3e 40 05 0e be bf da 30 be 75 8e 95 3d
       0.18030621 -0.1386919 -0.17270945 0.07302562
000220 5e 87 0e 3d 62 43 32 be f2 04 36 3e 77 b0 02 3e
       0.034797065 -0.17408517 0.17775324 0.12762628
000230 a6 9c c8 3d 5c 22 20 3c 1e 23 aa 3c d8 10 9f bb
       0.09795503 0.009773817 0.020768698 -0.004854303
000240 72 07 09 3e 7d cb 0f be 70 e7 de bd 35 4b 0a 3d
       0.13381746 -0.14042468 -0.10883987 0.03376313
000250 b2 d8 86 3d bc 90 0c 3e 36 9e 0c 3e cc fe e9 be
       0.065843 0.13727087 0.13732228 -0.45702207
000260 03 62 7e bc e0 a6 d7 bc c7 3b 52 3b 93 46 81 bd
       -0.0155262975 -0.02632469 0.0032079087 -0.06312289
000270 4f bf 87 bc 0a e2 6f 3e 12 b6 e2 bd 4f 21 ba be
       -0.016570715 0.23426071 -0.110698834 -0.36353537
000280 1d fd fc be bb 32 1b 3e 1b f9 04 bf 7d c7 4a be
       -0.4941186 0.15156071 -0.51942605 -0.19802661
000290 3b fd be 3d 48 4c 00 3d 8d e1 41 bc a6 9f 91 3e
       0.09325644 0.031322747 -0.011833561 0.28442115
0002a0 56 4f b7 be 93 4b 9c bc d2 71 42 bc df 13 1c be
       -0.35802716 -0.019079005 -0.011867957 -0.15241955
0002b0 cd 3c 4b be ef 89 01 bc 2e b8 b4 3c 22 4d 6c 3c
       -0.19847412 -0.007906421 0.02206048 0.014422687
0002c0 c7 03 1c 3a 51 00 20 bc 3a b1 9f be 8d 60 a2 bd
       0.00059514906 -0.0097657 -0.311899 -0.07928572
0002d0 83 e2 82 be a3 80 e8 bc c6 07 60 bd bb ca a1 3e
       -0.2556344 -0.028381651 -0.054694913 0.31599984
0002e0 8d b6 69 be d4 26 23 be 27 b4 c6 3c 18 2d 45 be
       -0.22823544 -0.1593278 0.024255825 -0.19255483
0002f0 92 9b 21 3e 59 41 99 bc 14 72 a2 bd fe fb 25 3e
       0.15782002 -0.018707918 -0.07931915 0.16209409
000300 5e e2 0e 3d bf e4 4f 3d c3 0b 9f 3b d5 09 c7 3e
       0.03488385 0.05075526 0.004853697 0.3887469
000310 53 ff 03 3f b6 05 87 3e 04 80 b5 3d 2e 45 be 3d
       0.5156147 0.26371545 0.08862308 0.09290539
000320 ec 33 26 3d e7 6f a6 3c 90 11 0a be 3a 04 a0 be
       0.04057686 0.020317031 -0.13483262 -0.31253225
000330 df db a7 bd 17 a0 98 bc 5d 92 bd 3b ea 92 46 3d
       -0.08196234 -0.018631024 0.00578527 0.048479952
000340 21 52 a3 3e 78 c1 f3 be dc 8a c0 bb e5 8e aa bd
       0.31898597 -0.47608542 -0.0058759283 -0.08328036
000350 a1 13 73 bd 14 69 e7 bc a3 df 85 bc 74 7b 65 bc
       -0.05934489 -0.028248347 -0.01634199 -0.014006484
000360 90 a0 d1 bd a0 a6 bd 3c 0c e5 b8 bd ed 55 11 3e
       -0.10235703 0.023150742 -0.09028062 0.14192934
000370 5c 1c fb 3d 9f 1a f4 3d 46 b4 75 bc 5c cc 25 bd
       0.122612685 0.1191914 -0.014996594 -0.040478095
000380 94 54 2c 3e b7 22 b6 bb 1d b8 0c bf 33 05 e1 bd
       0.16829139 -0.0055583376 -0.54968435 -0.1098732
000390 19 45 93 be b1 b6 db be 79 8c ac be 7d e8 93 3d
       -0.28763655 -0.4291282 -0.33700922 0.07222078
0003a0 b5 bd ce 3c 9a 16 f4 3c 70 f1 d6 be ce 63 29 3e
       0.025236944 0.029795934 -0.41981077 0.16541979
0003b0 9b a2 e1 be bf 77 c1 39 89 81 82 bc c0 80 10 bc
       -0.4406937 0.00036901046 -0.015930908 -0.008819759
0003c0 b8 30 8b 3e b5 cc 3b bc 6c 0f d0 be 85 e9 f2 bc
       0.27185607 -0.01146238 -0.40636766 -0.029652366
0003d0 53 8a 56 3c f0 5c b9 be 7b ab e4 3e 51 23 61 3e
       0.0130945025 -0.36203718 0.4466208 0.21986128
0003e0 e7 24 ce bc a0 21 30 bd 28 a7 11 3e 20 db d2 3c
       -0.02516408 -0.043000817 0.14223921 0.025739253
0003f0 3a 2c a7 be 94 e4 12 be b1 a8 19 be 10 76 f2 3c
       -0.3265093 -0.14345008 -0.15005757 0.029597312

fc1_action.bias f4 [128]
000000 32 3b b5 3d d7 6d 5a bf 4b fa 4b bd a3 b7 d7 be
       0.08849181 -0.8532385 -0.049799245 -0.4213229
000010 c8 54 1e bf ef 8f 5d 3d ef f0 d8 bd 6d 08 2e be
       -0.61848116 0.054092344 -0.105928294 -0.16995402
000020 d3 90 3d bf 5b aa 44 be 08 ac 9d be 8b b1 82 3a
       -0.7404911 -0.1920561 -0.30795312 0.0009971125
000030 f0 dc 3c be da 89 da be 90 d5 d5 bd 8a d1 35 bf
       -0.18443656 -0.42683297 -0.104411244 -0.71022856
000040 c4 74 ef bd 51 05 91 be df b5 18 bf 02 69 f5 bd
       -0.11692193 -0.2832437 -0.59652513 -0.11982919
000050 d9 da ce bd cf 62 d9 be 63 81 79 bd b5 b5 19 bd
       -0.10100336 -0.42458197 -0.06091441 -0.037526805
000060 64 cb 91 be c6 3e 9a bd f2 94 b6 be b6 ab d5 bd
       -0.28475487 -0.07531504 -0.3566051 -0.10433142
000070 4c 0a 57 bf 13 34 6d bf 94 7c 4a be 95 70 0e bf
       -0.84000087 -0.92657584 -0.19774085 -0.55640537
000080 5e ee ae bc 0b 6b 96 3c 30 3b 91 be 36 84 a9 bd
       -0.021353897 0.018361589 -0.2836547 -0.0827717
000090 fd cd a2 3d ea 72 5d bf 2f e4 ce be 31 20 a1 bd
       0.079494454 -0.8650347 -0.40408465 -0.07867468
0000a0 ca ff 2c bf 46 95 1a be f8 2f 0b bf 88 96 62 be
       -0.67577803 -0.15096006 -0.5437007 -0.22127736
0000b0 2c 48 00 bf 0d ec 9d be 38 e5 cf be a4 b9 12 bd
       -0.50110126 -0.30844155 -0.40604568 -0.035821572
0000c0 78 5e cc be cb 12 74 be 0a a5 1b bf 3b 60 d0 bd
       -0.39915824 -0.23835294 -0.60798705 -0.101746045
0000d0 2c 66 bf be 2c 39 49 bf e8 0a f4 be a0 20 a8 be
       -0.37382638 -0.7860286 -0.4766457 -0.3283739
0000e0 c1 cf c7 be 9e 67 bd be 1e 91 18 bd d5 a5 d0 be
       -0.3902569 -0.36993116 -0.03724777 -0.4075152
0000f0 3d 58 c3 be 33 ed 34 bf c1 f8 bf be 0b ff 88 be
       -0.38153258 -0.7067444 -0.37494472 -0.26757082
000100 bd 5e db bd ff 72 22 bf f8 56 69 be bb c9 90 bd
       -0.10711429 -0.6345672 -0.22787082 -0.07069727
000110 7a c5 fb bd 44 27 57 bf be d6 1a be 7a 7e 8e bd
       -0.12293525 -0.8404429 -0.1512098 -0.06957717
000120 91 79 04 bf 52 8d c4 be 33 95 68 be ae c5 2a bf
       -0.51747996 -0.3838907 -0.22713165 -0.66707885
000130 0e cf d7 be 49 60 15 be 5c c7 15 be 97 fd 19 bd
       -0.42150158 -0.14587511 -0.14626831 -0.037595358
000140 66 57 31 bf 91 0a dd be 3e 4e ec 3d fc bb fe be
       -0.69273984 -0.43172124 0.11538361 -0.49752796
000150 16 5f 1e bf 7a 24 a3 bd 17 02 37 bf 24 be 31 be
       -0.6186384 -0.07965942 -0.71487564 -0.17357689
000160 2f d4 f2 bd 08 75 6e be 8c 15 a9 3c 91 d9 38 be
       -0.11856877 -0.23286831 0.020640157 -0.18051745
000170 d3 ae cd be 81 93 45 be a3 90 d4 be ac dc 76 bd
       -0.40172443 -0.1929455 -0.415166 -0.060269043
000180 61 44 cd be 34 83 11 be 03 3d c7 be 56 dc 23 bf
       -0.4009123 -0.14210206 -0.38913736 -0.6400808
000190 20 c1 b6 bc ee 74 8e be a2 d4 19 bf 22 d7 0c bf
       -0.022308886 -0.27823585 -0.60090077 -0.55015767
0001a0 cd 51 be be 03 04 e7 bd dd 68 c6 be 13 8b c1 bd
       -0.37171784 -0.11280062 -0.3875188 -0.094503544
0001b0 c8 b8 02 bf ea 14 c2 bd 55 c7 17 be 0b ce 1c bf
       -0.51063204 -0.09476645 -0.14822133 -0.61251897
0001c0 e6 f5 2d bf d3 57 15 be b4 bd fa be 13 1a 07 bd
       -0.67953336 -0.14584284 -0.48972857 -0.03298385
0001d0 7a c5 53 be ab 80 5c be 72 6c 52 bf b5 d4 5a bf
       -0.206808 -0.21533458 -0.82196724 -0.85480815
0001e0 43 8c 91 be c3 62 3f bf 15 73 81 bd f0 0e 42 be
       -0.28427324 -0.74760073 -0.06320778 -0.1895101
0001f0 36 e1 19 bd 90 39 da be c8 b2 f7 be 4e 31 e0 be
       -0.037568294 -0.42622042 -0.48378587 -0.43787616
