rdpg/checkpoints/rdpg_traj_track/target_critic.pth (torch, 803594 bytes, 11 tensors)

fc1_state.weight f4 [128, 9]
0.077057965 0.3540999 0.18842198 -0.01649975 -0.0068287915 0.043330017 0.17411728 3.3133256
0.3131282 0.021118345 0.014369851 -0.1341093 -0.005235037 0.016148452 0.006554633 -0.09483628
4.3912945 0.57613355 0.37078583 -0.75669366 -0.007689425 -0.29703552 -0.29376155 0.40828437
-0.81553835 0.53889924 -0.46266657 -0.073842034 -0.13605517 0.19865203 0.124972425 0.026127536
-0.05531577 -1.2867821 1.8672125 -0.29234022 -0.4072209 -0.67798036 -0.8146383 0.25447962
0.4436513 -0.22566584 0.30108568 0.48424062 -0.25989062 1.5953768 -0.5827722 -0.11657675
0.0062884656 -0.022685517 0.020812953 -0.74600154 0.14735879 -0.107051454 0.6029959 -0.9896968
-3.1392474 0.40529835 -0.24606228 -0.008699536 -0.7077926 -1.2625922 -0.047870535 -0.75030947
0.72675234 -0.32841197 -0.009785888 -0.0059016114 0.006779678 0.5879999 -0.6317032 0.31499207
-0.12432654 0.21094283 0.3931151 -0.021889675 0.00045842308 0.031199843 1.1202432 1.8674985
0.3662905 1.4485189 -0.21334155 -3.039414 0.009387692 -0.022069765 -0.01351888 -0.35420838
-0.184133 0.2998244 0.10453294 -0.0045681144 0.36941972 0.05187875 0.055239968 -0.07107572
-1.5365946 -0.8653586 0.17764379 -0.5434759 -0.74121225 0.15052979 0.026607493 -0.064563476
0.039871175 -1.3670796 0.9926144 0.7728458 1.1789621 0.1122364 -2.2815342 -0.01701498
0.025799597 0.09061962 -1.3688889 0.4297534 0.18890475 -0.05636884 0.15749645 0.040546957
0.008375555 0.002175158 0.01466519 -0.4377004 -5.810444 -0.3096902 -0.19315648 -0.079882964
-0.02398661 0.0055238195 -0.08136414 0.025647346 0.009462525 0.48544154 -0.62760776 -0.4470644
-0.35362527 1.0256176 0.02291415 -0.0031582061 0.22144516 -0.7686295 0.9973138 -0.995522
0.61967486 0.37195194 0.8353836 -0.011000168 0.0055971583 0.015884245 0.8640035 -1.3530017
-0.4943007 1.0229466 -0.6488979 0.028419307 0.02463987 0.0490426 -0.057066575 -1.07127
-0.37695912 0.07491285 0.4528831 -0.45159233 -0.10488508 -0.39290938 -0.28711388 0.49426666
-0.37040374 0.013185213 -0.49771217 -0.3669127 0.47161928 0.10421392 -0.13826431 0.1305137
0.091953605 0.3841756 1.755065 0.51722246 -0.6032694 -0.2702445 0.7406892 -0.20565839
-0.046834037 0.084368184 -0.58953506 -1.9880071 -0.83577543 1.0914425 -0.057555273 -3.1771743
0.044736188 0.033160374 -0.1344711 0.27686435 0.18044555 0.04935189 -0.2528973 0.024831379
-0.44608584 0.0504893 -0.25501153 0.8173378 -0.40030244 0.84354097 0.2555624 -0.09728112
0.12422862 0.06514232 0.53308487 0.26811624 -0.20437336 0.26090157 1.3850087 -0.26872203
-0.34269425 -0.11724766 0.08520418 0.069933444 0.029519789 0.14023048 -0.28433532 0.22233003
0.22754541 0.20443885 0.67410934 -0.29206342 0.006621268 -0.038061034 -0.16603097 0.6043644
-0.9015203 -1.0388815 -0.021519428 -0.25922337 -0.4919931 0.037603464 0.06307955 -0.055544928
-0.68839216 -2.6891656 0.354016 0.32063463 -0.6527256 -0.81145984 0.0865611 0.016995791
-0.28062406 -0.13157141 2.3628285 -0.752732 -0.47892275 0.5969402 0.69111997 -0.007110212
00000000: 91d0 9d3d 954c b53e b1f1 403e 7c2a 87bc
00000010: 0ec4 dfbb d17a 313d cd4b 323e 870d 5440
00000020: 5752 a03e 6100 ad3c 866f 6b3c f353 09be
00000030: ac8a abbb c249 843c 3fc8 d63b 8639 c2bd
00000040: 7c85 8c40 7d7d 133f a4d7 bd3e adb6 41bf
00000050: 92f7 fbbb 0a15 98be ea67 96be a60a d13e
00000060: 1fc7 50bf 4df5 093f a2e2 ecbe 7e3a 97bd
00000070: 0c52 0bbe 706b 4b3e 8bf1 ff3d 6a09 d63c
00000080: ca92 62bd 47b5 a4bf d200 ef3f 9ead 95be
00000090: 427f d0be 1f90 2dbf 238c 50bf 274b 823e
000000a0: 4326 e33e f214 67be e727 9a3e 63ee f73e
000000b0: 6210 85be 4f35 cc3f 8f30 15bf cbbf eebd
000000c0: 790f ce3b fad6 b9bc ed7f aa3c f5f9 3ebf
000000d0: 39e5 163e cb3d dbbd f05d 1a3f c55c 7dbf
000000e0: 6ee9 48c0 4483 cf3e c0f7 7bbe 8088 0ebc
000000f0: e531 35bf 9f9c a1bf e513 44bd 4814 40bf
00000100: 710c 3a3f 9d25 a8be fd54 20bc 4e62 c1bb
00000110: 1028 de3b 2987 163f 4db7 21bf a446 a13e
00000120: ea9e febd 6601 583e 6246 c93e fa51 b3bc
00000130: 8158 f039 d096 ff3c 2164 8f3f 310a ef3f
00000140: 6e8a bb3e 1169 b93f 3576 5abe c285 42c0
00000150: d6ce 193c a7cb b4bc 4b7e 5dbc cd5a b5be
00000160: 5c8d 3cbe 9582 993e 5e15 d63d 1fb0 95bb
00000170: 9524 bd3e d07e 543d 4e43 623d 2690 91bd
00000180: 22af c4bf 2488 5dbf 41e8 353e 3d21 0bbf
00000190: 16c0 3dbf 7b24 1a3e f5f7 d93c db39 84bd
000001a0: f54f 233d 77fc aebf fa1b 7e3f 39d9 453f
000001b0: 3be8 963f 33dc e53d a804 12c0 0063 8bbc
000001c0: ad59 d33c c896 b93d c037 afbf a308 dc3e
000001d0: 3f70 413e 03e3 66bd c046 213e 9114 263d
000001e0: a039 093c 188d 0e3b 4446 703c 441a e0be
000001f0: 28ef b9c0 b78f 9ebe d0ca 45be ae99 a3bd
00000200: 917f c4bc 2801 b53b 3ea2 a6bd 621a d23c
00000210: b508 1b3c cb8b f83e e7aa 20bf a0e5 e4be
00000220: 5f0e b5be 7047 833f 75b6 bb3c e8f9 4ebb
00000230: 85c2 623e e7c4 44bf f54f 7f3f 88da 7ebf
00000240: 03a3 1e3f 7c70 be3e b3db 553f 0c3a 34bc
00000250: 5e68 b73b ad1f 823c 552f 5d3f 292f adbf
00000260: fb14 fdbe eaef 823f 2c1e 26bf 9bcf e83c
00000270: 8dd9 c93c e5e0 483d a4be 69bd 601f 89bf
00000280: c900 c1be e96b 993d 4be0 e73e 1c37 e7be
00000290: fdcd d6bd 6b2b c9be 9700 93be 8510 fd3e
000002a0: 8fa5 bdbe cb06 583c 21d4 febe fbdb bbbe
000002b0: 1578 f13e 1c6e d53d 2995 0dbe 62a5 053e
000002c0: 2c52 bc3d aab2 c43e f8a5 e03f b168 043f
000002d0: dd6f 1abf 7d5d 8abe cf9d 3d3f 1d98 52be
000002e0: 0cd5 3fbd 3ac9 ac3d c5eb 16bf 0477 febf
000002f0: 61f5 55bf 63b4 8b3f 14bf 6bbd d356 4bc0
00000300: 4b3d 373d 2cd3 073d cbb2 09be 2ac1 8d3e
00000310: b8c6 383e 3525 4a3d c17b 81be 2d6b cb3c
00000320: 5d65 e4be decd 4e3d df90 82be 0d3d 513f
00000330: 71f4 ccbe 4df2 573f 13d9 823e 533b c7bd
00000340: 936b fe3d 5669 853d 4078 083f 8846 893e
00000350: 4047 51be e494 853e f747 b13f ef95 89be
00000360: 9f75 afbe 8b1f f0bd 877f ae3d 4439 8f3d
00000370: 7cd3 f13c 9498 0f3e 6694 91be 7caa 633e
00000380: aa01 693e 6b58 513e 6e92 2c3f 5689 95be
00000390: 39f7 d83b e3e5 1bbd 0604 2abe a0b7 1a3f
000003a0: 09ca 66bf 12fa 84bf 8349 b0bc edb8 84be
000003b0: 85e6 fbbe 1706 1a3d da2f 813d 1483 63bd
000003c0: 783a 30bf 4a1b 2cc0 9641 b53e 392a a43e
000003d0: 0619 27bf d5bb 4fbf f246 b13d c23a 8b3c
000003e0: f5ad 8fbe a8ba 06be 9538 1740 0bb3 40bf
000003f0: 5d35 f5be 13d1 183f 3ded 303f c8fc e8bb

fc1_state.bias f4 [128]
-0.43467212 -0.06021177 -0.7010671 -0.14201865 -0.106222816 0.21754827 -0.36823076 0.011404824
-0.45003876 -0.1389252 0.32592 0.29974237 -0.19015242 0.30973256 -0.06024508 -0.11907024
-0.35567215 -0.16766517 -0.43326095 -0.65136915 0.029953338 -0.21984603 -0.008751469 -0.48458096
-0.3274593 -0.3662639 0.044820305 0.005195924 -0.17291807 -0.40153328 -0.23817295 -0.07194146
-0.37978628 -0.30479264 -0.18933798 -0.5793756 -0.2641591 -0.471959 -0.39186814 0.22715244
0.1435851 -0.011280796 -0.1026298 0.09626961 -0.35759544 -0.43603164 -0.15541406 -0.5350221
-0.20652558 -0.36666727 -0.6411577 -0.47555792 0.10212364 0.3935834 -0.124007136 0.5824689
-0.16022708 -0.28475043 -0.1267509 -0.17897794 -0.11984434 -0.44975388 0.19863023 -0.25016952
-0.3652602 -0.042923935 -0.07636033 0.049857516 -0.5225441 0.29293236 -0.13523358 -0.16148852
-0.1293206 -0.11472953 -0.036555544 -0.5132025 -0.5477574 -0.16061346 0.13924676 0.5225352
-0.23997003 0.15673056 -0.43365204 -0.52831197 -0.20935048 0.055317827 -0.3123233 -0.030779725
0.48471922 -0.14580598 -0.34154925 -0.26080945 0.2571237 0.08778675 0.14651737 -0.6937007
-0.34470356 -0.31687564 -0.15344973 -0.13011307 -0.3709886 -0.5930996 -0.3784571 0.12617554
-0.29097247 -0.4110132 -0.31730863 -0.48517907 0.76268953 -0.028391683 0.15878081 0.20479633
-0.21180056 0.46119088 -0.19220066 -0.39136362 -0.29166034 -0.03424208 -0.4277652 0.33648697
0.23253195 -0.24843985 -0.3609905 -0.28773874 -0.5060331 -0.342146 -0.9150333 -0.2226123
00000000: 588d debe 9ea0 76bd 2279 33bf 566d 11be
00000010: 598b d9bd f9c4 5e3e be88 bcbe 4ddb 3a3c
00000020: 7b6b e6be 6842 0ebe fcde a63e d577 993e
00000030: 51b7 42be 4495 9e3e 8cc3 76bd 19db f3bd
00000040: a91a b6be 6bb0 2bbe 61d4 ddbe 21c0 26bf
00000050: b460 f53c 511f 61be 5262 0fbc ff1a f8be
00000060: bfa8 a7be f186 bbbe 7f95 373d 9242 aa3b
00000070: 6f11 31be c595 cdbe 9ce3 73be 0b56 93bd
00000080: 5973 c2be c80d 9cbe d1e1 41be f651 14bf
00000090: dd3f 87be 9ca4 f1be f1a2 c8be a69a 683e
000000a0: f907 133e 16d3 38bc 932f d2bd 0029 c53d
000000b0: c016 b7be 8a3f dfbe dd24 1fbe 35f7 08bf
000000c0: 717b 53be d0bb bbbe e922 24bf 547c f3be
000000d0: 3326 d13d c383 c93e 74f7 fdbd af1c 153f
000000e0: 9112 24be cfca 91be fdca 01be fe45 37be
000000f0: f370 f5bd 2446 e6be b965 4b3e 3816 80be
00000100: 6303 bbbe 02d1 2fbd ce62 9cbd 6537 4c3d
00000110: 73c5 05bf 3bfb 953e ac7a 0abe 3f5d 25be
00000120: 9f6c 04be 51f7 eabd 44bb 15bd 3d61 03bf
00000130: d439 0cbf db77 24be b496 0e3e dec4 053f
00000140: b4ba 75be fa7d 203e a407 debe 743f 07bf
00000150: f95f 56be f294 623d d7e8 9fbe c325 fcbc
00000160: 1e2d f83e 2a4e 15be 8bdf aebe d188 85be
00000170: b8a5 833e 8ac9 b33d a608 163e 5e96 31bf
00000180: fc7c b0be 863d a2be ed21 1dbe 5c3c 05be
00000190: 38f2 bdbe 60d5 17bf 21c5 c1be 2934 013e
000001a0: 58fa 94be 5270 d2be 4776 a2be 6469 f8be
000001b0: 9f3f 433f ad95 e8bc 7097 223e 21b6 513e
000001c0: 3fe2 58be 3621 ec3e 40d0 44be d060 c8be
000001d0: 8154 95be 6c41 0cbd 0a04 dbbe 0548 ac3e
000001e0: db1c 6e3e 0467 7ebe bfd3 b8be 7e52 93be
000001f0: 638b 01bf c32d afbe 9f3f 6abf 7bf4 63be

lstm.weight_ih_l0 f4 [512, 128]
-1.1264473 -0.41885224 -0.15745561 -1.200832 -0.062409 0.10193803 -0.74634355 -0.15531376
0.6064042 -1.4770052 -0.18196303 0.022571182 -0.17642605 -1.5951198 0.33382505 -0.13675356
0.07380069 0.030629624 -0.69830793 -0.507928 -0.7124945 -1.342195 -0.36241466 -0.22156195
-0.011259422 -0.32309476 -0.3598563 -0.2881479 -0.29134804 0.74034965 -0.43089727 -0.14000887
-0.24353737 -0.40576375 -0.23421033 0.03185611 0.009082174 0.12363929 -0.03207888 -0.11337112
-0.11037375 -0.6085513 -0.1947654 -0.62693805 -0.03943857 -0.0006193777 -0.27053213 -0.88570404
-0.9983607 0.084937446 -0.27684125 -0.53536195 -0.4162793 0.10044799 0.16609888 -1.247862
-0.7046045 -0.10831843 -0.360224 0.3546821 0.13599433 -0.6790842 -0.58723485 0.19589497
-0.07287705 -0.67445254 -0.1913922 -0.61783254 0.40550116 -0.12640409 -1.0473559 -0.38381553
-0.49065888 0.08148188 -0.76014495 -0.4464534 -0.09020302 -0.668861 -0.37761918 -0.5252637
0.151162 -0.58107424 0.06488034 -0.59642595 0.10835459 -0.82581913 -0.29310554 0.55607396
-0.29746962 -0.51577187 -1.1992451 0.06609435 -0.55400527 0.19554581 0.23035116 0.35615644
-0.69590795 -0.24324618 -0.12834917 -0.5869432 -0.6077117 0.10014254 -1.4850035 -0.8567798
-0.5808259 0.25058267 -0.012634799 -0.08778385 -0.6527982 -1.1046524 -0.5361457 0.11265094
-0.01122851 -0.25726166 -0.052509446 0.055654228 -1.0266248 0.72675914 0.2178703 0.29538006
0.4115495 -0.55556947 -0.044790044 -0.8151837 -0.13976774 -0.9540643 -0.6249101 0.43822175
-0.4272365 -0.27736232 -0.2907138 -0.14383957 -0.12877262 0.5610827 -1.058548 -0.42986983
-0.07288832 0.55784076 0.70246696 -1.2555985 0.37562886 0.34046802 0.0346985 1.1192933
0.865609 -0.27025083 0.30689445 -0.15594995 0.13413194 0.5120413 -0.50833374 -0.11604983
-0.030859403 -0.2464567 0.45176393 -0.16218068 -0.53703415 -0.20536178 -0.22478871 0.05250374
-0.017491559 -0.5388484 0.34016305 -0.30412406 0.08157723 1.1058207 -0.48408258 -0.33428314
0.68790656 -1.4832464 0.72996104 0.17511745 0.04888517 1.0068078 -0.32376254 -0.90752465
-1.7286916 -0.39888954 0.2264653 0.86269355 -0.75549823 0.50707734 -0.11079695 -0.978769
-0.71553874 -0.31022084 -0.63682264 0.76524657 1.1310569 -0.042728066 -0.69538766 -0.5112994
-0.11931284 0.14306088 -0.15770362 -0.26183358 -0.16488299 0.09477364 -0.71145856 -0.5865043
-0.47346944 -0.21158114 -0.6903175 -0.35644504 -1.8633057 -0.29398787 1.1261761 -0.21961151
-0.33473703 -0.5997386 0.031098219 -0.9934267 -1.2280182 0.06347661 0.6304749 -0.6754792
-0.52771217 -1.5614245 -0.56496495 0.8716302 0.13203031 0.5381709 -1.0800631 -0.35509023
-0.27170706 -0.9906711 -0.5734188 0.16155834 0.011933514 -1.493742 0.747282 -0.13009532
0.64568925 -0.25475943 -0.013201603 -0.28213993 -0.57530093 0.032404 -0.195792 -0.76462066
0.15419142 -0.7990247 0.54884756 1.3774947 -0.30933416 0.6739041 -0.80610466 0.04600676
-0.81756735 -0.31902525 -0.5640794 -0.68982315 -1.4862771 -0.21334702 -0.664478 -0.035751443
00000000: 6d2f 90bf cd73 d6be 0b3c 21be ddb4 99bf
00000010: 94a0 7fbd e3c4 d03d 5f10 3fbf 920a 1fbe
00000020: 4e3d 1b3f 820e bdbf 8454 3abe 33e7 b83c
00000030: 08a9 34be e32c ccbf 1eeb aa3e 2009 0cbe
00000040: d124 973d faea fa3c 4fc4 32bf 9207 02bf
00000050: 0a66 36bf 0ccd abbf 6a8e b9be 23e1 62be
00000060: 7079 38bc ad6c a5be 163f b8be 1f88 93be
00000070: 922b 95be 8e87 3d3f 919e dcbe 7c5e 0fbe
00000080: dc61 79be 44c0 cfbe d5d4 6fbe 8d7b 023d
00000090: 66cd 143c 9936 fd3d 2565 03bd 1e2f e8bd
000000a0: a20b e2bd 05ca 1bbf 9570 47be 037f 20bf
000000b0: 578a 21bd bc5d 22ba 3083 8abe 80bd 62bf
000000c0: 9194 7fbf aff3 ad3d 23be 8dbe 7b0d 09bf
000000d0: 8f22 d5be adb7 cd3d d315 2a3e f1b9 9fbf
000000e0: f660 34bf 0ed6 ddbd 486f b8be e498 b53e
000000f0: 1942 0b3e 76d8 2dbf 0655 16bf b198 483e
00000100: 9040 95bd eca8 2cbf 51fc 43be 462a 1ebf
00000110: d99d cf3e 1370 01be c20f 86bf 7883 c4be
00000120: a437 fbbe f9df a63d dc98 42bf 8a95 e4be
00000130: 5cbc b8bd 793a 2bbf 4d57 c1be af77 06bf
00000140: 36ca 1a3e 48c1 14bf fcdf 843d 5faf 18bf
00000150: 03e9 dd3d e268 53bf ee11 96be dd5a 0e3f
00000160: f04d 98be a009 04bf dd80 99bf 795c 873d
00000170: 4ad3 0dbf 293d 483e 2de1 6b3e 235a b63e
00000180: 0627 32bf 8715 79be f76d 03be e941 16bf
00000190: fe92 1bbf 8817 cd3d 9814 bebf ec55 5bbf
000001a0: 02b1 14bf 5f4c 803e 3002 4fbc 05c8 b3bd
000001b0: c81d 27bf 4065 8dbf d840 09bf 89b5 e63d
000001c0: c9f7 37bc cdb7 83be 2514 57bd b0f5 633d
000001d0: 7168 83bf e30c 3a3f 6419 5f3e 0e3c 973e
000001e0: 9eb6 d23e cd39 0ebf c475 37bd e1af 50bf
000001f0: 461f 0fbe 8f3d 74bf 1cfa 1fbf 9a5e e03e
00000200: bebe dabe 6f02 8ebe 70d8 94be ae4a 13be
00000210: f8dc 03be 1ea3 0f3f 807e 87bf e617 dcbe
00000220: 7946 95bd a7ce 0e3f e0d4 333f 74b7 a0bf
00000230: 6d52 c03e d351 ae3e 0420 0e3d 0145 8f3f
00000240: 8d98 5d3f 515e 8abe 4521 9d3e 58b1 1fbe
00000250: e259 093e 2315 033f 2922 02bf 89ab edbd
00000260: dccc fcbc 255f 7cbe 9a4d e73e b112 26be
00000270: 127b 09bf 5c4a 52be 032f 66be 290e 573d
00000280: 754a 8fbc f8f1 09bf da29 ae3e 26b6 9bbe
00000290: f611 a73d 888b 8d3f acd9 f7be 2927 abbe
000002a0: a51a 303f 05db bdbf bade 3a3f fd51 333e
000002b0: d13b 483d 14df 803f 34c4 a5be 8953 68bf
000002c0: c445 ddbf 403b ccbe 85e6 673e 7cd9 5c3f
000002d0: 5568 41bf d2cf 013f 83e9 e2bd 9b90 7abf
000002e0: 8c2d 37bf 44d5 9ebe cf06 23bf 33e7 433f
000002f0: 79c6 903f a003 2fbd ed04 32bf 84e4 02bf
00000300: 4a5a f4bd 8d7e 123e 0f7d 21be 0d0f 86be
00000310: 16d7 28be af18 c23d 2622 36bf 2525 16bf
00000320: 966a f2be baa8 58be a6b8 30bf f77f b6be
00000330: cd80 eebf 9485 96be 8a26 903f d7e1 60be
00000340: a762 abbe 7888 19bf b1c1 fe3c 3651 7ebf
00000350: b32f 9dbf 0600 823d ce66 213f 34ec 2cbf
00000360: 2518 07bf c2dc c7bf 8ba1 10bf 2823 5f3f
00000370: f432 073e 91c5 093f 823f 8abf 63ce b5be
00000380: 301d 8bbe 9f9c 7dbf 93cb 12bf 8d6f 253e
00000390: c984 433c f032 bfbf e04d 3f3f b537 05be
000003a0: e44b 253f d46f 82be 894b 58bc a574 90be
000003b0: ec46 13bf 0fba 043d b37d 48be 2ebe 43bf
000003c0: 5be4 1d3e e28c 4cbf 4681 0c3f bf51 b03f
000003d0: 0c61 9ebe fb84 2c3f e05c 4ebf 9671 3c3d
000003e0: 184c 51bf 4757 a3be 8267 10bf 4098 30bf
000003f0: 543e bebf a477 5abe 3b1b 2abf 1b70 12bd

lstm.weight_hh_l0 f4 [512, 128]
-0.068386085 -0.0010950938 -0.023070276 0.01695431 0.08640998 0.031702988 -0.028052278 -0.057133097
-0.073994726 0.026122592 0.035860606 -0.070094116 0.038461722 0.059806503 0.04728722 0.049439795
0.0052791163 -0.026311446 -0.008371867 0.012144245 0.060973577 -0.0735102 0.055592455 -0.053050563
-0.059198387 0.05835607 0.02980648 -0.08414752 0.07063184 -0.048520166 0.0042432495 -0.039738085
0.07475976 -0.0071773157 0.08226063 0.07331789 -0.006353751 -0.0622985 -0.039819594 -0.06004496
-0.05330671 -0.081933 -0.07599732 -0.044761322 0.0013588145 0.057384886 0.08748704 0.047170095
-0.07529192 -0.0552208 0.065167375 0.033312954 0.01816719 0.04220756 -0.06694543 -0.039319783
0.06660511 -0.0026343986 0.016117238 -0.058652975 0.07731522 -0.022275917 -0.084386 -0.053851366
-0.06634858 0.07477162 -0.03522737 -0.020386219 -0.06540425 0.06697618 -0.024359383 0.050877728
0.085948 -0.07082584 -0.038788956 -0.038662907 -0.02369292 0.0131932795 0.088257454 -0.050055314
0.02937489 0.06224946 0.022712976 0.030073337 -0.013134688 -0.06728979 0.08187202 -0.081766285
-0.027237125 0.03410852 -0.058488242 -0.041985925 0.04470224 -0.03958215 -0.06034655 -0.029938295
0.07534804 0.049713828 -0.074543394 0.04231053 -0.0013138428 0.078804694 0.013753824 0.0042918995
-0.039520837 -0.06036671 -0.015882984 0.07073771 0.003244631 0.04085327 -0.042874034 0.021428235
0.048554532 -0.06658041 0.06692449 0.038831808 -0.08685465 -0.05638735 0.05131448 0.079440825
0.01752963 -0.011834517 -0.06755111 -0.007458113 0.0656222 0.07631681 -0.009005897 -0.03548849
-0.0310097 0.046798058 -0.0018234551 -0.04273173 -0.085729025 -0.035800334 0.06704285 -0.009549325
-0.04604578 0.04650355 0.08768525 0.04603619 0.055925004 0.04394739 -0.081314586 0.063108765
-0.06746794 -0.046932485 0.041928582 0.069826595 0.06372682 0.030915953 -0.0010762587 0.02608246
-0.05679821 0.081538044 0.00953953 0.007239178 -0.048007663 0.07051749 0.015139841 -0.04258169
-0.0006612614 0.008017071 0.002299711 -0.076576546 -0.032053974 -0.006163411 0.06342932 -0.063580066
0.053537555 0.039575405 -0.07476657 -0.080323376 -0.03816158 -0.050236925 0.053545557 -0.04281868
0.018323809 0.00805483 0.055423062 -0.032200076 0.03943201 -9.778142e-05 0.017440103 -0.038691197
-0.06859491 0.05293689 -0.012373388 -0.073223814 0.079531126 -0.03448434 0.03557784 -0.06432514
0.07551425 -0.017211474 0.067920335 -0.037599497 -0.03284253 -0.014345713 0.020630188 0.03974628
0.006320901 -0.01582437 -0.05791484 -0.06846591 -0.08673875 0.06965586 -0.019063964 0.047592916
-0.083447084 0.01417806 0.0057894588 -0.021703951 0.042618923 -0.08667103 0.016583212 -0.062268384
-0.007700078 0.05147209 0.0061682314 0.008255531 0.042967312 -0.035059035 -0.026137166 -0.04051682
0.011786468 0.020986557 0.061810263 0.020173743 -0.021786883 -0.053081837 0.0728242 0.078940175
0.08097436 0.043912984 -0.020495303 0.017695926 0.08316932 0.040430244 -0.072368965 0.013797909
-0.06635368 0.0014132783 0.042430304 0.044658452 -0.042575862 -0.037409373 0.08451081 0.06286404
-0.050503474 -0.07069239 0.04081049 -0.028686453 0.041727193 -0.06736491 -0.01846695 -0.047315493
00000000: 010e 8cbd 4089 8fba e0fd bcbc c4e3 8a3c
00000010: b7f7 b03d feda 013d e4cd e5bc 6504 6abd
00000020: 8c8a 97bd 0cff d53c 92e2 123d 818d 8fbd
00000030: 0a8a 1d3d aaf7 743d 3eb0 413d 6281 4a3d
00000040: 70fc ac3b 1a8b d7bc 282a 09bc a8f8 463c
00000050: 6ebf 793d 848c 96bd eab4 633d 8c4b 59bd
00000060: 027a 72bd c606 6f3d b82c f43c 8955 acbd
00000070: 6da7 903d 15bd 46bd f50a 8b3b 67c4 22bd
00000080: a51b 993d b02f ebbb 4378 a83d b127 963d
00000090: 2033 d0bb b62c 7fbd df19 23bd b4f1 75bd
000000a0: 2358 5abd 7dcc a7bd 7ca4 9bbd a657 37bd
000000b0: 401a b23a 6a0c 6b3d 682c b33d 6e35 413d
000000c0: a632 9abd 352f 62bd 7976 853d 2a73 083d
000000d0: 5cd3 943c d6e1 2c3d b01a 89bd c80d 21bd
000000e0: 4368 883d e0a5 2cbb 4c08 843c 1a3e 70bd
000000f0: 7157 9e3d fc7b b6bc 91d2 acbd 4093 5cbd
00000100: c4e1 87bd dd21 993d 934a 10bd 0001 a7bc
00000110: aaf2 85bd cf2a 893d 548d c7bc 2a65 503d
00000120: 8105 b03d 230d 91bd 2be1 1ebd ff5c 1ebd
00000130: a817 c2bc a028 583c 53c0 b43d cd06 4dbd
00000140: 9ca3 f03c 4af9 7e3d 9010 ba3c 5c5c f63c
00000150: e032 57bc 3bcf 89bd 85ac a73d 1575 a7bd
00000160: 6420 dfbc 60b5 0b3d 5e91 6fbd 6ff9 2bbd
00000170: b219 373d e420 22bd f22d 77bd 2841 f5bc
00000180: 1350 9a3d baa0 4b3d 35aa 98bd ce4d 2d3d
00000190: 4035 acba 5b64 a13d b857 613c 10a3 8c3b
000001a0: 9ae0 21bd 1543 77bd 081d 82bc efde 903d
000001b0: e0a3 543b c255 273d af9c 2fbd 448a af3c
000001c0: 1ee1 463d 4f5b 88bd b50f 893d 1a0e 1f3d
000001d0: dae0 b1bd 6cf6 66bd 222f 523d dfb1 a23d
000001e0: 4c9a 8f3c 90e5 41bc 3d58 8abd 3063 f4bb
000001f0: ef64 863d fd4b 9c3d 788d 13bc 615c 11bd
00000200: 0e08 febc 52af 3f3d 0001 efba 7707 2fbd
00000210: b392 afbd 5fa3 12bd c34d 893d c674 1cbc
00000220: 809a 3cbd 827a 3e3d 5394 b33d 7290 3c3d
00000230: 9e11 653d 2e02 343d 4388 a6bd 2b3f 813d
00000240: a22c 8abd 473c 40bd 4ebd 2b3d 3f01 8f3d
00000250: 3583 823d 7443 fd3c 4011 8dba e2aa d53c
00000260: 3da5 68bd 6bfd a63d b04b 1c3c a036 ed3b
00000270: afa3 44bd 796b 903d 180d 783c 236a 2ebd
00000280: 8058 2dba 085a 033c c0b6 163b 2ad4 9cbd
00000290: 074b 03bd 70f6 c9bb 3be7 813d 4436 82bd
000002a0: 324a 5b3d d219 223d 371f 99bd 9580 a4bd
000002b0: 514f 1cbd 3cc5 4dbd 9652 5b3d a462 2fbd
000002c0: d01b 963c 68f8 033c 4b03 633d 3ae4 03bd
000002d0: 7683 213d 0010 cdb8 8cde 8e3c a97a 1ebd
000002e0: 7d7b 8cbd 5ad4 583d c0b9 4abc 5ef6 95bd
000002f0: 37e1 a23d 743f 0dbd 12ba 113d e6bc 83bd
00000300: 37a7 9a3d 14ff 8cbc d119 8b3d ee01 1abd
00000310: e485 06bd 480a 6bbc a400 a93c ffcc 223d
00000320: 901f cf3b 1ca2 81bc 1c38 6dbd db37 8cbd
00000330: 16a4 b1bd bba7 8e3d 082c 9cbc caf0 423d
00000340: 4ee6 aabd 184b 683c 80b5 bd3b 7ccc b1bc
00000350: 2e91 2e3d 9580 b1bd 84d9 873c 220d 7fbd
00000360: f050 fcbb 66d4 523d e01e ca3b 3542 073c
00000370: 7efe 2f3d 109a 0fbd 9c1d d6bc f7f4 25bd
00000380: 081c 413c 00ec ab3c c22c 7d3d 6843 a53c
00000390: 687a b2bc 576c 59bd db24 953d 63ab a13d
000003a0: e3d5 a53d 1ade 333d c4e5 a7bc 0cf7 903c
000003b0: ad54 aa3d 2f9a 253d 2e36 94bd a010 623c
000003c0: 70e4 87bd c03d b93a 66cb 2d3d c8eb 363d
000003d0: 0764 2ebd 923a 19bd 0114 ad3d ddbe 803d
000003e0: bbdc 4ebd 2cc7 90bd e628 273d daff eabc
000003f0: 22ea 2a3d 9df6 89bd 0048 97bc e4cd 41bd

lstm.bias_ih_l0 f4 [512]
-0.042611085 -0.105575755 -0.0243874 -0.05462379 -0.14986387 0.5741825 -0.21351 -0.50129664
-0.1410437 0.102050066 -0.9546274 -0.45119184 -0.2010693 0.10634458 -0.16990606 -0.72511864
-0.8690429 0.39548448 -0.5122666 0.1082265 0.42492253 0.071476676 -0.4034475 0.38844782
0.2088879 0.4664775 0.67471725 -0.3869144 -0.48125258 0.12069938 0.12606622 -0.035460193
0.06007269 0.07162399 -0.28749928 0.38770497 -0.22530489 0.014983133 -0.06402346 0.024272792
0.022588005 -0.5246766 0.23362292 -0.0990874 0.26780018 0.3783327 -0.40790033 0.11338793
-0.57873356 -0.41202322 -0.0316277 -0.5788164 -0.39470968 -0.20102762 -0.122860424 -0.20670062
-0.10870482 -0.47137552 0.48188525 0.5761846 -0.1985604 0.018798294 -0.6842869 -0.21966994
0.35206756 -0.4924407 -0.100945085 0.020815114 -0.34925905 -0.25999242 -0.311541 -0.23977658
-0.14376491 0.14049773 -0.69802374 0.47501242 -0.83574176 -0.7794392 0.34488362 0.0776857
-0.44482127 -0.74973685 0.1021781 -0.113593034 -0.03254309 0.10147137 -0.32129055 0.034276918
-0.3361814 0.17072584 -0.18340665 0.048115082 -0.8166079 -0.2035228 -0.17850682 -0.49673948
-0.33849174 -1.1742938 -0.07753383 0.011294587 -0.75088173 -0.061663654 -0.255089 -0.8316903
-0.6222723 0.455928 -0.7290438 -0.4068869 -0.06862585 0.19655263 -0.99744827 -0.052582018
0.18651767 -0.24093723 -0.38303035 -0.39928442 0.31146225 0.094969384 -0.23556392 0.07791325
-0.33979517 0.1210294 -0.10531804 -0.24369675 -0.37798324 -0.51815385 -0.30923125 -0.04001215
-0.06254687 -0.07522691 0.039386608 0.028911538 -0.047703363 0.06555156 -0.056778833 0.014140564
-0.043680236 -0.037505656 0.0043692514 0.08018724 -0.03025582 0.00054198503 0.01673337 -0.013142146
-0.062818035 0.007924274 -0.06379105 -0.009308346 -0.029538617 -0.06670854 0.027729012 -0.023143858
0.048086323 0.0091497 0.04969903 -0.07032332 -0.08550117 -0.06147082 0.008982524 0.06640469
0.03981153 -0.047274355 0.060410894 -0.080096945 0.063936524 0.04143513 0.06844773 0.051501177
-0.057136457 0.07859943 0.0057634413 0.061682574 0.07869553 -0.022719286 -0.03719606 -0.06804651
0.07500058 0.056620203 -0.07297574 0.049117364 0.08404391 0.046505682 -0.052132882 -0.05922241
-0.08591326 -0.0027829781 -0.08170296 -0.085817695 0.013739631 0.07282602 -0.011571184 -0.055120807
0.010782838 -0.050855525 -0.0022521988 -0.06931068 0.006854266 -0.040339403 -0.047623936 -0.025104634
0.046053328 0.010482915 -0.007541381 0.031400695 -0.052143123 0.014533445 0.049869455 0.012856729
0.033709258 0.036842175 0.053687073 -0.07902917 0.08532315 -0.05110891 0.026118547 0.047199763
0.02285362 0.025249913 0.044965416 0.039275654 0.08565692 0.016025372 -0.0059506 0.026208922
-0.045707285 0.08081942 -0.0018784255 0.08253311 -0.038105037 0.05176563 0.029355451 -0.06856944
-0.045423817 0.029881887 -0.014229082 0.023582138 0.04542043 -0.08446102 -0.026039992 -0.05865067
-0.040014934 -0.07978286 0.0026117803 0.0106029585 -0.008104362 0.05555176 -0.051303893 0.045611747
-0.06010229 0.034875475 0.071488835 0.071298234 -0.016031764 0.047450475 -0.06887339 0.055450372
00000000: f688 2ebd 1a38 d8bd 16c8 c7bc 32bd 5fbd
00000010: ea75 19be a0fd 123f 5ea2 5abe fa54 00bf
00000020: c26d 10be a0ff d03d 7662 74bf 9e02 e7be
00000030: 1ce5 4dbe 30cb d93d dbfb 2dbe 60a1 39bf
00000040: 9879 5ebf f17c ca3e e723 03bf dba5 dd3d
00000050: 728f d93e 5d62 923d ac90 cebe a2e2 c63e
00000060: b6e6 553e 24d6 ee3e 45ba 2c3f a519 c6be
00000070: bd66 f6be 3d31 f73d 8117 013e b53e 11bd
00000080: c80e 763d 99af 923d 1b33 93be 4481 c63e
00000090: 53b6 66be d17b 753c bb1e 83bd bcd7 c63c
000000a0: 7b0a b93c 3551 06bf d93a 6f3e 56ee cabd
000000b0: 1b1d 893e d3b4 c13e 50d8 d0be ee37 e83d
000000c0: e227 14bf b5f4 d2be 0c8c 01bd 502d 14bf
000000d0: 6317 cabe 2fda 4dbe 3f9e fbbd 54a9 53be
000000e0: a2a0 debd 2258 f1be aab9 f63e d580 133f
000000f0: 6b53 4bbe e1fe 993c 6d2d 2fbf 28f1 60be
00000100: 3342 b43e 3021 fcbe 4cbc cebd 7584 aa3c
00000110: 15d2 b2be ba1d 85be 4d82 9fbe fe87 75be
00000120: 1c37 13be a3de 0f3e afb1 32bf d434 f33e
00000130: 2cf3 55bf 5489 47bf 9694 b03e ae19 9f3d
00000140: 9dbf e3be c1ee 3fbf c042 d13d 77a3 e8bd
00000150: e74b 05bd 39d0 cf3d 3280 a4be f465 0c3d
00000160: f81f acbe c1d2 2e3e f4ce 3bbe 5214 453d
00000170: 370d 51bf 4868 50be 7eca 36be a354 febe
00000180: ca4e adbe 424f 96bf 0fca 9ebd ee0c 393c
00000190: c939 40bf 0793 7cbd 079b 82be a8e9 54bf
000001a0: 3d4d 1fbf 656f e93e 9da2 3abf 7b53 d0be
000001b0: b68b 8cbd 1845 493e c558 7fbf 3e60 57bd
000001c0: 7dfe 3e3e 40b8 76be 8e1c c4be 026f ccbe
000001d0: fb77 9f3e 4f7f c23d ab37 71be fb90 9f3d
000001e0: a2f9 adbe 43de f73d fcb0 d7bd a48b 79be
000001f0: 0587 c1be bba5 04bf 8f53 9ebe c8e3 23bd
00000200: 9318 80bd 9110 9abd da53 213d e4d7 ec3c
00000210: 9a64 43bd e53f 863d ec90 68bd d3ad 673c
00000220: 0cea 32bd 889f 19bd f02b 8f3b 3539 a43d
00000230: 0edb f7bc 0014 0e3a 6c14 893c 2852 57bc
00000240: bea6 80bd d0d4 013c e2a4 82bd 0882 18bc
00000250: f8fa f1bc 7d9e 88bd f427 e33c 3098 bdbc
00000260: 2af6 443d a0e8 153c 3691 4b3d ac05 90bd
00000270: 3d1b afbd d4c8 7bbd 702b 133c 2fff 873d
00000280: 6a11 233d c1a2 41bd 6a71 773d de09 a4bd
00000290: 27f1 823d e2b7 293d 532e 8c3d e6f2 523d
000002a0: eb07 6abd bdf8 a03d 40db bc3b dea6 7c3d
000002b0: 1f2b a13d cc1d babc e55a 18bd f85b 8bbd
000002c0: e799 993d 96ea 673d 4e74 95bd 4a2f 493d
000002d0: 371f ac3d be7c 3e3d 4a89 55bd 3393 72bd
000002e0: 4bf3 afbd a062 36bb e253 a7bd 30c1 afbd
000002f0: 301c 613c cf25 953d 1095 3dbc 5bc6 61bd
00000300: 80aa 303c e24d 50bd a099 13bb c2f2 8dbd
00000310: c099 e03b ee3a 25bd 5111 43bd 3ca8 cdbc
00000320: 6aa2 3c3d 88c0 2b3c b01d f7bb 049e 003d
00000330: 0794 55bd b01d 6e3c ea43 4c3d 08a5 523c
00000340: b812 0a3d d2e7 163d fae6 5b3d 0cda a1bd
00000350: e7bd ae3d 9457 51bd 90f6 d53c 8a54 413d
00000360: 8437 bb3c e8d8 ce3c a82d 383d 82df 203d
00000370: e56c af3d a447 833c 40fd c2bb 18b4 d63c
00000380: 9037 3bbd a784 a53d 8035 f6ba 1f07 a93d
00000390: 0714 1cbd 3208 543d d87a f03c 226e 8cbd
000003a0: 530e 3abd dcca f43c 1821 69bc 542f c13c
000003b0: c60a 3a3d e6f9 acbd d251 d5bc af3b 70bd
000003c0: b3e6 23bd 3265 a3bd 672a 2b3b 08b8 2d3c
000003d0: 28c8 04bc 3e8a 633d 0824 52bd 62d3 3a3d
000003e0: d22d 76bd 96d9 0e3d bd68 923d cf04 923d
000003f0: 0c55 83bc 6e5b 423d 7e0d 8dbd ee1f 633d

lstm.bias_hh_l0 f4 [512]
-0.06998203 -0.0732736 -0.030643107 0.051661335 -0.017325707 0.58976704 -0.3456162 -0.50849503
-0.1151057 0.03973983 -0.9067215 -0.46769297 -0.2566434 -0.03098259 -0.27561864 -0.730549
-0.87040037 0.27194262 -0.41502964 0.15858759 0.3596107 -0.03779078 -0.41474947 0.37764585
0.3093334 0.57625973 0.71595985 -0.27862203 -0.5791842 0.07801911 0.090422906 -0.015986865
-0.053588353 0.06268699 -0.2608084 0.44380936 -0.22605339 -0.11061499 -0.14568223 0.02206485
0.09706053 -0.575388 0.22412482 -0.036601562 0.308712 0.3713118 -0.31781742 0.010923708
-0.59738106 -0.4292379 -0.023224743 -0.5683725 -0.28232154 -0.21123244 -0.17908506 -0.2291442
-0.15049148 -0.47004682 0.5020999 0.59302884 -0.30490878 -0.024287092 -0.6168621 -0.18682893
0.3309711 -0.5725722 -0.22120601 0.114308365 -0.34056258 -0.15594596 -0.28828308 -0.1844917
-0.2603847 0.14923173 -0.66608816 0.53311646 -0.84052444 -0.79824597 0.2919642 0.15966095
-0.38580498 -0.70686996 0.09143219 -0.051510904 -0.07131601 0.2113751 -0.24728459 0.07875329
-0.4591417 0.13123147 -0.32671526 -0.02010502 -0.7990337 -0.19370489 -0.15805759 -0.46755084
-0.2862228 -1.1350939 -0.048106775 0.142695 -0.70970744 -0.06508663 -0.33421654 -0.7698636
-0.6141929 0.5369128 -0.6754329 -0.27890265 -0.012287371 0.16704696 -0.9349414 -0.02975542
0.25296232 -0.19136518 -0.43689603 -0.3433015 0.4540136 0.10442021 -0.26104745 0.06770475
-0.33815876 0.061081443 -0.23546298 -0.23339565 -0.3836175 -0.5573716 -0.25343382 -0.050889857
-0.07415049 -0.029054035 0.032378033 -0.07413164 -0.029420648 -0.015236959 -0.064065285 -0.011565641
0.063192345 -0.06660778 0.07520533 -0.03307931 0.08660113 0.021156244 0.027366377 0.056394465
0.037137277 0.044518553 0.06613139 -0.060616713 0.034736887 0.0008104816 -0.050055902 0.043311812
0.08343392 -0.0034453273 -0.04303486 0.08429503 -0.06491176 -0.026888244 -0.062031593 -0.008517213
-0.076522596 -0.0688383 0.04859049 0.069359 0.022292815 0.04438778 -0.04274055 0.06731505
-0.024191767 0.02050466 0.013281651 -0.028189119 -0.06045817 0.0720719 0.012158386 -0.013846517
0.07756444 -0.06752197 0.067231424 0.06493916 -0.03931758 0.026873633 0.02660606 -0.085475124
-0.0676073 -0.049921602 0.08388405 0.025851578 -0.017123476 -0.08023231 0.0009864792 -0.069893785
0.04501722 0.027137667 0.022334196 -0.037552092 0.06814181 0.031802744 0.08369192 0.027302884
-0.07652956 0.0066485405 0.05735459 -0.026127663 -0.0073305517 0.061036386 -0.0018507317 -0.034938157
0.009446092 -0.057264566 0.04735688 -0.049593817 0.056157626 -0.06310314 -0.0006686151 -0.04565377
0.05360288 0.0012026064 0.07517516 -0.010023415 -0.08644067 -0.05909697 -0.079440475 -0.03675909
0.052492358 0.035302006 -0.034509756 0.043865316 0.03204973 -0.060389668 -0.08455425 -0.034127958
-0.058248322 0.029084451 -0.084004 -0.04019704 0.084421225 -0.0500613 -0.011301056 0.07407773
-0.0076353624 -0.064506814 -0.04443068 -0.08068958 -0.036981367 0.06510892 -0.020538889 0.061839506
0.042939954 0.0090987515 -0.013908394 -0.045067634 -0.061907556 0.021627866 -0.030176185 0.07880164
00000000: bd52 8fbd 7810 96bd 4107 fbbc d69a 533d
00000010: a4ee 8dbc f9fa 163f 9bf4 b0be bb2c 02bf
00000020: 8abc ebbd 3bc6 223d e61e 68bf 7475 efbe
00000030: c466 83be 33cf fdbc e31d 8dbe 4205 3bbf
00000040: 8fd2 5ebf 103c 8b3e c47e d4be c964 223e
00000050: e51e b83e 81ca 1abd 0b5a d4be cc5a c13e
00000060: f360 9e3e c285 133f 2549 373f 8ca7 8ebe
00000070: 6a45 14bf 7cc8 9f3d a52f b93d e3f6 82bc
00000080: 767f 5bbd 0962 803d ae88 85be fb3a e33e
00000090: 8a7a 67be 1d8a e2bd b92d 15be 58c1 b43c
000000a0: acc7 c63d a14c 13bf fa80 653e 85eb 15bd
000000b0: 800f 9e3e 951c be3e f7b8 a2be 5af9 323c
000000c0: f7ed 18bf 12c5 dbbe d141 bebc dc80 11bf
000000d0: 738c 90be 514d 58be 1362 37be c7a4 6abe
000000e0: 701a 1abe faa9 f0be 9e89 003f bdd0 173f
000000f0: 011d 9cbe b9f5 c6bc adea 1dbf 1550 3fbe
00000100: 0b75 a93e 1794 12bf d483 62be 811a ea3d
00000110: 385e aebe 4cb0 1fbe d799 93be 64eb 3cbe
00000120: 2551 85be 34d0 183e c184 2abf 527a 083f
00000130: 9c2c 57bf d959 4cbf 557c 953e 297e 233e
00000140: 3b88 c5be 6ef5 34bf cd40 bb3d 19fd 52bd
00000150: 210e 92bd b772 583e 2c38 7dbe 6849 a13d
00000160: 9f14 ebbe 8b61 063e 3947 a7be 48b3 a4bc
00000170: 798d 4cbf 935a 46be d9d9 21be d362 efbe
00000180: cb8b 92be c24a 91bf 9c0b 45bd a31e 123e
00000190: 63af 35bf 244c 85bd 6e1e abbe c815 45bf
000001a0: bf3b 1dbf 1e73 093f 2ce9 2cbf 54cc 8ebe
000001b0: f850 49bc 5c0e 2b3e 5258 6fbf a3c1 f3bc
000001c0: 4784 813e 3cf5 43be d6b0 dfbe 37c5 afbe
000001d0: 7874 e83e 43da d53d 03a8 85be caa8 8a3d
000001e0: 2523 adbe 8930 7a3d 351d 71be 45ff 6ebe
000001f0: 8369 c4be e8af 0ebf 14c2 81be e271 50bd
00000200: 36dc 97bd ba02 eebc d49e 043d 54d2 97bd
00000210: 9203 f1bc 70a4 79bc a934 83bd d07d 3dbc
00000220: fd6a 813d a969 88bd 4105 9a3d 2c7e 07bd
00000230: ef5b b13d dc4f ad3c 742f e03c e2fd 663d
00000240: 421d 183d 1659 363d e56f 873d 3b49 78bd
00000250: 4448 0e3d 8076 543a 6b07 4dbd ba67 313d
00000260: 67df aa3d 00cb 61bb 5245 30bd dfa2 ac3d
00000270: 75f0 84bd bc44 dcbc d714 7ebd c88b 0bbc
00000280: e1b7 9cbd 18fb 8cbd d206 473d 170c 8e3d
00000290: 6c9f b63c f6cf 353d b710 2fbd 79dc 893d
000002a0: d02d c6bc 64f9 a73c 489b 593c deec e6bc
000002b0: fca2 77bd 6f9a 933d f833 473c 80dc 62bc
000002c0: 1bda 9e3d f548 8abd a1b0 893d d3fe 843d
000002d0: 790b 21bd 1826 dc3c f4f4 d93c 950d afbd
000002e0: b275 8abd 987a 4cbd 67cb ab3d b0c6 d33c
000002f0: 8846 8cbc d650 a4bd c04c 813a 7924 8fbd
00000300: fa63 383d d04f de3c 34f6 b63c 39d0 19bd
00000310: ef8d 8b3d 9843 023d ab66 ab3d 4caa df3c
00000320: 88bb 9cbd 00dc d93b a6ec 6a3d ae09 d6bc
00000330: 2035 f0bb 4a01 7a3d 4094 f2ba 501b 0fbd
00000340: c8c3 1a3c 408e 6abd 4af9 413d e322 4bbd
00000350: 8a05 663d 383c 81bd 0046 2fba 73ff 3abd
00000360: b28e 5b3d c6a0 9d3a 6ff5 993d 4039 24bc
00000370: ce07 b1bd aa0f 72bd b0b1 a2bd b390 16bd
00000380: 3a02 573d d698 103d 1a5a 0dbd 1eac 333d
00000390: 9446 033d 285b 77bd c72a adbd c2c9 0bbd
000003a0: cb95 6ebd 8442 ee3c 4a0a acbd a7a5 24bd
000003b0: 09e5 ac3d 140d 4dbd 1028 39bc 11b6 973d
000003c0: 1032 fabb 261c 84bd f2fc 35bd 9440 a5bd
000003d0: c679 17bd d357 853d 2c41 a8bc 6c4b 7d3d
000003e0: cee1 2f3d ee12 153c 08e0 63bc d798 38bd
000003f0: c792 7dbd ec2c b13c 0c34 f7bc c162 a13d

fc1_action.weight f4 [128, 3]
0.46320826 -0.22627304 -0.05266308 -0.13308148 0.61149377 -0.44572508 -0.0025213952 -0.020718407
-0.022242425 0.20544995 0.10233308 0.10304237 -0.10327185 -0.40361023 0.10583336 0.114370316
-0.052489102 0.2592712 0.0300607 0.023704603 0.031176051 -0.08756005 -0.06323835 -0.015500854
0.16166136 0.16713306 0.35828087 -0.056633778 -0.003480379 -0.0976392 -0.24399035 -0.02075715
-0.03302659 -0.31858978 -0.2505839 0.18216795 0.015615035 -0.06845972 -0.057464518 -0.13228518
-0.03915023 0.24917595 0.07746301 0.01413572 -0.00026649528 -0.39823985 0.14158352 -0.15459819
-0.05081338 -0.027410526 -0.034025714 -0.21757652 -0.03933128 -0.02369827 -0.115064636 0.023397638
-0.4360352 0.04730937 -0.009247576 0.06318173 -0.01875257 -0.04727733 -0.031093722 -0.31426743
0.12068083 -0.5292768 0.009038402 -0.0063378885 -0.0011901964 -0.0020137308 -0.007668471 0.024304748
0.10003233 -0.012521365 0.099206805 -0.01261878 -0.011822499 -0.04935828 0.2553375 -0.3440095
-0.28668272 0.03367926 0.037425417 0.03117307 0.21985939 0.52915263 0.09086364 0.100345254
-0.3987763 -0.4415725 0.14062686 0.051054034 -0.0011539679 -0.13941687 -0.1838045 -0.17999874
-0.014223637 0.0007436094 0.0062266886 -0.26696098 -0.12686537 -0.20847975 0.17247365 0.10896111
0.0022118234 -0.029381579 -0.012580968 -0.027098717 -0.10779173 -0.3289303 -0.097735345 0.18437074
-0.19079912 -0.46512228 0.18433796 -0.14936192 -0.07342032 0.010124138 -0.0393581 -0.024892598
-0.21935871 0.22960773 0.22088459 -0.111847475 -0.021953342 -0.016923077 0.37127984 0.47431165
0.3748823 0.044508692 0.13344449 0.039541386 0.18030868 -0.13869268 -0.17271207 0.07302693
0.034797594 -0.17408596 0.17775463 0.12762707 0.0979566 0.00977396 0.02076907 -0.0048543834
0.13382 -0.14042717 -0.10884041 0.033763453 0.065843076 0.1372711 0.13732475 -0.45702797
-0.015526372 -0.026324974 0.0032079204 -0.06312361 -0.016571037 0.23426285 -0.110700086 -0.3602703
-0.4905135 0.1513814 -0.5164491 -0.19598863 0.09334301 0.031323202 -0.011833675 0.2844247
-0.35803053 -0.019079277 -0.011868134 -0.15242262 -0.1984762 -0.00790647 0.02206063 0.014422754
0.0005951448 -0.009765765 -0.31190243 -0.07928692 -0.25563562 -0.028381709 -0.054695137 0.31600326
-0.22823682 -0.15933082 0.024255946 -0.19255745 0.15782282 -0.018708238 -0.0793197 0.16209647
0.03488402 0.050756007 0.0048537315 0.39546144 0.5158078 0.2704886 0.08862399 0.09290659
0.040576275 0.017389216 -0.11882402 -0.3098864 -0.08196317 -0.018631125 0.0057852417 0.0484806
0.31898946 -0.47608957 -0.0058759525 -0.08328192 -0.059345048 -0.028248716 -0.016342305 -0.014006639
-0.10235703 0.023150742 -0.09028062 0.1419322 0.12261357 0.119192265 -0.014996636 -0.04047867
0.16829237 -0.0055582784 -0.5496924 -0.10987456 -0.28781244 -0.42504796 -0.33420277 0.07222079
0.025237188 0.029796204 -0.4296505 0.17000645 -0.42941612 0.00036901076 -0.015931033 -0.008819913
0.27186 -0.011462449 -0.40636995 -0.029652407 0.013094687 -0.36204192 0.44351032 0.22810471
-0.010698398 -0.043000817 0.14223921 0.025739253 -0.32651156 -0.14345212 -0.1500593 0.029597646
00000000: a229 ed3e 1fb4 67be 3eb5 57bd 8346 08be
00000010: db8a 1c3f 1436 e4be fe3d 25bb a6b9 a9bc
00000020: bf35 b6bc 7961 523e 0194 d13d e107 d33d
00000030: 3180 d3bd 00a6 cebe 29bf d83d fc3a ea3d
00000040: d0fe 56bd 32bf 843e db41 f63c 2830 c23c
00000050: eb64 ff3c af52 b3bd 1c83 81bd 4bf7 7dbc
00000060: 8e8a 253e ee24 2b3e 9770 b73e d2f8 67bd
00000070: 1217 64bb 10f7 c7bd 9bd8 79be e60a aabc
00000080: e446 07bd 331e a3be 884c 80be 3c8a 3a3e
00000090: 34d6 7f3c 9c34 8cbd ea5f 6bbd c475 07be
000000a0: fe5b 20bd fb27 7f3e eda4 9e3d 8299 673c
000000b0: 64b8 8bb9 18e6 cbbe 45fb 103e fd4e 1ebe
000000c0: b121 50bd 0a8c e0bc 8c5e 0bbd 61cc 5ebe
000000d0: d619 21bd e022 c2bc 02a7 ebbd 67ac bf3c
000000e0: 0140 dfbe 78c7 413d 2583 17bc 6c65 813d
000000f0: fd9e 99bc e0a5 41bd 43b8 febc a9e7 a0be
00000100: 8327 f73d af7e 07bf ce15 143c 10ae cfbb
00000110: 5d00 9cba ccf8 03bb cc47 fbbb c01a c73c
00000120: c0dd cc3d 6926 4dbc f02c cb3d 00bf 4ebc
00000130: 28b3 41bc e82b 4abd 99bb 823e 0322 b0be
00000140: 14c8 92be 44f3 093d 654b 193d ab5e ff3c
00000150: d222 613e 8c76 073f b716 ba3d d081 cd3d
00000160: 682c ccbe ca15 e2be 7d00 103e 091e 513d
00000170: bd40 97ba 4cc3 0ebe 3f37 3cbe 9751 38be
00000180: 420a 69bc c8ee 423a 4009 cc3b 1caf 88be
00000190: ffe8 01be b77b 55be ef9c 303e 0127 df3d
000001a0: 3df4 103b a3b1 f0bc 6820 4ebc 21fe ddbc
000001b0: e9c1 dcbd 8d69 a8be 7829 c8bd afcb 3c3e
000001c0: d860 43be 8224 eebe 17c3 3c3e 55f2 18be
000001d0: 655d 96bd b6df 253c f635 21bd 90eb cbbc
000001e0: 929f 60be 4a1e 6b3e 922f 623e 4a10 e5bd
000001f0: 7fd7 b3bc 44a2 8abc 6418 be3e fad8 f23e
00000200: 93f0 bf3e bf4e 363d aca5 083e 26f6 213d
00000210: d7a2 383e 7405 0ebe 6fdb 30be 258f 953d
00000220: ec87 0e3d 9743 32be 4f05 363e acb0 023e
00000230: 789d c83d f622 203c e623 aa3c 8511 9fbb
00000240: 1c08 093e 24cc 0fbe b9e7 debd 8c4b 0a3d
00000250: bcd8 863d cc90 0c3e dc9e 0c3e 92ff e9be
00000260: 5362 7ebc 79a7 d7bc f93b 523b f446 81bd
00000270: fcbf 87bc 9ae2 6f3e bab6 e2bd 5975 b8be
00000280: 9624 fbbe ba03 1b3e 0236 04bf 3eb1 48be
00000290: 9f2a bf3d c24c 003d 08e2 41bc 1da0 913e
000002a0: c74f b7be 254c 9cbc 9072 42bc ad14 1cbe
000002b0: 583d 4bbe 248a 01bc 7fb8 b43c 6a4d 6c3c
000002c0: 7e03 1c3a 9600 20bc adb1 9fbe 2e61 a2bd
000002d0: ace2 82be c280 e8bc 0208 60bd 2ecb a13e
000002e0: eab6 69be 9e27 23be 68b4 c63c c82d 45be
000002f0: 4e9c 213e 0542 99bc 5e72 a2bd 9efc 253e
00000300: 8ce2 0e3d 88e5 4f3d 0d0c 9f3b ec79 ca3e
00000310: fb0b 043f 7b7d 8a3e 7f80 b53d cf45 be3d
00000320: 4f33 263d d473 8e3c 025a f3bd 6ea9 9ebe
00000330: 4edc a7bd 4da0 98bc 2092 bd3b 9893 463d
00000340: 9652 a33e 03c2 f3be 108b c0bb b68f aabd
00000350: cb13 73bd da69 e7bc 4ce0 85bc 1a7c 65bc
00000360: 90a0 d1bd a0a6 bd3c 0ce5 b8bd ad56 113e
00000370: d31c fb3d 131b f43d 73b4 75bc f6cc 25bd
00000380: d654 2c3e 3822 b6bb a4b8 0cbf ea05 e1bd
00000390: 275c 93be e39f d9be a01c abbe 7ee8 933d
000003a0: 38be ce3c 2b17 f43c 26fb dbbe 2c16 2e3e
000003b0: 6edc dbbe c977 c139 cc81 82bc 6581 10bc
000003c0: 3c31 8b3e ffcc 3bbc b90f d0be 9be9 f2bc
000003d0: 198b 563c 8f5d b9be c913 e33e 4894 693e
000003e0: 5548 2fbc a021 30bd 28a7 113e 20db d23c
000003f0: 862c a7be 1de5 12be 25a9 19be c376 f23c

fc1_action.bias f4 [128]
0.09700523 -0.8549066 -0.04979861 -0.42131883 -0.6184763 0.047183666 -0.105927244 -0.16995238
-0.7404871 -0.19205381 -0.30795068 0.0014421497 -0.18443632 -0.42683226 -0.104410306 -0.71021986
-0.11692133 -0.2832386 -0.5965179 -0.11982855 -0.1010024 -0.42108947 -0.060914144 -0.03752675
-0.28475255 -0.07531427 -0.3600342 -0.10433133 -0.8399912 -0.926573 -0.1977401 -0.55640393
-0.02135357 0.014493254 -0.28364986 -0.08277082 0.07161772 -0.86502516 -0.40408114 -0.07867449
-0.6757683 -0.15095934 -0.5479896 -0.22127502 -0.5010938 -0.30843943 -0.40604213 -0.03582131
-0.3991578 -0.23835176 -0.60798585 -0.10174598 -0.3738258 -0.78894395 -0.4786542 -0.32837126
-0.39025286 -0.36992764 -0.037247352 -0.4075144 -0.3815327 -0.70673895 -0.3749404 -0.2675685
-0.107113376 -0.6295253 -0.22787027 -0.071262784 -0.122933954 -0.8404323 -0.15120968 -0.069575824
-0.51747996 -0.38388708 -0.22713117 -0.66707796 -0.42951533 -0.14587507 -0.14267203 -0.037595294
-0.69273186 -0.43171984 0.1240164 -0.49752796 -0.61863124 -0.079659455 -0.714869 -0.17357635
-0.118567914 -0.23286812 0.02584162 -0.18051732 -0.4017208 -0.1929449 -0.41516167 -0.060268924
-0.40091017 -0.14181152 -0.3891323 -0.64007705 -0.022308737 -0.27823177 -0.6008929 -0.55015737
-0.37171578 -0.11279967 -0.38975087 -0.094502516 -0.51062757 -0.09476627 -0.14822051 -0.6125158
-0.6795234 -0.14584228 -0.48972714 -0.027921349 -0.20680597 -0.21533242 -0.82196677 -0.85859394
-0.2727848 -0.747592 -0.06320707 -0.18950869 -0.037567727 -0.42621833 -0.48378456 -0.43787107
00000000: aeaa c63d 29db 5abf a1f9 4bbd 1ab7 d7be
00000010: 7654 1ebf a943 413d 62f0 d8bd ff07 2ebe
00000020: 9090 3dbf c1a9 44be b6ab 9dbe 8406 bd3a
00000030: e0dc 3cbe c289 dabe 12d5 d5bd f8d0 35bf
00000040: 7374 efbd a604 91be 66b5 18bf ac68 f5bd
00000050: 59da cebd 0a99 d7be 1c81 79bd a6b5 19bd
00000060: 16cb 91be 5e3e 9abd 6756 b8be aaab d5bd
00000070: aa09 57bf e333 6dbf 617c 4abe 7d70 0ebf
00000080: afed aebc 1d75 6d3c 8e3a 91be bf83 a9bd
00000090: 50ac 923d 4a72 5dbf b9e3 cebe 1720 a1bd
000000a0: 27ff 2cbf 1695 1abe 0c49 0cbf eb95 62be
000000b0: af47 00bf c6eb 9dbe c1e4 cfbe 5eb9 12bd
000000c0: 695e ccbe 7c12 74be f6a4 1bbf 3260 d0bd
000000d0: 1866 bfbe 3bf8 49bf 2a12 f5be 4720 a8be
000000e0: 39cf c7be 2867 bdbe ae90 18bd baa5 d0be
000000f0: 4158 c3be d8ec 34bf 30f8 bfbe bdfe 88be
00000100: 425e dbbd 9228 21bf d356 69be 39f2 91bd
00000110: ccc4 fbbd 9226 57bf b6d6 1abe c57d 8ebd
00000120: 9179 04bf d98c c4be 1395 68be 9fc5 2abf
00000130: 6fe9 dbbe 4660 15be 9e18 12be 86fd 19bd
00000140: e056 31bf 620a ddbe 4ffc fd3d fcbb febe
00000150: 9e5e 1ebf 7f24 a3bd a801 37bf 00be 31be
00000160: bcd3 f2bd fb74 6ebe ceb1 d33c 88d9 38be
00000170: 59ae cdbe 5993 45be 1290 d4be 8cdc 76bd
00000180: 1944 cdbe 0a37 11be 593c c7be 17dc 23bf
00000190: d0c0 b6bc 6574 8ebe 1ed4 19bf 1dd7 0cbf
000001a0: 8851 bebe 8303 e7bd 6d8d c7be 898a c1bd
000001b0: 7db8 02bf d114 c2bd 1ec7 17be d6cd 1cbf
000001c0: 3ff5 2dbf ae57 15be 84bd fabe 50bb e4bc
000001d0: f2c4 53be 1a80 5cbe 6a6c 52bf d0cc 5bbf
000001e0: 73aa 8bbe 3062 3fbf b572 81bd 910e 42be
000001f0: 9ee0 19bd 4a39 dabe 9cb2 f7be a330 e0be

fc2.weight f4 [256, 256]
0.089559056 0.2376254 0.52206314 0.18757688 1.1272815 0.093098655 0.2007884 0.70413756
-0.16175555 -0.052897792 -0.16666791 0.11863082 -0.3178298 -0.095262505 -0.44723758 0.24081153
-0.21449904 -1.0792077 -0.27335078 -0.40167236 -0.45644027 -0.1649652 0.08907766 -0.5020771
0.5725729 0.64865285 0.28644776 0.2152058 -0.60246253 -0.25711825 -0.071235806 0.27965352
-0.15373193 0.07521773 0.32241985 -0.18693689 0.36473602 0.3007618 -0.6022186 -0.19185814
-0.0123732 -0.21424223 -0.23996991 -0.7363878 -0.60842764 -0.16549699 -0.3307967 -0.45212856
-0.33796966 -0.5992051 0.24120894 0.18009028 0.05111325 -0.45846924 0.023672186 -0.4416327
0.12076333 -1.0888188 -0.07235329 -0.19565058 0.06617412 -0.16053727 0.3342167 0.1957439
-0.4495144 0.09228104 -0.42919365 0.08938679 0.07906678 -0.55182946 -0.7484432 -0.06620176
0.17435399 0.2671443 -0.22120568 0.4602783 0.4182248 -0.071349844 0.033121087 0.11878031
0.071682125 0.4983526 0.0943641 -0.13577034 -0.2217695 -0.40315247 -1.0473717 -0.6475703
-0.73147255 0.5294764 0.065604374 0.30460656 0.30202767 -0.22146884 -1.5922456 -0.15147485
-0.3470247 0.09939314 0.33327958 -0.21614869 1.1412692 0.7932508 -0.020652654 0.67008173
0.85482955 -0.20717157 -0.49432996 0.22389817 0.6012881 0.1308203 -0.09653871 0.35785568
-0.23361017 0.6275244 0.38892204 1.1624657 0.41519395 0.41656595 -0.65609103 -0.25906017
-0.7895441 0.3873717 -0.32623163 0.9717824 -0.48239166 0.32259443 0.010461308 0.4115295
0.73457587 -1.2147818 0.089047186 0.15264018 0.050519824 0.29427743 -0.056460183 0.05486948
-0.08432203 0.010422533 0.14876886 0.47924793 -0.10049278 -0.26653138 0.004323064 -0.016826965
0.1527117 -0.06822131 0.48475015 0.1300351 0.004056892 0.248342 0.07828855 -0.018082762
0.0358224 0.16692744 0.6086484 -0.2555343 -1.0901103 -0.43900353 -0.16075835 0.2892348
-0.10641749 0.004659343 -0.15367135 0.06940296 0.53398395 -0.14358029 0.13901754 0.07750175
-0.043400045 0.03653731 -0.20919375 -0.23572916 -0.026223276 -0.29970136 0.4333411 -0.25510517
0.11199947 -0.084666245 0.22351019 0.061478894 -0.17478633 -0.07622875 0.13164088 0.16833708
0.060084894 -0.05470259 -0.19746591 0.038668178 0.17562376 -0.11874077 0.28090802 -0.010760419
-0.042725764 -0.51766217 -0.30016032 0.47266597 0.11437323 -0.22807293 0.06134553 0.04551005
0.048063956 -0.1675652 0.16328858 -0.13326567 -0.27093112 -0.09362185 -0.28159982 0.058713987
-0.15989707 0.12158689 -0.61301625 -0.039677553 -0.23945147 -0.1616554 -0.1046979 0.07136099
0.025142193 -0.109280005 0.35229236 -1.4505519 -0.1961397 -0.105268605 -0.580663 0.025457354
-0.77747774 -1.7937632 0.15609725 0.104750045 0.06131424 -0.14851256 -0.23622088 -0.23907594
-0.22640398 0.12157198 0.3237622 0.01809692 0.090355515 0.15270576 -0.56236434 -0.011077628
-0.48581108 0.12472209 -0.17517376 -0.82948184 0.08005731 -0.25258985 -0.116849795 -2.7053716
-0.053542893 -0.3003034 0.106415994 -0.17099246 -0.057475697 -0.032788917 -2.7313974 0.037058104
00000000: bd6a b73d 1354 733e eea5 053f 2714 403e
00000010: c34a 903f 82aa be3d 799b 4d3e 5c42 343f
00000020: 3fa3 25be 5bab 58bd feaa 2abe b7f4 f23d
00000030: 96ba a2be fd18 c3bd 53fc e4be 4c97 763e
00000040: a3a5 5bbe 7a23 8abf a2f4 8bbe 00a8 cdbe
00000050: 8ab2 e9be a3ec 28be 596e b63d 2088 00bf
00000060: 2394 123f 1d0e 263f 48a9 923e e95e 5c3e
00000070: fc3a 1abf 01a5 83be 14e4 91bd bf2e 8f3e
00000080: e76b 1dbe c10b 9a3d 3714 a53e 626c 3fbe
00000090: aebe ba3e 73fd 993e 002b 1abf 7676 44be
000000a0: f6b8 4abc 5162 5bbe acba 75be e983 3cbf
000000b0: eac1 1bbf 0b78 29be 2f5e a9be 657d e7be
000000c0: 5c0a adbe 8165 19bf 7aff 763e 9669 383e
000000d0: 215c 513d 7bbc eabe 2cec c13c ae1d e2be
000000e0: c452 f73d 6a5e 8bbf f62d 94bd a058 48be
000000f0: 4c86 873d e263 24be 741e ab3e 1771 483e
00000100: c026 e6be d8fd bc3d 45bf dbbe 6c10 b73d
00000110: c4ed a13d b244 0dbf f999 3fbf ca94 87bd
00000120: da89 323e 23c7 883e be83 62be 99a9 eb3e
00000130: 9021 d63e de1f 92bd faa9 073d 1743 f33d
00000140: 14ce 923d 1228 ff3e f741 c13d 6107 0bbe
00000150: 8b17 63be 006a cebe 4710 86bf 2bc7 25bf
00000160: c941 3bbf c48b 073f 965b 863d 64f5 9b3e
00000170: 5fa3 9a3e bac8 62be b4ce cbbf 391c 1bbe
00000180: 39ad b1be a18e cb3d 9fa3 aa3e 1556 5dbe
00000190: 1c15 923f 7c12 4b3f c12f a9bc 7a8a 2b3f
000001a0: 1cd6 5a3f c924 54be d118 fdbe 9045 653e
000001b0: 04ee 193f c2f5 053e 16b6 c5bd dc38 b73e
000001c0: 8137 6fbe 70a5 203f ca20 c73e adcb 943f
000001d0: 4d94 d43e 2248 d53e 95f5 27bf 89a3 84be
000001e0: 901f 4abf 9555 c63e d507 a7be bbc6 783f
000001f0: 0afc f6be 192b a53e e865 2b3c ffb3 d23e
00000200: 2a0d 3c3f f87d 9bbf 5f5e b63d b54d 1c3e
00000210: e0ed 4e3d 88ab 963e cb42 67bd d2be 603d
00000220: 07b1 acbd 46c3 2a3c dd56 183e fc5f f53e
00000230: 29cf cdbd cd76 88be 7da8 8d3b b4d8 89bc
00000240: 7560 1c3e 9db7 8bbd 2c31 f83e ec27 053e
00000250: adef 843b 5e4d 7e3e bf55 a03d 4d22 94bc
00000260: 82ba 123d 07ef 2a3e 62d0 1b3f 64d5 82be
00000270: bc88 8bbf 12c5 e0be d69d 24be 9516 943e
00000280: 6af1 d9bd 67ad 983b 065c 1dbe 2423 8e3d
00000290: 2cb3 083f b606 13be 9d5a 0e3e 3db9 9e3d
000002a0: 3fc4 31bd 25a8 153d e336 56be fc62 71be
000002b0: 32d2 d6bc 7572 99be e2de dd3e 259d 82be
000002c0: fa5f e53d 7f65 adbd dbdf 643e 4bd1 7b3d
000002d0: 30fb 32be d21d 9cbd decc 063e 8e60 2c3e
000002e0: 941b 763d d30f 60bd 8134 4abe 8662 1e3d
000002f0: b7d6 333e 5c2e f3bd 2dd3 8f3e 784c 30bc
00000300: 3601 2fbd 8285 04bf 9dae 99be 4601 f23e
00000310: 833c ea3d f38b 69be 7345 7b3d bf68 3a3d
00000320: b6de 443d 3696 2bbe 1f35 273e cc76 08be
00000330: 7cb7 8abe d0bc bfbd da2d 90be 147e 703d
00000340: 0fbc 23be 8c02 f93d a2ee 1cbf ee84 22bd
00000350: c432 75be fe88 25be da6b d6bd b625 923d
00000360: 00f7 cd3c 32ce dfbd aa5f b43e afab b9bf
00000370: d8d8 48be 1197 d7bd 55a6 14bf f18b d03c
00000380: c808 47bf 089a e5bf f5d7 1f3e 3187 d63d
00000390: a424 7b3d ad13 18be e3e3 71be 53d0 74be
000003a0: 72d6 67be bbfa f83d 29c4 a53e fe3f 943c
000003b0: 500c b93d e65e 1c3e 1cf7 0fbf f07e 35bc
000003c0: 3bbc f8be 4c6e ff3d c060 33be ec58 54bf
000003d0: 16f5 a33d 7553 81be f24e efbd cf24 2dc0
000003e0: cb4f 5bbd 5ec1 99be a1f0 d93d a618 2fbe
000003f0: a36b 6bbd ac4d 06bd 37cf 2ec0 3dca 173d
