rdpg/checkpoints/rdpg_traj_track/target_actor.pth (torch, 939195 bytes, 10 tensors)

fc1.weight f4 [256, 9]
0	0x3e53095f	0.20609044
1	0xbdfc9dc9	-0.12334783
2	0x3d47518d	0.048661757
3	0xbe13587c	-0.14389223
4	0x3e027b53	0.12742357
5	0xbecf4dc2	-0.40489012
6	0xbe275aa3	-0.16343169
7	0x3d7c4e4c	0.061598107
8	0x3db89115	0.09012047
9	0xbe474e07	-0.19463359
10	0xbe3b6ad7	-0.18302475
11	0x3d15876e	0.03650611
12	0xbed575c6	-0.41691417
13	0xbe023223	-0.12714438
14	0xbef537e1	-0.47894195
15	0x3dc7fc5f	0.09764933
16	0x3edf745f	0.43643472
17	0x3e584423	0.21119742
18	0x3e8d1931	0.27558282
19	0xbe7070e9	-0.23480572
20	0x3e5b84d2	0.21437386
21	0xbdc4c650	-0.096081376
22	0xbd7bedd8	-0.061506122
23	0xbe3ab755	-0.18233998
24	0x3f1fe7bb	0.6246297
25	0xbf5efb4d	-0.87102205
26	0x3e3757e0	0.17904615
27	0x3eb5ab90	0.35482454
28	0xbed7a1b8	-0.4211557
29	0x3ed8587d	0.4225501
30	0xbdda4198	-0.10657042
31	0xbe27332c	-0.16328114
32	0xbe2395c5	-0.15975101
33	0xbd472707	-0.048621204
34	0xbdde11a5	-0.10843209
35	0x3de13abb	0.1099753
36	0xbe9802ea	-0.29689723
37	0xbeb2e4a9	-0.3494008
38	0xbea07de1	-0.31346038
39	0xbca8b87b	-0.02059578
40	0x3e6af5ad	0.2294528
41	0xbe1b8412	-0.151871
42	0x3e75e120	0.2401166
43	0x3f200b69	0.6251741
44	0x3dacdb1b	0.084402286
45	0xbd7b7229	-0.06138817
46	0x3ec94584	0.3931085
47	0x3f12bce0	0.5731945
48	0x3b3bc076	0.0028648651
49	0x3d11cb78	0.035594434
50	0x3df4f9ce	0.11961709
51	0xbe2dd71c	-0.16976589
52	0xbee0a85c	-0.43878448
53	0x3de912ef	0.113805644
54	0xbe991647	-0.2989981
55	0xbc90901e	-0.017646845
56	0x3eb83428	0.35977292
57	0x3e092e19	0.13396491
58	0x3e0e5ac6	0.13901815
59	0x3dab1f75	0.08355609
60	0x3ec7c6c7	0.39018843
61	0xbe285f8e	-0.16442701
62	0x3c2c9f08	0.010535963
63	0x3eac8905	0.33698288
64	0x3db3b5cd	0.0877491
65	0xbe181cef	-0.14854787
66	0xbe5f3485	-0.21797378
67	0x3e744650	0.23854947
68	0xbea92cdf	-0.33042046
69	0x3eca12b8	0.39467406
70	0x3ee5b1c2	0.4486218
71	0xbdf2434b	-0.11829241
72	0xbd9e5e66	-0.07732849
73	0x3dea9641	0.1145444
74	0xbe15cdca	-0.14629284
75	0x3e97014e	0.29493183
76	0x3e8e1334	0.27749026
77	0xbd54d958	-0.051965088
78	0xbe59700b	-0.21234147
79	0xbf371897	-0.71521896
80	0xbc6dfdb1	-0.014525817
81	0xbeca88b4	-0.3955742
82	0x3eac46e1	0.33647826
83	0xbd8f0534	-0.06983414
84	0x3b3498d1	0.0027556906
85	0xbc893b67	-0.016751958
86	0xbd35998f	-0.044335898
87	0x3ea9f4f8	0.3319471
88	0xbe3759ff	-0.17905425
89	0x3ea8bb47	0.3295538
90	0x3edc1dca	0.42991477
91	0xbea96e34	-0.3309189
92	0x3e74eadd	0.23917718
93	0xbe4051dd	-0.18781228
94	0x3e41f115	0.18939622
95	0x3d92f018	0.071747005
96	0x3e8b434d	0.27199784
97	0x3ea0a359	0.31374624
98	0xbe83749d	-0.25674906
99	0xbdb56d39	-0.08858723
100	0xbd819d1d	-0.06328795
101	0xbe8c1655	-0.27360788
102	0x3c55a975	0.01304089
103	0x3d8cc028	0.068725884
104	0x3ddc7e3c	0.10766265
105	0x3ef39f2d	0.4758238
106	0x3f44bc58	0.7684989
107	0x3ef378bc	0.4755305
108	0x3ee6c468	0.4507172
109	0x3e7290ec	0.23688096
110	0xbbc15dcc	-0.005901074
111	0x3ce348a9	0.027744608
112	0x3da2a95d	0.0794246
113	0xbdebd3fb	-0.115150414
114	0x3e53846f	0.20655988
115	0xbf3ff58a	-0.7498404
116	0x3d0571e1	0.032579307
117	0x3e9c27c4	0.3049909
118	0x3ece3401	0.4027405
119	0xbe2a6898	-0.16641462
120	0xbd4a9d00	-0.049466133
121	0xbe0d15ab	-0.13777797
122	0x3ebca39a	0.36843568
123	0x3f07220a	0.52786314
124	0x3e4379b5	0.19089396
125	0x3ea70ea1	0.32628348
126	0xbe90687c	-0.28204715
127	0xbdd80a40	-0.1054883
128	0x3db5609f	0.0885632
129	0xbe9ee4d1	-0.31033948
130	0xbe680626	-0.22658595
131	0xbde07f83	-0.10961821
132	0x3edc04a6	0.42972296
133	0xbd044ec8	-0.032301694
134	0x3e226e8c	0.15862483
135	0xbe8625f5	-0.26200834
136	0x3d82af01	0.063810356
137	0xbdb3d6f5	-0.08781234
138	0xbe55cb46	-0.20878324
139	0xbe707154	-0.23480731
140	0x3f097394	0.53691983
141	0x3e0d4f55	0.13799794
142	0xbec70fe5	-0.38879314
143	0x3ced3793	0.028957164
144	0xbe9b1bdf	-0.302947
145	0x3f03f035	0.515384
146	0xbcccbfeb	-0.024993857
147	0x3e174345	0.14771755
148	0x3b671952	0.0035262895
149	0xbe0a726a	-0.13520208
150	0x3f036d30	0.5133848
151	0xbed4c5a1	-0.4155703
152	0xbd0a3738	-0.033744067
153	0x3d0a4ec5	0.033766527
154	0x3f36906a	0.7131411
155	0x3d879720	0.06620622
156	0xbc956f04	-0.018241413
157	0x3dee30a6	0.11630373
158	0xbe45fa4e	-0.19333765
159	0x3d81d1b4	0.06338826
160	0xbf1bedca	-0.6090971
161	0xbe033547	-0.12813292
162	0x3f089136	0.53346574
163	0x3ead0d58	0.33799243
164	0x3ed03510	0.40665483
165	0x3e33ebd0	0.17570424
166	0xbe721a3d	-0.23642822
167	0xbe4d97d4	-0.20077449
168	0xbdabf046	-0.08395438
169	0x3e91c966	0.28473967
170	0x3e39a0d0	0.18127751
171	0x3e4e07b6	0.20120129
172	0xbe29d538	-0.16585243
173	0xbef4b283	-0.47792444
174	0x3e75561c	0.2395863
175	0xbb9d751a	-0.0048052194
176	0xbe822598	-0.25419307
177	0x3d49a67f	0.04923105
178	0x3f120ca0	0.57050514
179	0x3f07cfae	0.5305127
180	0xbe806113	-0.25074062
181	0xbdd68495	-0.10474507
182	0xbe7f6633	-0.2494133
183	0x3d497709	0.049185786
184	0xbe6ae952	-0.22940567
185	0xbe90ad1e	-0.28257078
186	0xbec289da	-0.37995797
187	0x3d60d415	0.054889757
188	0x3ea07bba	0.31344396
189	0xbcc57f19	-0.024108456
190	0xbeb3e9b3	-0.35139236
191	0x3e264b88	0.1623975
192	0xbeacd273	-0.3375431
193	0xbea8a870	-0.32941008
194	0x3eaa75b0	0.33292913
195	0xbd7d8476	-0.061893903
196	0xbe80ddbe	-0.25169176
197	0x3e1b6f73	0.15179233
198	0x3e806ca6	0.25082892
199	0x3e2402a5	0.16016634
200	0xbebda248	-0.37037873
201	0xbea4cad2	-0.3218599
202	0xbe966285	-0.2937204
203	0xbe13834d	-0.14405556
204	0x3f058749	0.52159554
205	0x3e5008b4	0.2031582
206	0xbda6d80b	-0.08146676
207	0x3cfbd84d	0.030742789
208	0x3c3b8199	0.011444473
209	0xbcf165ca	-0.029467482
210	0x3d7c85a3	0.061650883
211	0xbea4ef99	-0.32214049
212	0xbe29c117	-0.16577564
213	0x3ecacd46	0.39609736
214	0x3d903dfb	0.07043072
215	0x3edd4f3a	0.43224508
216	0xbe564833	-0.2092598
217	0xbdaf1300	-0.08548546
218	0xbdd19363	-0.1023319
219	0x3e8095a1	0.25114158
220	0x3ea06cfe	0.31333154
221	0xbe8332f3	-0.2562481
222	0xbd6893bd	-0.05678152
223	0x3d818d47	0.06325775
224	0xbd0be9bf	-0.034158465
225	0x3e557d2d	0.20848532
226	0xbee616b8	-0.44939208
227	0x3e9c271c	0.30498588
228	0x3e3e7473	0.1859911
229	0x3e818d1f	0.2530298
230	0xbe9a015a	-0.30079156
231	0xbda07516	-0.07834832
232	0xbdba7525	-0.09104375
233	0x3e8bcffa	0.2730711
234	0x3eea4d4d	0.457621
235	0x3dda3273	0.10654154
236	0x3ee8fc80	0.45505142
237	0x3e30ad0d	0.17253514
238	0xbe3d93f5	-0.18513472
239	0xbdcd273e	-0.100172505
240	0x3eecd3c8	0.46255326
241	0x3e4759f0	0.19467902
242	0xbde80a6c	-0.11330113
243	0x3e6bcf1f	0.23028229
244	0xbd4842f5	-0.04889198
245	0xbecb6999	-0.39729002
246	0xbe763879	-0.2404498
247	0xbe6d0d65	-0.23149641
248	0x3e4e1e6e	0.20128796
249	0x3f2e3c40	0.68060684
250	0xbf145bfd	-0.5795286
251	0x3eab6c19	0.3348091
252	0xbe05023c	-0.12989134
253	0xbe647e06	-0.22313699
254	0xbe3304f5	-0.1748236
255	0xbe50d3ff	-0.2039337

fc1.bias f4 [256]
0	0xbe452978	-0.192541
1	0xbe9a8882	-0.30182272
2	0xbd8b6a6f	-0.0680741
3	0xbe1d30ab	-0.15350597
4	0x3e9d35b9	0.3070505
5	0x3da763ca	0.0817333
6	0x3e25b356	0.16181692
7	0x3d3e7ef7	0.0465078
8	0x3d98c2a6	0.07459001
9	0x3dae7032	0.08517493
10	0x3e906618	0.2820289
11	0x3d995360	0.07486606
12	0x3df787c1	0.1208644
13	0xbe3996c5	-0.1812392
14	0x3ddcd3f5	0.10782615
15	0xbe46ab2e	-0.19401237
16	0x3ddde606	0.10834889
17	0x3e34ac3e	0.1764383
18	0xbe046e1b	-0.12932627
19	0x3eb6731d	0.356347
20	0x3e9d80b8	0.30762267
21	0xbdcf6d5d	-0.10128281
22	0xbd725e96	-0.059172235
23	0xbdf9f38b	-0.12204655
24	0xbc979e7d	-0.01850819
25	0x3d755f3a	0.05990527
26	0xbdb8551b	-0.090006076
27	0x3b59c442	0.003322855
28	0x3e284d6b	0.16435783
29	0x3d865f82	0.065611854
30	0x3e9e13f8	0.3087461
31	0x3e9ce532	0.30643612
32	0x3e3af5ba	0.182578
33	0x3e55d4f4	0.20882016
34	0xbe18ca4c	-0.1492092
35	0x3e2e7517	0.17036854
36	0xbdb63ca0	-0.08898282
37	0x3e5cdb87	0.21568118
38	0x3ea3c924	0.31989396
39	0xbdb1d233	-0.086826704
40	0x3c93595e	0.01798695
41	0x3e2ad616	0.1668323
42	0x3e190822	0.14944509
43	0x3dc648c1	0.096818455
44	0xbd6ce040	-0.05783105
45	0x3e98e50d	0.29862252
46	0x3d7d372b	0.06182019
47	0x3daba0ec	0.08380303
48	0x3d0322fd	0.03201579
49	0xbe896dc4	-0.26841557
50	0x3e9764dd	0.2956914
51	0xbd124a61	-0.035715465
52	0x3eac475f	0.33648202
53	0xbc42a564	-0.0118802525
54	0xbda23755	-0.0792071
55	0x3eab5b38	0.33468032
56	0x3e0bbfc5	0.13647373
57	0xbe4ba0b4	-0.19885522
58	0xbe657b1d	-0.22410245
59	0xbe2097e2	-0.15682939
60	0x3e12ec32	0.14347914
61	0xbc9a89b9	-0.0188645
62	0x3e456d44	0.19279963
63	0x3c67fd6f	0.014159544
64	0x3cf64277	0.03006099
65	0x3e6080ca	0.21924129
66	0x3e742f57	0.23846184
67	0xbde0b4f5	-0.10972015
68	0x3dc2626b	0.09491428
69	0xbce1bea8	-0.027556732
70	0xbeaad85f	-0.33368203
71	0xbde21a86	-0.11040215
72	0xbce16495	-0.027513782
73	0xbe60e75c	-0.21963257
74	0x3d26b0b8	0.040695876
75	0xbd3254ff	-0.04353809
76	0xbe00f66c	-0.12594002
77	0x3e6107a2	0.21975568
78	0xbe378166	-0.17920455
79	0x3e21ba96	0.15793833
80	0xbc403084	-0.011730317
81	0x3e72e2cd	0.2371933
82	0xbc23a476	-0.009987941
83	0x3e1fac89	0.1559316
84	0xbe29ffbb	-0.1660146
85	0x3e61d21f	0.22052811
86	0x3e4fc1fc	0.20288843
87	0x3a59ad12	0.00083036826
88	0x3e53f500	0.20698929
89	0x3e7eb36b	0.2487313
90	0xbdaea4fc	-0.08527562
91	0x3ea607c8	0.32427812
92	0x3e8db52c	0.27677286
93	0xbd8b45c2	-0.068004146
94	0xbe0f2c5c	-0.13981766
95	0x3d286628	0.04111305
96	0x3dd823bd	0.105536915
97	0x3e4ffd23	0.20311408
98	0x3da76857	0.08174198
99	0x3e3f5564	0.18684918
100	0x3e49e8ac	0.19717664
101	0xbe003ba4	-0.12522751
102	0x3dc334d7	0.09531563
103	0xbd267dc4	-0.040647283
104	0x3ea0c1fd	0.31398
105	0x3e07fa4b	0.13279073
106	0x3ea113ea	0.31460506
107	0x3be0508b	0.006845539
108	0x3e4b4ac2	0.19852737
109	0x3e4fa629	0.20278229
110	0x3e3b88d3	0.18313913
111	0x3e8366f1	0.25664476
112	0xbe5a9f47	-0.21349822
113	0x3e875eed	0.2643961
114	0xbdc0cec0	-0.094144344
115	0xbc800e93	-0.01563195
116	0xbe9a68d4	-0.30158103
117	0xbe2cebf9	-0.16886891
118	0x3d069a27	0.032861855
119	0x3ea25488	0.31705117
120	0x3ea36b1f	0.31917664
121	0xbdd11b7b	-0.102103196
122	0x3e9e77a3	0.3095065
123	0x3d89b0a7	0.06723147
124	0x3dda2288	0.106511176
125	0x3e6500b1	0.22363545
126	0x3e1d8b18	0.15385091
127	0xbe00fe3b	-0.12596981
128	0x3e5170bc	0.20453161
129	0x3d82cf72	0.06387223
130	0xbda5b988	-0.08092028
131	0x3de6aad9	0.11263055
132	0x3d67ec19	0.056621645
133	0x3dba1b62	0.09087254
134	0x3cc34131	0.023834797
135	0xbd1692cd	-0.036761094
136	0x3e03c593	0.12868337
137	0x3eafaa4e	0.3430962
138	0x3e927f14	0.28612578
139	0xbde26b01	-0.110555656
140	0x3eb5208f	0.35376403
141	0x3d7af65d	0.061270107
142	0x3d0a6530	0.033787906
143	0x3cded4d1	0.027201088
144	0xbd406151	-0.04696781
145	0x3df47720	0.11936784
146	0xbdc15e36	-0.094417974
147	0x3e8de714	0.2771536
148	0xbdbef510	-0.09324086
149	0x3e2afce9	0.1669804
150	0xbcc94531	-0.024569126
151	0xbd3439d8	-0.044000477
152	0xbe4f578c	-0.2024824
153	0x3e1fb899	0.15597762
154	0xbe03a194	-0.12854606
155	0x3e38262e	0.17983314
156	0xbc148704	-0.009065393
157	0x3dc46e46	0.095913455
158	0x3e442a94	0.19156867
159	0x3ea1b960	0.31586742
160	0xbe685f15	-0.22692521
161	0x3e995b3e	0.29952425
162	0x3e9a5dc2	0.30149657
163	0x3dc5ca8f	0.096577756
164	0xbd82c2fd	-0.06384847
165	0x3e6410b0	0.22271991
166	0xbe1b33aa	-0.15156427
167	0x3ed3c5bd	0.413618
168	0xbcce6a48	-0.025197163
169	0xbd13b3f6	-0.036060296
170	0x3e95ef66	0.2928421
171	0x3ea8a7f6	0.32940644
172	0x3d1681be	0.036744826
173	0x3e94338e	0.28945583
174	0xbe16eb93	-0.14738302
175	0x3e991a57	0.29902908
176	0xbe5c6fcd	-0.21527024
177	0x3e1c8db0	0.15288424
178	0xbdac1008	-0.08401495
179	0xbd0db067	-0.03459206
180	0x3e0480c7	0.1293975
181	0xbe6244d8	-0.22096574
182	0xbd570dc3	-0.05250336
183	0x3e87800b	0.26464877
184	0xbe2cd68a	-0.16878715
185	0xbcf2616d	-0.029587472
186	0x3dcf0ec8	0.10110241
187	0x3e8fb6dd	0.280692
188	0x3e6dd900	0.2322731
189	0x3e47f449	0.19526781
190	0x3db42b21	0.08797289
191	0xbe85c51c	-0.26126945
192	0x3e40be6d	0.18822642
193	0xbe046c75	-0.12931998
194	0xbd8d0149	-0.06885011
195	0x3c2aaf2e	0.010417743
196	0x3c0433d3	0.0080689965
197	0xbe10a38f	-0.14124893
198	0xbe3d7c6c	-0.18504494
199	0x3e5293e9	0.20564236
200	0xbe5167fc	-0.20449823
201	0x3e4e7380	0.20161247
202	0x3e89b253	0.26893863
203	0xbde554c0	-0.111978054
204	0x3eb65eed	0.35619298
205	0x3e757d92	0.23973683
206	0x3e86d596	0.26334828
207	0x3ddb6d93	0.10714259
208	0xbd0cd91a	-0.03438673
209	0xbdbd0aef	-0.09230601
210	0x3d9ad1de	0.0755956
211	0x3e0e9b2a	0.13926378
212	0x3c902f68	0.01760073
213	0x3e8c1917	0.27362892
214	0x3ea33dba	0.3188303
215	0x3e9c93d4	0.30581534
216	0x3d92211d	0.07135222
217	0x3e734933	0.23758392
218	0x3e194f98	0.14971769
219	0x3e685441	0.2268839
220	0x3e071935	0.1319321
221	0x3e053ba0	0.13011026
222	0x3d288233	0.041139793
223	0x3d341bf1	0.04397196
224	0x3dca9cc5	0.09893183
225	0x3e1060c4	0.14099413
226	0x3c580427	0.013184584
227	0xbdae2b64	-0.0850437
228	0x3d5fd852	0.05464966
229	0xbd827f45	-0.06371931
230	0xbd190858	-0.037361473
231	0xbd199bca	-0.037502088
232	0xbe32eca0	-0.17473078
233	0x3e0ce264	0.13758236
234	0x3e1aab86	0.15104493
235	0xbdb896cc	-0.09013137
236	0x3e0441ab	0.12915675
237	0x3e879ac5	0.26485267
238	0x3e4afafd	0.19822307
239	0x3e3ca293	0.18421392
240	0x3b91ea6a	0.004452993
241	0x3e41e71d	0.18935819
242	0x3ea78d0e	0.32724804
243	0x3d6285c5	0.055303354
244	0x3d8da442	0.06916095
245	0x3e87d767	0.26531526
246	0x3e0c5439	0.13704003
247	0xbde399a3	-0.11113288
248	0x3e50a645	0.20375927
249	0x3e86aedf	0.2630529
250	0x3e15762b	0.14595859
251	0x3e01cdcc	0.12676162
252	0xbdb15427	-0.08658629
253	0x3e378148	0.1792041
254	0xbe17d871	-0.1482866
255	0x3d0a294f	0.0337308

lstm.weight_ih_l0 f4 [512, 256]
0	0xbe3e1dc2	-0.18566039
1	0xbd046d39	-0.032330725
2	0x3e2a15c2	0.16609862
3	0x3e4be965	0.19913252
4	0xbd465ece	-0.048430257
5	0x3e3ceebf	0.1845045
6	0x3d99dff8	0.07513422
7	0x3b8d650f	0.0043150256
8	0x3d5b341d	0.053516496
9	0xbdbbbaac	-0.09166464
10	0x3da59f4c	0.08087024
11	0xbe0d8472	-0.13820055
12	0x3dfb5b69	0.122732945
13	0xbdc96daf	-0.098353736
14	0x3d172eac	0.036909744
15	0x3e103a00	0.14084625
16	0x3cfed0f9	0.031105505
17	0x3d25feff	0.040526386
18	0x3d9381c4	0.07202485
19	0x3d3f2029	0.04666153
20	0x3dc44b6a	0.095846966
21	0x3e0fa230	0.14026713
22	0x3db923d1	0.090400346
23	0xbd24c5b4	-0.040227607
24	0x3ca71dc1	0.02039993
25	0x3dfa741e	0.12229179
26	0x3d9cc0f1	0.07653988
27	0x3d0b7abf	0.034052607
28	0xbda3998b	-0.0798827
29	0xbe078920	-0.13235903
30	0x3e08190d	0.13290806
31	0x3e10559d	0.14095159
32	0x3e44dc88	0.19224751
33	0x3e66de8b	0.22545831
34	0xbc9a6ec8	-0.018851653
35	0xbc060528	-0.00817994
36	0x3d72ecc6	0.059307836
37	0xbd8aba8d	-0.06773863
38	0x3e0afb88	0.13572514
39	0xbe8ec082	-0.27881247
40	0xbcf2d166	-0.029640865
41	0xbdf81d9b	-0.12115022
42	0x3d95ce48	0.07314736
43	0xbcd6cc55	-0.02622048
44	0x3d04fbfe	0.03246688
45	0x3be72ac2	0.0070546577
46	0x3e193258	0.14960611
47	0x3b335efd	0.002736985
48	0x3dd213bd	0.10257671
49	0xbc42aaa5	-0.011881505
50	0xbc67912a	-0.014133731
51	0x3e66bf78	0.22533977
52	0xbbe8793d	-0.007094531
53	0xbdf7c36f	-0.12097823
54	0xbd1111c0	-0.03541732
55	0x3da96cf8	0.08272737
56	0x3e5e402e	0.2170417
57	0x3c85088e	0.01623943
58	0x3c4aec66	0.012385463
59	0xbd0d1a09	-0.034448657
60	0x3c82512d	0.015907848
61	0x3d9973ec	0.074928135
62	0x3dd55901	0.10417367
63	0x3e23262b	0.15932529
64	0xbd0eb723	-0.03484262
65	0x3e2b282d	0.16714545
66	0x3e0edb0d	0.13950749
67	0x3e01bce9	0.1266972
68	0x3e0d359f	0.13789986
69	0x3c0d31e1	0.008617849
70	0xbd3e3567	-0.046437647
71	0xbb59030f	-0.0033113395
72	0xbdc22d0d	-0.09481249
73	0xbe2b7d3b	-0.1674699
74	0xbe02c702	-0.12771228
75	0x3e1d4157	0.15356956
76	0xbd3c4e46	-0.045973085
77	0x3decb7ec	0.11558518
78	0x3db23b91	0.08702768
79	0x3dc5018e	0.09619437
80	0x3b8243ce	0.003975368
81	0x3dbcedd3	0.09225049
82	0x3c9a7cc4	0.018858321
83	0xbbcebb92	-0.006308981
84	0xbdeb5674	-0.11491099
85	0x3d43b0df	0.0477761
86	0x3d8e0e79	0.06936354
87	0x3cbbec6f	0.022939889
88	0xbd9a6035	-0.07537881
89	0x3d24901a	0.04017649
90	0xbcde9fd2	-0.027175818
91	0x3dcc68b6	0.099809095
92	0x3d9a1208	0.075229704
93	0xbdf6fd82	-0.120600715
94	0xbe03f0e2	-0.12884858
95	0x3e064f9f	0.1311631
96	0x3d853899	0.06504936
97	0x3ddd26d9	0.10798425
98	0xbcf1b421	-0.029504837
99	0xbcc5df90	-0.024154454
100	0x3e5879cb	0.2114021
101	0xbcce30c1	-0.025169732
102	0x3d711f4a	0.05886773
103	0xbd13cb6d	-0.036082674
104	0x3e739b6f	0.23789762
105	0xbd7275d1	-0.05919439
106	0x3dc5e02b	0.09661897
107	0x3deba7f4	0.11506644
108	0x3de97725	0.11399678
109	0x3e445403	0.19172673
110	0xbc609ac3	-0.013708773
111	0x3df2c398	0.11853713
112	0xbdeb2099	-0.11480827
113	0x3d8cea97	0.06880682
114	0x3cc0daa2	0.023541752
115	0xbd1a5b83	-0.03768493
116	0x3cf3bec0	0.029754043
117	0x3c37449d	0.011185792
118	0x3c5b939a	0.01340189
119	0x3de09660	0.10966182
120	0xbd968358	-0.073492706
121	0xbd900e15	-0.07033936
122	0x3de998f6	0.11406128
123	0xbd182fc5	-0.03715493
124	0x3e3cc379	0.18433942
125	0x3e162301	0.1466179
126	0xbd86ab59	-0.06575651
127	0xbe0f7864	-0.14010769
128	0x3d7478e3	0.0596856
129	0xbc21251f	-0.0098355105
130	0x3ddb33ea	0.10703261
131	0x3db1dc4f	0.08684599
132	0x3bd36a80	0.006451905
133	0x3e132556	0.14369711
134	0xbb135c54	-0.0022485452
135	0xbd631527	-0.055440094
136	0x3d80b423	0.06284358
137	0x3d5379ba	0.05162976
138	0x3e1d9c75	0.15391715
139	0x3db96b49	0.09053666
140	0x3e81d9e2	0.25361544
141	0x3d20670d	0.039160777
142	0x3d1e9c3b	0.03872321
143	0x3e9644fe	0.29349512
144	0xbdd24617	-0.10267275
145	0x3dfa0b92	0.12209238
146	0x3df20e48	0.1181913
147	0x3dc4cf9d	0.096099116
148	0x3e2eed97	0.17082821
149	0x3d0354a9	0.03206316
150	0xbe17e3ec	-0.14833039
151	0xbcf26994	-0.02959136
152	0xbcefd3c1	-0.029275777
153	0xbd2672b1	-0.040636722
154	0x3ef3d2b1	0.47621682
155	0x3d945465	0.072426595
156	0x3dac3438	0.084083974
157	0x3c846b42	0.016164426
158	0x3eac6f80	0.33678818
159	0x3e21a1a8	0.15784323
160	0xbe56f37e	-0.20991322
161	0x3e16d29c	0.14728779
162	0x3dac9e8d	0.08428679
163	0x3dcb15b9	0.09916253
164	0xbd4281c2	-0.047487028
165	0x3d2bb737	0.041922774
166	0x37b54b93	2.1612073e-05
167	0x3e771f44	0.2413302
168	0x3db72cfd	0.08944128
169	0xbdcda028	-0.10040313
170	0xbd6c63bf	-0.057712313
171	0x3b092a8b	0.0020929899
172	0x3ca0b9c3	0.019619828
173	0x3e0b1573	0.13582401
174	0xbb09f931	-0.002105307
175	0x3eae3297	0.34022972
176	0x3cb8e8e9	0.022571998
177	0x3ac517ac	0.0015036962
178	0xbe01a13b	-0.12659161
179	0xbb4d63f0	-0.0031340085
180	0x3d39611c	0.045258626
181	0x3cd996e6	0.026561212
182	0xbe2866d0	-0.1644547
183	0xbd0c02ab	-0.034182232
184	0x3ecb2e6c	0.39683855
185	0x3d8b94df	0.06815504
186	0xbd30eeb9	-0.043196414
187	0x3db49487	0.08817392
188	0x3e3d57ae	0.18490478
189	0x3e484fac	0.19561642
190	0xbd66102e	-0.056167774
191	0x3da8f7cc	0.082503885
192	0x3d30ddc6	0.04318025
193	0xbcf9d4fa	-0.030497063
194	0x3e103e73	0.14086322
195	0x3e068f9b	0.13140719
196	0x3dbbafca	0.091643885
197	0xbd5904c6	-0.052983068
198	0xbe008033	-0.12548904
199	0x3df36f22	0.11886431
200	0x3db2fb93	0.0873939
201	0xbd44e855	-0.04807313
202	0x3e0de794	0.13857871
203	0x3b205002	0.002446175
204	0x3de11cbb	0.10991808
205	0x3e3d174a	0.18465915
206	0x3c4c5dbe	0.012473522
207	0x3e3067d4	0.17227107
208	0x3e588428	0.21144164
209	0xbdf1da56	-0.118092224
210	0x3d2d5835	0.04232045
211	0x3e065dc8	0.13121712
212	0x3a81fed3	0.0009917862
213	0x3df18974	0.11793795
214	0x3d78e049	0.06076077
215	0x3e138187	0.1440488
216	0x3d698b9a	0.0570179
217	0xb98f0e7e	-0.00027285883
218	0x3e19a125	0.15002878
219	0x3e728354	0.2368291
220	0x3e174a46	0.14774427
221	0x3e06ee3f	0.13176821
222	0x3e9fbb87	0.3119776
223	0xbbe7d74e	-0.007075227
224	0xbaee6eab	-0.0018190941
225	0x3e1ddca7	0.15416203
226	0x3dddb6a2	0.1082585
227	0xbd5767e4	-0.052589312
228	0x3c98335a	0.018579174
229	0x3c5bf52c	0.013425153
230	0x3c860987	0.016361965
231	0xbdad9b67	-0.08476906
232	0xbdaf7a37	-0.085682325
233	0x3d9e365b	0.07725211
234	0x3df28409	0.1184159
235	0xbe0ef091	-0.13958956
236	0xbd87608b	-0.06610211
237	0x3d45f41c	0.048328504
238	0x3e5ccdca	0.21562877
239	0x3d3f5fc8	0.046722203
240	0x3d634bb8	0.055492133
241	0x3b276bf4	0.0025546523
242	0x3e23092a	0.15921465
243	0x3dfd05f1	0.12354649
244	0xbd1620a8	-0.036652237
245	0x3cb5e110	0.022202045
246	0x3e4b1eab	0.19835918
247	0xbe290429	-0.16505493
248	0x3e9523cc	0.29128873
249	0x3de8d03a	0.11367841
250	0x3e794f4a	0.24346653
251	0xbdb2629c	-0.087102145
252	0x3d38791e	0.04503738
253	0xbda03c2b	-0.07823976
254	0xbdc19c66	-0.09453659
255	0x3caeb03a	0.021324266

lstm.weight_hh_l0 f4 [512, 128]
0	0x3ca395ca	0.019968886
1	0x3d9f612d	0.07782207
2	0xbdd279e0	-0.10277152
3	0x3dcbf877	0.099595
4	0x3e6e7f9f	0.23290871
5	0x3d9b1089	0.07571513
6	0xbdc24dd9	-0.094875045
7	0x3e5c6e41	0.21526434
8	0xbe334ae0	-0.17509031
9	0x3d864d18	0.06557673
10	0xbe02a6b8	-0.1275891
11	0x3e906e80	0.28209305
12	0x3e5b2dbf	0.2140417
13	0xbd2efa1d	-0.042718995
14	0xbe2a738d	-0.16645642
15	0xbd085160	-0.03328073
16	0xbd17e40d	-0.03708272
17	0xbcc9aff6	-0.024620038
18	0xbc9d5b81	-0.019208672
19	0x3dc541a7	0.09631663
20	0x3e5f8f63	0.21832041
21	0x3c9fc1a1	0.01950151
22	0xbdd1640b	-0.1022416
23	0x3d006da4	0.03135456
24	0xbe0c974a	-0.13729587
25	0xbd9ebe9e	-0.07751201
26	0x3e380565	0.17970808
27	0x3d3ecdd7	0.046583023
28	0xbde54728	-0.111952126
29	0x3d34c4f3	0.044133138
30	0xbe267b75	-0.16258033
31	0xbe052bea	-0.13005033
32	0x3c921e73	0.017836785
33	0x3e22b077	0.15887628
34	0x3db50d78	0.088404596
35	0xbd5013fa	-0.0508003
36	0x3dce08c6	0.10060267
37	0x3c8916e7	0.016734554
38	0x3e361195	0.17780145
39	0x3e05a8bc	0.13052648
40	0x3d3de8aa	0.046364464
41	0x3e843299	0.25819853
42	0xbd851e17	-0.0649988
43	0x3e0d3cee	0.13792774
44	0xbcf49b81	-0.029859306
45	0xbe3d6a52	-0.18497589
46	0x3c1e3be8	0.009657837
47	0x3e2f93c1	0.17146207
48	0xbe734de6	-0.23760185
49	0x3db78525	0.08960942
50	0x3d2b3db2	0.041806884
51	0x3dd4d0a8	0.103913605
52	0x3e137a13	0.14402036
53	0x3de5d0b4	0.112214476
54	0x3d06fea4	0.032957688
55	0xbca5da78	-0.020245776
56	0xbcab9128	-0.02094324
57	0xbded0f13	-0.11575141
58	0xbd606d56	-0.05479177
59	0xbc831ce1	-0.016004981
60	0xbd1a9cc6	-0.037747167
61	0x3e034464	0.12819058
62	0xbdf8d386	-0.1214972
63	0x3d085194	0.033280924
64	0xbdeccdd3	-0.11562695
65	0xbd3277d1	-0.043571297
66	0xbd88d059	-0.06680364
67	0x3d1ed959	0.038781498
68	0xbdfcd00e	-0.12344371
69	0x3d4e34ae	0.050343208
70	0xbb88c239	-0.004173544
71	0xbe198713	-0.14992933
72	0xbd86e79f	-0.06587147
73	0xbde987aa	-0.11402829
74	0x3d4f3031	0.05058307
75	0x3c63ce60	0.013904184
76	0x3da3655a	0.07978316
77	0xbdcf1168	-0.10110742
78	0x3d94b9af	0.07261979
79	0x3dbcc939	0.09218068
80	0xbd10f1a1	-0.035386685
81	0x3e35d932	0.17758635
82	0x3d9bdb0e	0.07610141
83	0xbcf20c29	-0.029546814
84	0x3e44ea40	0.19229984
85	0xbc5da872	-0.01352893
86	0x3d9a0cc1	0.07521964
87	0x3d5fc7f7	0.05463406
88	0xbe225f82	-0.15856746
89	0xbe30ba3b	-0.17258541
90	0xbe4144bf	-0.18873881
91	0xbe1bb4b6	-0.15205655
92	0x3d69d283	0.057085525
93	0x3dcbf782	0.09959318
94	0xbbe83fa9	-0.007087667
95	0xbe135af3	-0.14390163
96	0xbc979cd2	-0.018507395
97	0xbd879326	-0.06619863
98	0x3d3b32d2	0.045702763
99	0x3b8dac21	0.004323498
100	0xbe4d73d1	-0.20063712
101	0x3da08b8f	0.07839119
102	0x3e2f1e1a	0.17101327
103	0xba80e1b3	-0.0009832889
104	0xbe43e101	-0.19128801
105	0x3e96b34b	0.29433665
106	0xbda13cd0	-0.07872927
107	0xbe400e0b	-0.18755357
108	0x3cc41919	0.023937749
109	0x3db0dd18	0.0863592
110	0x3e741bae	0.23838684
111	0x3df92b4b	0.121664606
112	0xbc771eb7	-0.015083007
113	0x3bf7558e	0.0075480407
114	0x3b349aed	0.0027558163
115	0xbe22cc05	-0.1589814
116	0xbdc450f9	-0.09585757
117	0x3e62e9f0	0.22159553
118	0xbcd49841	-0.025951507
119	0xbe76cd73	-0.2410181
120	0x3d4c34c7	0.04985502
121	0xbcc7e5c9	-0.024401562
122	0x3bc4c3b0	0.006004773
123	0x3dfe5a24	0.12419537
124	0x3cac2f32	0.021018598
125	0x3dee16fa	0.11625476
126	0xbda15203	-0.078769706
127	0x3da73562	0.08164479
128	0xbd93e156	-0.07220714
129	0xbdb1220f	-0.08649074
130	0x3d56e96f	0.052468713
131	0xbdc16b18	-0.09444255
132	0xbdf9e274	-0.12201396
133	0xbdcc6650	-0.09980452
134	0xbd7afcb8	-0.061276168
135	0xbe0566d0	-0.13027501
136	0x39e8d418	0.0004440851
137	0xbdf72019	-0.12066669
138	0x3dd14c7a	0.10219665
139	0xbd601989	-0.054711852
140	0xbd92929b	-0.07156869
141	0x3d52a9d9	0.05143151
142	0x3e4405ac	0.19142789
143	0xbdcd9b28	-0.10039359
144	0xbe146b01	-0.14493944
145	0x3b081fb5	0.0020770852
146	0x3d298b18	0.041392416
147	0xbc83bec9	-0.016082184
148	0xbdb9529e	-0.09048961
149	0xbd83ffa1	-0.06445242
150	0xbdc09814	-0.094040066
151	0x3df4e7c6	0.1195827
152	0x3ba7ced5	0.005121092
153	0x3dff7f1b	0.12475415
154	0xbd366b0e	-0.04453569
155	0xbd5a77f3	-0.05333705
156	0xbda62617	-0.08112734
157	0xbe0521db	-0.13001196
158	0x3ddbe60d	0.10737238
159	0xbd940929	-0.0722831
160	0x3d406eff	0.046980854
161	0x3cddc683	0.027072197
162	0xbbf78bb0	-0.007554494
163	0x3de5d3df	0.11222052
164	0x3d358d1a	0.044324018
165	0xbe7b7d13	-0.24559431
166	0x3dbf399d	0.09337161
167	0xbe086fa4	-0.13323838
168	0x3d9ea5cb	0.07746466
169	0xbd35e5e0	-0.04440868
170	0xbd890c28	-0.06691772
171	0x3d7498cb	0.059716027
172	0x3e3b1af6	0.18272004
173	0x3cd2b56d	0.025721276
174	0x3bd13bb1	0.0063852896
175	0xbd10f490	-0.035389483
176	0x3cf70f82	0.030158762
177	0x3d6126fe	0.054968826
178	0x3cc453f3	0.023965811
179	0x3db40e67	0.087918095
180	0x3db4f36d	0.08835492
181	0xbdfdbcc7	-0.12389522
182	0x3ba74175	0.0051042386
183	0xbb9fe338	-0.0048793815
184	0xbc382411	-0.011239068
185	0xbcfea8d7	-0.031086368
186	0x3dbdaf83	0.09261992
187	0xbd8cbb9e	-0.06871723
188	0xbd706983	-0.058694374
189	0xbde732ff	-0.112890236
190	0x3dd0c9fc	0.101947755
191	0xbdbb9540	-0.091593266
192	0xbd8226b5	-0.06355039
193	0xbc89dd6d	-0.016829217
194	0x3db29436	0.08719675
195	0xbe1682a4	-0.14698273
196	0x3e2d047b	0.1689624
197	0xbdf97652	-0.12180771
198	0x3dcd3f5c	0.100218505
199	0xbdc765f5	-0.09736244
200	0x3ce7c72e	0.028293218
201	0x3cd19cec	0.025587521
202	0x3dbe0994	0.09279171
203	0x3d382f25	0.044966836
204	0xbce6fdd4	-0.028197207
205	0x3d489c7b	0.048977356
206	0xbe6e7737	-0.23287664
207	0xbd9c2723	-0.07624652
208	0xbd1e4ade	-0.038645618
209	0xbd297653	-0.04137261
210	0xbcb401d0	-0.02197352
211	0xbd4551a9	-0.04817358
212	0xbe25e059	-0.16198863
213	0xbc57dee0	-0.013175696
214	0xbe01fcf5	-0.12694152
215	0xbc523923	-0.012831005
216	0xbd2549df	-0.040353652
217	0xbe033fa5	-0.12817247
218	0x3d7bcaa9	0.06147257
219	0x3d6cddac	0.05782859
220	0xbeae31d5	-0.34022394
221	0xbd92b9c8	-0.07164341
222	0x3dcb8ab9	0.099385686
223	0x3ccc8a84	0.024968393
224	0xbce0592d	-0.027386272
225	0xbe04c9af	-0.12967561
226	0x3d104105	0.035218257
227	0xbe183196	-0.14862666
228	0xbd4fc515	-0.05072506
229	0xbd35f95e	-0.04442727
230	0xbd29146a	-0.041279234
231	0xbbbb2a64	-0.0057118405
232	0xbda8287f	-0.08210849
233	0xbda379a8	-0.079821885
234	0xbcdbd1f1	-0.026833506
235	0xbc964b0c	-0.018346332
236	0xbe392771	-0.18081452
237	0x3decc08a	0.115601614
238	0xbc1a4426	-0.009415662
239	0xbd1171c0	-0.03550887
240	0x3d35ed3c	0.044415697
241	0x3e93f6be	0.28899187
242	0xbc83f924	-0.01611001
243	0x3c996394	0.01872424
244	0xbd63083e	-0.055427782
245	0x3cb9596d	0.02262565
246	0xbdace14b	-0.08441409
247	0xbdbdb983	-0.09263899
248	0x3dc2ba7a	0.09508224
249	0x3e12896b	0.14310233
250	0x3d9fcccf	0.07802736
251	0xbd4c956b	-0.049947184
252	0x3e201c8f	0.15635894
253	0xbe4f19c8	-0.20224679
254	0x3de4e4ee	0.111764774
255	0x39b37986	0.00034232083

lstm.bias_ih_l0 f4 [512]
0	0x3d8beb54	0.06831995
1	0x3d808bce	0.06276666
2	0x3e0a6ba8	0.1351763
3	0xbcc942ab	-0.024567923
4	0x3d810278	0.06299299
5	0x3db111ab	0.08645948
6	0x3da4c184	0.08044723
7	0x3dd46611	0.1037103
8	0x3d6006bd	0.054693926
9	0xbd2f22df	-0.042757865
10	0x3dfbba2d	0.122913696
11	0xbd109f0d	-0.035307933
12	0x3dfd8802	0.12379457
13	0xbd56db99	-0.05245552
14	0xbc2b9d41	-0.010474504
15	0xbda05fe6	-0.07830791
16	0x3dbcec44	0.092247516
17	0x3e51b4be	0.20479104
18	0x3d4a7ee0	0.049437404
19	0x3dea4803	0.114395164
20	0x3db719ac	0.089404434
21	0x3d7f9974	0.062402204
22	0x3da351ae	0.079745635
23	0x3ca6f82d	0.020382011
24	0x3dffa648	0.124828875
25	0xbd88eb6b	-0.066855274
26	0x3def5799	0.1168663
27	0x3e1b44e4	0.15162998
28	0x3e1c3701	0.15255357
29	0x3be3b4e0	0.006949052
30	0x3cc27116	0.023735564
31	0x3d1a8103	0.03772069
32	0x3d8e07ea	0.06935103
33	0x3e104516	0.14088854
34	0x3e3d2ff6	0.18475327
35	0x3e1dfa72	0.15427569
36	0x3ca2fdae	0.019896355
37	0x3e00f133	0.1259201
38	0x3e2225d2	0.1583474
39	0xbbdd8dec	-0.006761303
40	0xbd654e98	-0.055983156
41	0x3d38b8e2	0.045098193
42	0x3da743be	0.08167218
43	0x3de8c472	0.11365594
44	0x3cc6fed8	0.02429144
45	0x3a530848	0.0008050245
46	0xbc771674	-0.015081037
47	0x3d8ee32d	0.06976924
48	0x3d847291	0.06467164
49	0x3e0960c9	0.13415827
50	0x3dc02129	0.09381325
51	0xbd3677be	-0.04454779
52	0x3ddbee0b	0.107387625
53	0xbd2f7418	-0.042835325
54	0x3d884926	0.06654577
55	0x3e2d0737	0.16897283
56	0x3dfe8c06	0.12429051
57	0xbc8c6b8c	-0.017141126
58	0x3e020d10	0.12700295
59	0x3da3fd24	0.08007267
60	0x3d9a3b11	0.07530797
61	0xbccef9ca	-0.025265593
62	0xbda30298	-0.07959479
63	0xbca413f2	-0.020029042
64	0x3e0db72e	0.13839409
65	0x3e63776a	0.22213522
66	0x3d1edf3f	0.038787123
67	0x3cb5717a	0.022148836
68	0x3d88b731	0.06675566
69	0x3d567f09	0.052367244
70	0x3d982ec1	0.074307926
71	0x3e6b2894	0.22964698
72	0x3d9764d0	0.07392275
73	0x3d1acd26	0.0377933
74	0x3e2d82be	0.16944405
75	0x3dc8862c	0.09791216
76	0x3e0c4501	0.13698198
77	0x3cd22772	0.025653575
78	0x3c4a5aff	0.012350797
79	0xbc00f383	-0.007870558
80	0x3e691a26	0.22763881
81	0x3e21d628	0.1580435
82	0x3e17629f	0.14783715
83	0xbc036055	-0.008018573
84	0xbd726723	-0.05918039
85	0x3dcdfa9d	0.10057566
86	0x3ca365c5	0.019945988
87	0x3db49b16	0.08818643
88	0xbd16c9dd	-0.036813606
89	0x3c91b14a	0.017784733
90	0x3db25e41	0.08709384
91	0xbc757f16	-0.014983913
92	0xbc7e5db0	-0.0155252665
93	0x3dc4d227	0.09610396
94	0x3e0abab6	0.13547787
95	0x3e1bcf5e	0.15215823
96	0xbd3ee037	-0.046600547
97	0x3d2d8a6f	0.04236835
98	0x3e3726a9	0.17885841
99	0x3e0b938a	0.136305
100	0x3e090aaf	0.13382982
101	0x3da16296	0.07880132
102	0x3d407717	0.046988573
103	0x3d36ef2c	0.044661686
104	0xbcae70f9	-0.021294104
105	0x3e012a64	0.12613827
106	0xbd4115b1	-0.047139827
107	0x3de5dd49	0.112238474
108	0x3e3b202b	0.1827399
109	0xbd156054	-0.03646882
110	0xbb420425	-0.002960452
111	0x3e547b89	0.2075025
112	0x3dc13d93	0.094355725
113	0xbd6945f6	-0.056951486
114	0x3e1fd648	0.15609086
115	0x3e386eac	0.18010968
116	0x3e0ad891	0.13559176
117	0x3cc755b2	0.024332855
118	0xbcd7d3a7	-0.02634604
119	0x3d9e919c	0.077426165
120	0x3d9f6421	0.0778277
121	0x3d359868	0.0443348
122	0x3e466449	0.19374193
123	0x3e2ebd45	0.17064388
124	0x3d24aa98	0.040201753
125	0xbc1be133	-0.009514141
126	0x3ca0bf54	0.019622482
127	0x3e420bf2	0.1894987
128	0xbd086a40	-0.033304453
129	0xbcbcc718	-0.023044154
130	0x3c694905	0.014238601
131	0xbd847133	-0.064669035
132	0x3d02506f	0.03181499
133	0xbd7ff81a	-0.062492467
134	0x3c6e9d45	0.014563863
135	0xbe15d1d3	-0.14630823
136	0xbdd3f27b	-0.10348984
137	0xbc10111f	-0.0087931445
138	0x3c1cca09	0.009569653
139	0xbd855148	-0.06509644
140	0xbc2594f9	-0.010106319
141	0x3d1e35d9	0.038625572
142	0xbd9db579	-0.07700629
143	0xbdf5696b	-0.119829975
144	0xbdd43c3b	-0.103630506
145	0x3d8f103f	0.069855206
146	0xbc75df3d	-0.015006837
147	0xbd83b151	-0.06430305
148	0x3df18bcb	0.117942415
149	0xbdd0f713	-0.10203376
150	0x3ca74019	0.020416306
151	0xbd918eb5	-0.07107297
152	0xbc58c320	-0.013230115
153	0xbd92dfe6	-0.071716115
154	0xbd93b23f	-0.07211732
155	0x3cbc8d72	0.023016665
156	0x3d1a7a5c	0.037714347
157	0x3d2eef8d	0.042708922
158	0xbda56968	-0.08076745
159	0x3c006082	0.007835509
160	0xbd7f0ecc	-0.06226997
161	0xbdce4eda	-0.100736335
162	0xbdeae85f	-0.114701025
163	0x3cc00864	0.023441501
164	0x3d1e1fbf	0.038604494
165	0x3d5c35aa	0.053762116
166	0xbd06de7d	-0.032927025
167	0xbdbd0c98	-0.09230918
168	0xbd93852d	-0.07203136
169	0x3d343bdc	0.0440024
170	0xbdd8d44f	-0.1058737
171	0xbc20aa2e	-0.009806199
172	0xbd8f20f3	-0.069887064
173	0xbd4de982	-0.05027152
174	0xbc9aac88	-0.018881097
175	0xbdb6b804	-0.08921817
176	0xbb8f3791	-0.0043706377
177	0xbe1923a7	-0.14955007
178	0x3c87769f	0.016536055
179	0x3d529b32	0.051417537
180	0xbd107135	-0.035264213
181	0x3c1b75a0	0.009488493
182	0xbd9fddc4	-0.0780597
183	0x3b53ce11	0.003231887
184	0x3cae0e8f	0.021247176
185	0xbd4a6d91	-0.049420897
186	0xbbde86d8	-0.006790977
187	0xb74c2bae	-1.21695175e-05
188	0xbe33a8ed	-0.17544909
189	0xbd145c39	-0.036220763
190	0xbc83503c	-0.01602947
191	0x3bf87c58	0.0075831823
192	0x3c434025	0.011917149
193	0xbdcc3762	-0.09971501
194	0xbbea0fc4	-0.0071429927
195	0x3c886c42	0.016653184
196	0xbd38411d	-0.044983972
197	0xbd901bcf	-0.07036554
198	0x3d45c4e8	0.048283488
199	0x3c1bec3c	0.009516772
200	0x3d97b943	0.07408383
201	0xbda1c9ca	-0.07899816
202	0x3c90e765	0.017688463
203	0xbd7cf8f1	-0.061760847
204	0xbdca3f03	-0.098753
205	0x3a20e600	0.00061377883
206	0xbde66fa0	-0.112517595
207	0xbc9d20d5	-0.019180695
208	0x3d470838	0.048591822
209	0xbdedcd93	-0.11611476
210	0xbdfe5b97	-0.12419813
211	0x3d917610	0.07102597
212	0x3d047c0f	0.032344874
213	0xbda777b3	-0.08177128
214	0xbc6aaf65	-0.014324044
215	0xbe391430	-0.18074107
216	0xbd53c117	-0.051697817
217	0x3c82902a	0.015937883
218	0xbd96e115	-0.0736715
219	0xbe25b26b	-0.16181342
220	0xbd066d99	-0.032819364
221	0xbd124ad2	-0.035715885
222	0xbcaa07a4	-0.020755596
223	0xbda43109	-0.08017165
224	0xbddb40a6	-0.1070569
225	0xbdbb3400	-0.091407776
226	0xbb4770b1	-0.003043216
227	0x3daf387c	0.085556954
228	0xbe253c81	-0.16136362
229	0xba9bed74	-0.0011896328
230	0xbd6c22ab	-0.05765025
231	0xbe0a6e28	-0.13518584
232	0xbb436ae6	-0.0029818355
233	0x3cbe6b53	0.023244536
234	0xbb595253	-0.0033160641
235	0xbdd151a0	-0.10220647
236	0xbdb21ca8	-0.08696872
237	0x3a824383	0.0009938333
238	0xbd808234	-0.06274834
239	0xbd3248b0	-0.04352635
240	0xbc5ba2ec	-0.013405543
241	0x3d7e252d	0.062047172
242	0xbdea5d5b	-0.114435874
243	0xbc0fac73	-0.008769142
244	0xbc22c289	-0.009934076
245	0xbdf08086	-0.11743264
246	0xbd8d87bd	-0.06910656
247	0xbd9f7f02	-0.07787897
248	0xbd6132c8	-0.05498007
249	0xbc5eb147	-0.013592071
250	0xbccde6d8	-0.025134489
251	0xbd9b447f	-0.07581424
252	0xbcea3fa5	-0.028594801
253	0xbc3ecb69	-0.011645176
254	0xbd982806	-0.07429509
255	0xbc29f5bf	-0.010373532

lstm.bias_hh_l0 f4 [512]
0	0x3ca6af83	0.020347362
1	0x3d945c51	0.072441705
2	0x3dfad96b	0.122485004
3	0x3d4fb9f2	0.05071444
4	0x3db37714	0.08762947
5	0xbb9465dd	-0.0045287446
6	0xbd5d0df3	-0.05396838
7	0x3cd91743	0.02650035
8	0x3e06e099	0.13171615
9	0xbd0a6450	-0.03378707
10	0xbc0eff2d	-0.008727831
11	0x3d6cf932	0.05785484
12	0x3e0d66d0	0.13808751
13	0xbc73fd64	-0.014891956
14	0x3df2f25f	0.11862635
15	0xbcade788	-0.021228567
16	0x3c929ed2	0.017897997
17	0x3e232c28	0.15934813
18	0x3d620d6f	0.055188593
19	0x3d2b1198	0.041764826
20	0xbbc1b8d6	-0.0059119267
21	0x3e0135db	0.126182
22	0x3dd62f15	0.10458199
23	0x3e221d2f	0.15831445
24	0x3e4ed10a	0.2019693
25	0x3d0819fa	0.0332279
26	0x3ccff5e0	0.025385797
27	0x3ce603ec	0.028078042
28	0x3e52d863	0.20590357
29	0xbd3317b9	-0.043723796
30	0x3d9e3581	0.07725049
31	0x3d0b7735	0.03404923
32	0x3db706ca	0.08936842
33	0x3ddcfcd1	0.107904084
34	0x3ded57a3	0.11588981
35	0x3e189126	0.1489912
36	0x3c993482	0.018701795
37	0x3d772a22	0.060342915
38	0x3e26209f	0.16223381
39	0x3d305d61	0.043057803
40	0x3c9d13a3	0.019174403
41	0x3d80acb5	0.06282941
42	0x3d2e5536	0.042561732
43	0x3ceb92cc	0.028756522
44	0x3ddf26ee	0.10896097
45	0x3d8c9b91	0.068656094
46	0x3d8bf6de	0.068341956
47	0x3e3c7a36	0.18405995
48	0x3d2c6a7b	0.042093735
49	0x3e4f47b5	0.20242198
50	0xbcd7b385	-0.026330719
51	0xbd130cc4	-0.035900846
52	0x3e197a5a	0.1498808
53	0xbd53af35	-0.051680762
54	0x3bef021f	0.007293954
55	0x3e2270e3	0.15863375
56	0x3e2da1ac	0.16956204
57	0x3d18d78e	0.037314944
58	0x3e6cc8aa	0.23123422
59	0x3d5fdbbb	0.05465291
60	0x3df3ef89	0.11910922
61	0xbd0180eb	-0.031617086
62	0xbda77c18	-0.08177966
63	0xbd044a5c	-0.032297477
64	0x3d3eb44f	0.046558674
65	0x3dbc97b8	0.092086256
66	0x3d333b44	0.043757692
67	0x3ba4a139	0.005024102
68	0xbcf9a283	-0.030473
69	0x3dc6ffd1	0.09716762
70	0xbd1b00ac	-0.037842438
71	0x3eb0b168	0.3451035
72	0x3dc7f475	0.09763423
73	0x3dd4fbd7	0.10399597
74	0x3c863317	0.016381783
75	0xbd1ef4cf	-0.038807686
76	0xbc63cd40	-0.013903916
77	0x3dfefa74	0.12450114
78	0x3d063dd9	0.032773826
79	0x3e0f5d55	0.14000447
80	0x3dc62c6c	0.096764416
81	0x3da911cf	0.0825535
82	0x3ccc0031	0.024902435
83	0xbcf3606c	-0.029709063
84	0xbd45d1e4	-0.04829587
85	0xbc59b89b	-0.013288642
86	0x3e0a65b0	0.13515353
87	0x3d4ea833	0.050453376
88	0xbd8a8485	-0.06763557
89	0xba6cda79	-0.00090352405
90	0x3ccedfed	0.02525326
91	0x3def9fea	0.11700423
92	0x3d80ff10	0.06298649
93	0x3d9bf483	0.07614996
94	0x3e00fc6c	0.12596291
95	0x3e6a93dd	0.22907968
96	0x3d20a994	0.039224222
97	0x3e285511	0.164387
98	0x3e31cc81	0.17363168
99	0x3ddabd92	0.10680689
100	0x3dd98339	0.10620732
101	0xbacdc3aa	-0.0015698571
102	0x3d0bad98	0.0341011
103	0x3db432d2	0.08798756
104	0x3df85dfb	0.121273
105	0xbcc27c38	-0.023740873
106	0xbd3399bb	-0.04384778
107	0xbc5b6e44	-0.013392989
108	0x3d779594	0.060445383
109	0xbd6da16f	-0.058015283
110	0xbd3bdff3	-0.04586787
111	0x3e24b24d	0.16083641
112	0x3bd22f77	0.0064143497
113	0x3d8c42b8	0.06848663
114	0x3db2a8bd	0.087235905
115	0x3e1a5651	0.1507199
116	0x3e010059	0.12597789
117	0xbdacced4	-0.08437887
118	0xbc62893f	-0.013826667
119	0xbd1c0c49	-0.038097654
120	0x3d0911fb	0.033464413
121	0xbd0d74d8	-0.03453526
122	0x3e5b52e5	0.2141834
123	0x3e3913ad	0.18073912
124	0xbc87e49f	-0.016588507
125	0x3da89c0f	0.08232891
126	0x3e0a5600	0.13509369
127	0x3df08e5c	0.11745903
128	0x3c113b40	0.008864224
129	0xbdadb346	-0.08481459
130	0x3c77ef43	0.015132728
131	0xbd802f9e	-0.06259082
132	0x3cbd0eed	0.023078406
133	0xbbe19917	-0.006884705
134	0xbd6c974f	-0.057761487
135	0xbdf24db3	-0.11831226
136	0xbd4fa2b6	-0.050692283
137	0xbceffe1d	-0.029295975
138	0xbd4f816f	-0.050660547
139	0x3cc08645	0.023501525
140	0xbd4124f3	-0.04715438
141	0x3d6740af	0.05645817
142	0xbd52d016	-0.051467977
143	0xbdfb105c	-0.1225898
144	0x3d654756	0.055976234
145	0xbb94291b	-0.0045215017
146	0x3ccc2f49	0.024924891
147	0xbdf43b0c	-0.11925325
148	0x3caad0fc	0.020851605
149	0xbd9849b1	-0.074359305
150	0xbe01a443	-0.12660317
151	0xbe054552	-0.13014725
152	0xbe0946e5	-0.1340595
153	0x3d51ac33	0.051189613
154	0xbdab217e	-0.083559975
155	0xbc842be2	-0.016134206
156	0xbd99e6d2	-0.075147286
157	0x3c20b547	0.009808845
158	0xbd8b7cc8	-0.068109095
159	0xbe1571ca	-0.14594188
160	0xbd90a177	-0.07062047
161	0xbd440511	-0.047856394
162	0xbdc756a6	-0.09733324
163	0xbca93e71	-0.020659657
164	0xbd2ef117	-0.04271039
165	0xbdb1baea	-0.08678229
166	0xbd609210	-0.054826796
167	0x3d1379ce	0.036004834
168	0xbdc422c6	-0.09576945
169	0xbd788921	-0.06067765
170	0xbd88c44f	-0.06678068
171	0x3d38aeb9	0.045088504
172	0xbc6ce409	-0.014458665
173	0xbd4f45dc	-0.050603732
174	0xbdd6108c	-0.10452375
175	0x3d7ea27f	0.062166687
176	0xbcc1387f	-0.02358651
177	0xbdbc45da	-0.09193011
178	0xbd9b0897	-0.07569998
179	0x3c0490ed	0.008091194
180	0xbdd3cadd	-0.103414275
181	0xbd72a597	-0.05923995
182	0xbdaf0408	-0.08545691
183	0xbb7964e4	-0.003805452
184	0xbdba53ac	-0.090979904
185	0xbd90891b	-0.07057401
186	0xbd916cdc	-0.071008414
187	0xbd836d4d	-0.06417332
188	0xbe1accb8	-0.15117157
189	0xbd084aea	-0.03327457
190	0x3db40b64	0.08791235
191	0xbe1109c5	-0.14163883
192	0xbd1352f1	-0.03596777
193	0x3bbeb4d8	0.005819898
194	0x3e0424a9	0.1290461
195	0xbd816074	-0.06317225
196	0x3d86765b	0.06565543
197	0xbe063ddb	-0.13109533
198	0x3cfe977a	0.031078089
199	0x3d505614	0.05086334
200	0x3c4a2a1f	0.012339144
201	0xbd1a94a5	-0.037739415
202	0x3d88472c	0.066542
203	0xbda3bbfa	-0.07994838
204	0xbdda0d62	-0.10647084
205	0xbd00abf3	-0.031413984
206	0x3ca62ee6	0.020286035
207	0x3dbb042f	0.09131657
208	0xbd0974ff	-0.03355884
209	0xbdcd8701	-0.100355156
210	0xbe224f03	-0.15850453
211	0xbd6bdfab	-0.057586353
212	0x3d83caa9	0.06435139
213	0xba5b0cff	-0.00083561236
214	0x3cf08d26	0.02936418
215	0xbe43b64f	-0.19112514
216	0xbe0d9f9f	-0.13830422
217	0x3d27237d	0.04080533
218	0xbe00459f	-0.12526558
219	0xbcf7967b	-0.030223122
220	0x3d2fde75	0.04293676
221	0xbcd1bb48	-0.025601998
222	0x3d3029a7	0.043008473
223	0xbcbd827d	-0.02313351
224	0xbde47267	-0.11154633
225	0xbcd7ff05	-0.02636672
226	0xbdf7ffc3	-0.121093296
227	0x3c207671	0.009793864
228	0xbd9a2bef	-0.07527911
229	0xbd906a4e	-0.07051526
230	0xbd426133	-0.047455978
231	0xbe04f8e1	-0.12985565
232	0xbe0833f0	-0.13301063
233	0xba8bbecf	-0.0010661724
234	0xbd8090de	-0.06277631
235	0xbd943207	-0.072361045
236	0x3ca193b7	0.019723756
237	0xbde04542	-0.1095071
238	0x3c83d1d3	0.016091263
239	0xbc980061	-0.018554868
240	0xbd41ad7d	-0.047284592
241	0x3d2a84f6	0.041630708
242	0xbd324605	-0.043523807
243	0xbd74b00d	-0.059738208
244	0xbcfd91dc	-0.03095334
245	0x3c611d06	0.01373983
246	0x3da17312	0.07883276
247	0xbcb859c6	-0.022503745
248	0xbdcd274b	-0.1001726
249	0x3df47305	0.11936001
250	0xbdda95c9	-0.106731005
251	0xbd7cdf97	-0.06173667
252	0x3dcd6749	0.10029466
253	0xbceb88c9	-0.028751748
254	0xbdd2fb51	-0.10301841
255	0xbdc6023e	-0.096683964

fc2.weight f4 [256, 128]
0	0xbd3582f6	-0.044314347
1	0x3e170781	0.14748956
2	0x3dd9606d	0.10614095
3	0x3c64cd75	0.013965
4	0xbc3bd5de	-0.011464564
5	0xbd545693	-0.051840376
6	0xbc9b12d5	-0.018929878
7	0x3da0ba6f	0.078480594
8	0xbd982041	-0.07428027
9	0xbdb284ed	-0.0871676
10	0xbcc688f1	-0.02423522
11	0x3cde2cc4	0.027120955
12	0xbd701839	-0.05861685
13	0x3d529167	0.051408198
14	0x3d947351	0.07248557
15	0x3e0ab7c7	0.13546668
16	0x3c3b5ed6	0.011436185
17	0x3dec5747	0.11540084
18	0x3dab74b7	0.08371871
19	0x3e1cb341	0.15302755
20	0x3d597a48	0.053095132
21	0xbc47ed66	-0.012202596
22	0x3d5698d5	0.052391846
23	0xbe3335fd	-0.17501064
24	0xbe8f9c61	-0.28048995
25	0x3e8905ba	0.26762182
26	0x3de4d4bd	0.11173389
27	0xbd0c03ca	-0.0341833
28	0xbddf6e46	-0.10909705
29	0x3cad106c	0.021125995
30	0xbd8a04aa	-0.06739171
31	0x3e00d1ec	0.12580079
32	0xbe08e2de	-0.13367793
33	0x3c453925	0.01203755
34	0x3da6686d	0.081253864
35	0xbdbd6e10	-0.092495084
36	0x3c90ab41	0.017659785
37	0x3d2e0078	0.042480916
38	0xbe0e5f88	-0.1390363
39	0x3cf1b914	0.029507197
40	0x3d4cb637	0.04997846
41	0x3c83e6ad	0.016101206
42	0xbe03729c	-0.12836689
43	0x3d263270	0.040575445
44	0x3e0bcc15	0.1365207
45	0x3dc1f122	0.094698206
46	0xbda49399	-0.080359645
47	0xbdccbe4b	-0.09997233
48	0x3d51f186	0.051255725
49	0x3e1fb249	0.15595354
50	0x3cc2ad26	0.023764204
51	0xbdbc60c0	-0.09198141
52	0xbd3d02ba	-0.04614518
53	0xbd04ffa7	-0.03247037
54	0x3bc8ea36	0.0061314357
55	0xbc1253d4	-0.008931119
56	0xbd960969	-0.073260136
57	0xbe33bf2d	-0.17553397
58	0xbd93af6a	-0.07211192
59	0xbd1b7b0e	-0.03795915
60	0xbd60e664	-0.054907218
61	0xbe0189d0	-0.12650228
62	0x3e25a264	0.16175228
63	0xbd43b5c2	-0.04778076
64	0x3c9b1c57	0.018934412
65	0x3e299603	0.16561131
66	0x3aa9930d	0.0012937501
67	0xbdf642ce	-0.12024461
68	0xbddf4044	-0.109009296
69	0x3e3e81d3	0.18604212
70	0x3d51dd44	0.051236406
71	0xbd8d0753	-0.068861626
72	0xbd3fc67a	-0.04682014
73	0x3d1a6c6a	0.037701048
74	0x3e3fdf60	0.18737555
75	0xbe4d5a95	-0.20054086
76	0xbdbd6809	-0.09248359
77	0x3e11114f	0.14166759
78	0xbd9c2a0a	-0.07625206
79	0xbd9896e4	-0.07450655
80	0xbd838086	-0.06420998
81	0x3ddaff7f	0.10693263
82	0xbd927889	-0.071518965
83	0xba9f417c	-0.0012150253
84	0xbceb859e	-0.028750237
85	0x3dc07b95	0.093985714
86	0x3ca31654	0.019908108
87	0x3c7855d4	0.015157182
88	0x3e0a7a48	0.13523209
89	0x3defb017	0.11703508
90	0x3e4e5b82	0.20152095
91	0x3d762693	0.06009538
92	0xbc4c8608	-0.012483127
93	0x3d2baec4	0.041914716
94	0x3de5ce8d	0.11221037
95	0xbc07981c	-0.008276012
96	0xbdb879c7	-0.09007602
97	0xbce87610	-0.02837661
98	0xbc3fca70	-0.01170598
99	0xbd8e7482	-0.06955816
100	0x3d107800	0.03527069
101	0xbd22af07	-0.0397177
102	0xbda72b6e	-0.081625804
103	0x3db165aa	0.08661969
104	0x3db52a4c	0.08845958
105	0x3dc8ad42	0.09798671
106	0xbe5d7b69	-0.21629108
107	0x3dd91923	0.106004976
108	0x3df10765	0.117689885
109	0x3dbda1ba	0.092593625
110	0xbe33bc3d	-0.17552276
111	0xbe1dc5f7	-0.15407549
112	0xbd0da0b9	-0.034577105
113	0xbd16492e	-0.036690883
114	0x3cd58ade	0.026067194
115	0x3de26e73	0.11056223
116	0x3cdc54fc	0.026895992
117	0xbd57ecb4	-0.052715972
118	0x3d65747b	0.056019288
119	0xbdd79f96	-0.105284855
120	0xbd996fb6	-0.0749201
121	0xbe10a58d	-0.14125653
122	0xbcef6c9f	-0.0292266
123	0x3dc7e550	0.09760535
124	0x3e4be0b4	0.19909936
125	0x3db53de7	0.088496976
126	0xbdfafe45	-0.12255529
127	0x3e4c7c87	0.19969378
128	0x3e7a71fe	0.24457547
129	0xbda1284c	-0.07869014
130	0xbdc3321b	-0.09531041
131	0xbcc9a7bf	-0.02461612
132	0xbd6874bf	-0.056751963
133	0x3d2b1952	0.041772194
134	0x3d2839b5	0.04107066
135	0xbd987b7b	-0.07445427
136	0xba3d94e5	-0.0007231965
137	0x3cd9211b	0.026505044
138	0xbdec13c7	-0.1152721
139	0xbd9f5df8	-0.07781595
140	0x3e6fa5fa	0.23403159
141	0xbe1b1759	-0.15145625
142	0xbd83ea6e	-0.06441198
143	0x3d34049d	0.043949712
144	0xbd10af9b	-0.03532372
145	0xbdc7d307	-0.09757047
146	0xbddb6e6e	-0.10714422
147	0xbc70b3b3	-0.014691281
148	0x3ddf9958	0.1091792
149	0x3d360380	0.04443693
150	0xbdb264fe	-0.08710669
151	0x3cda1994	0.026623525
152	0xbce491da	-0.027901579
153	0xbe550f89	-0.20806707
154	0xbd51eef0	-0.05125326
155	0xbceaa93e	-0.028645154
156	0xbda70a7f	-0.08156299
157	0xbdc9e0b9	-0.098573156
158	0x3dadfa91	0.084950574
159	0xbd0b9e7e	-0.034086697
160	0x3b5881ac	0.0033036275
161	0x3de92c6f	0.11385428
162	0x3bb28e44	0.0054490883
163	0x3c4c1477	0.012456051
164	0x3d47427e	0.048647396
165	0x3d367dbd	0.044553507
166	0x3c391523	0.011296543
167	0x3c5e588c	0.013570916
168	0xbd0c2c8b	-0.034222167
169	0x3d8d1402	0.06888582
170	0x3d8cdde2	0.06878258
171	0x3cadba54	0.021207012
172	0xbe830f36	-0.25597543
173	0xbec172c2	-0.37782866
174	0x3d3a5a85	0.045496482
175	0xbeab8e4a	-0.33506995
176	0xbd38eed6	-0.045149647
177	0x3d4b00c0	0.049561262
178	0x3b1aae6a	0.0023602494
179	0x3dc20c06	0.094749495
180	0x3d8b9386	0.06815247
181	0xbd30a3aa	-0.043124832
182	0xbd912cb5	-0.07088605
183	0x3db70919	0.08937282
184	0x3dd675c5	0.104716815
185	0x3cfadb06	0.030622017
186	0xbe1a1f01	-0.1505089
187	0x3db8e6f8	0.09028429
188	0x3e60b84f	0.21945308
189	0xbe03629f	-0.1283059
190	0xbcc00c96	-0.023443501
191	0x3e0daea7	0.13836156
192	0xbbd459a7	-0.006480414
193	0x3d5b51b0	0.0535447
194	0xbdf0f2cc	-0.1176506
195	0x3dc98516	0.09839837
196	0x3d3e33c4	0.046436086
197	0xbe286181	-0.16443445
198	0xbdbc9953	-0.09208932
199	0xbdcb2a28	-0.0992015
200	0xbdc07ff3	-0.093994044
201	0x3de11847	0.10990959
202	0xbc757a6b	-0.0149828
203	0x3aa4a813	0.0012562297
204	0xbd64da9c	-0.055872545
205	0x3d3b6427	0.04574981
206	0xbda60ee4	-0.08108309
207	0xbddb5142	-0.10708858
208	0xbe1dffc2	-0.15429595
209	0xbd83a489	-0.06427867
210	0xbd2995e1	-0.0414027
211	0xbda46ad5	-0.08028189
212	0x3db1a97f	0.08674907
213	0xbd1499bc	-0.036279425
214	0x3c7693cd	0.015049887
215	0xba914b2b	-0.0011085024
216	0xbd9e7a46	-0.077381656
217	0xbdc2c78d	-0.095107175
218	0xbdeb7630	-0.11497152
219	0x3c51b629	0.012799778
220	0x3ddedcc9	0.10881955
221	0x3d5ff92c	0.05468099
222	0xbdbb6d6f	-0.09151732
223	0xbc81653b	-0.01579534
224	0xbc7a3363	-0.015271041
225	0x3c7e939a	0.015538121
226	0xbd1ff5f6	-0.039052926
227	0xbe5b1ac3	-0.21396928
228	0xbc8cce7f	-0.017188309
229	0xbd9b00fa	-0.07568546
230	0x3df0d9b0	0.117602706
231	0x3dcfc9f6	0.10145943
232	0x3de6b6c7	0.11265331
233	0xbd78a628	-0.060705334
234	0x3d9246fc	0.071424454
235	0xbde26b60	-0.110556364
236	0xbdc891f9	-0.09793467
237	0x3ddb7bda	0.10716982
238	0xbdb7dca5	-0.089776315
239	0x3d885a17	0.06657808
240	0xbd5a8423	-0.05334867
241	0xbe3c4419	-0.18385352
242	0x3d26dcbd	0.040737856
243	0xbdabf672	-0.08396615
244	0xbd7720be	-0.06033396
245	0x3cee3e9e	0.029082593
246	0x3dac468d	0.08411894
247	0x3bac0521	0.005249635
248	0x3d6c6680	0.05771494
249	0xbc8c069e	-0.017093
250	0xbc600d89	-0.013675102
251	0x3dd6dad9	0.10490961
252	0x3e1754c4	0.1477843
253	0x3dc44703	0.09583857
254	0x3d8de9ad	0.06929336
255	0xbe670729	-0.22561325
