kuka_mpc_project/linear_model_A.npy (npy, 3600 bytes, 1 tensors)

array (column-major) f8 [14, 31]
0.9483052274323925 0.035785972220476206 0.06044493757100914 0.05999903446292049 0.05419625704210311 -0.032759266521428326 0.03268599531441695 -0.3902103874644366
0.5397175061148508 -0.584790957823057 0.046416050166190694 0.6760250852453112 -0.6845909862525837 -0.48482685609270626 -0.021523834055450674 0.997155086139314
0.016755668016523867 0.01806116371142527 0.027039288005235973 -0.05008547880468328 0.015538662195665687 -0.4084734032272822 0.9211711674710976 -0.8075920739360976
1.1199428058566305 0.4687587064902765 -0.8792445842625852 -0.570586988958631 -0.024699033737419142 -0.00975302728031735 1.029692669204291 0.026470482247008403
-0.011824806521936806 -0.0036815496135156472 0.01839456373404201 0.0355389197456759 -0.06860381813721064 -0.09660479475474487 -0.2512937427150859 -0.18773879832084917
0.05846346649885589 0.09720026925063824 -0.0034331643951477937 0.01076895117222501 -0.005075918616984389 0.9974849342163243 0.005726395907338356 -0.002465555529830292
-0.008114588450051197 -0.0121152594132376 0.0038020687050546315 0.02261957734068147 -0.055989443867010824 0.07908385340319746 -0.007381899978082557 -0.028214981857537867
0.026636301607354456 -0.02721966859254532 -0.029617207052979627 -0.03199324486263521 0.9651789001284219 0.019443911814399986 -0.016131556898139776 0.198151584669043
-0.3345845031420642 0.3472177909758758 -0.06460606800651633 -0.47531492962828203 0.41732085284781395 0.28792257568954027 -4.28702251146721e-05 -0.007189773469839289
0.02611141199720412 0.03732696454601853 0.008194219823521101 0.9720981020722952 0.033419591990736214 -0.04574447134426721 0.09048096248444248 -0.13942207764646225
-0.06657513456282063 0.022668198666432965 -0.19172594167417117 -0.04796908949954484 0.07121986803421101 -0.06914465860808855 -0.10397793373096373 -0.10520905307195759
-0.08845046413407329 0.05089008597113698 0.9332350829646642 0.45814250989079736 -0.7294679028440414 0.8453951552758754 0.055635442236755595 -1.049938413680937
0.9877488668571557 0.6280966295906725 0.034984653418669236 -0.015186683173477796 -0.021348504406847997 0.019980741496519447 0.006929182894186561 0.009634177621382514
0.012789727416248634 0.8945244250916781 -0.06688681961787728 -0.19124225763010438 0.2177172522109661 0.3691053423621277 -0.1600277754395006 0.17971087502798072
0.01155568109895481 0.037844100208046266 -0.025359013411411425 0.03086465749223561 0.015522809694274525 -0.01354639080766475 -0.001504919966849351 -0.06791315911761239
0.9434325309848717 -0.11278400942699168 0.37810052947356354 0.3753287165487072 -0.23211786336321116 -0.010179592247870968 0.010305573720286619 0.010145944367097315
-0.0016249698376770549 0.007092035683798391 0.009080125074455664 -0.0028405817161160536 0.0017302120708020223 -0.054892406397327176 0.0011658055452559851 0.863086015506181
0.16959037417529674 0.22558927485233649 -0.12222835263078236 0.014748940733794902 -0.0029663708645405852 -0.0015653617643798245 0.001960094197414648 0.002024278198970454
-0.006551259536091765 0.0004200527512560337 0.00028533304702853257 0.021391650496061905 -0.030177409896285902 0.035487940801789686 0.8755934743230918 -0.07359107658442277
0.055025130979786153 0.02423372165177423 -0.01262550029549837 0.0025441053294556065 0.008466693650766991 0.0006737518135214154 0.00211106903454452 -0.00257717370402874
-0.006457893884536228 0.04747274952219163 -0.02031682452382033 0.10062003888764198 -0.11157128007434557 0.7410118765488829 0.10162972176113007 -0.030354537052167146
0.016278553678070695 0.010184163473685212 -0.0235412707692665 0.03211549662866785 0.01573931430643842 -0.002930827794282661 0.002033471166302068 -0.06928138534554781
0.0037838657712886553 -0.13714317876858906 0.3318280798829955 0.35062876606536675 0.7588021499603673 0.014554245411379577 -0.04817087455182524 0.022047413747847057
0.03069868760550297 -0.032546945309599264 -0.01731285891433105 -0.005646490892811497 -0.011540531890134664 0.06237766009787552 0.12568579048298753 0.2630242308462419
-0.33464866802474813 -0.6027885179960752 0.20945747225734412 0.647348751605914 -0.0024197466758954776 -0.0002566032780166941 0.00033787308404282005 -0.0015157490880605452
-0.002178048467635414 0.00054687821734425 -0.0008828843311787004 0.059616634578555004 -0.057345617020427925 0.055250029497777534 -0.033866263286739896 -0.03380025264547368
0.05311696711945633 0.0616472728786136 -0.006578314180725204 0.03144456045633959 -0.008617558814877031 -0.015537573121905082 0.039775399555010166 -0.02712961121253707
-0.011880028967058878 -0.3418453749398581 0.7576056689086159 -0.5415233374324382 0.8659519533262161 0.7144052457130688 -0.7233779334272731 -0.5541621624410619
0.010147075163914348 0.009294558805484993 -0.010311992573218527 -0.008798078351692037 0.01567901575413479 -0.009198053310905105 -0.0023306734027219098 -0.137064392613117
0.2247783619768694 -0.11575846012680355 0.24655008301138392 0.2908716705524362 -0.25985061291928147 -0.21470609266760393 -0.0014857439141223363 -0.004898606342464029
0.0014615963139768332 0.0005808625448820645 0.003773469626408399 0.004326430802030587 0.0031734683145612785 -0.04562326718418541 0.17387965468619265 -0.1554927604793096
0.37616754588103724 0.028092914452296114 -0.1201596308720711 -0.0710180951152363 -0.002617828625947123 0.007330686090008913 0.0001387653173710755 -0.0006434248887621499
00000000: c155 4e34 8458 ee3f 725d aff8 8952 a23f
00000010: b509 278c a3f2 ae3f c9a0 9e85 31b8 ae3f
00000020: 6675 1f9f 9cbf ab3f 6c72 b394 d2c5 a0bf
00000030: 3f44 d301 38bc a03f 1608 2efd 34f9 d8bf
00000040: 5ff1 baa5 5d45 e13f e616 db86 9bb6 e2bf
00000050: 5552 f232 d8c3 a73f 67ef 0c5c ffa1 e53f
00000060: 61eb 225b 2be8 e5bf c400 c938 6707 dfbf
00000070: 0328 690d 580a 96bf f344 80c8 b1e8 ef3f
00000080: 284a 9dd8 6528 913f 1883 df2d a07e 923f
00000090: 102a c2e6 2fb0 9b3f 90f4 f0ca cda4 a9bf
000000a0: 00be a1ef bbd2 8f3f 6a68 09a1 6d24 dabf
000000b0: e0ce c9f4 3b7a ed3f 2e0f 4255 cbd7 e9bf
000000c0: 1db7 c825 49eb f13f f4d2 8584 2400 de3f
000000d0: 33f9 d289 c522 ecbf c036 23a5 3f42 e2bf
000000e0: 0a7f 9418 b44a 99bf c0cd a529 65f9 83bf
000000f0: 309d 3205 9f79 f03f 18b2 3dfe 131b 9b3f
00000100: 6891 58aa 9a37 88bf 206e 09e6 c428 6ebf
00000110: 9cc8 a546 06d6 923f feef 1544 2832 a23f
00000120: 72b1 4713 0590 b1bf 84c1 1b82 17bb b8bf
00000130: 99a5 a959 3215 d0bf c83b 7d2f d307 c8bf
00000140: 5c2b 3f69 ecee ad3f e408 98e9 1de2 b83f
00000150: 8402 9119 de1f 6cbf d081 c628 080e 863f
00000160: dc4d 5087 7cca 74bf 44c7 5686 65eb ef3f
00000170: f4e0 55b2 8f74 773f f039 bf0b a532 64bf
00000180: c095 1ba0 619e 80bf e004 b397 e2cf 88bf
00000190: 20f2 d917 8425 6f3f ccd4 b523 9629 973f
000001a0: e8fa a8fc a5aa acbf f025 02e4 d63e b43f
000001b0: e0b2 cfaf 7b3c 7ebf 3668 5761 63e4 9cbf
000001c0: 6bf0 28f1 8b46 9b3f e0d9 a609 79df 9bbf
000001d0: 7800 c41e f953 9ebf 1f81 c128 6b61 a0bf
000001e0: 04e8 5adc bee2 ee3f 2489 65d5 1ae9 933f
000001f0: 108a 3e75 ca84 90bf 3bed e6f7 075d c93f
00000200: bc96 af1e d569 d5bf 042b 35f8 d038 d63f
00000210: 3e0d 36f5 058a b0bf f274 834f 8f6b debf
00000220: 62e4 ba85 62b5 da3f 5c77 97cf 526d d23f
00000230: 00dd fdb7 f179 06bf 809e b21e 0673 7dbf
00000240: 7e4d 5232 f3bc 9a3f 19dc f717 851c a33f
00000250: c81c 4491 21c8 803f 06ef 9c7a 6d1b ef3f
00000260: 34b0 4a6d 5f1c a13f c4f9 cac0 d16b a7bf
00000270: 3002 c8a6 c229 b73f 9e7c ea27 95d8 c1bf
00000280: ba92 ac69 110b b1bf f8ea b90f 5536 973f
00000290: f686 a4c4 798a c8bf 8427 3d8d 678f a8bf
000002a0: 8a49 081c 773b b23f fc31 6adf 76b3 b1bf
000002b0: 2651 e140 4c9e babf 6feb 2f02 fbee babf
000002c0: fe98 c58a b0a4 b6bf 2092 dfed 430e aa3f
000002d0: bf04 1ad2 0fdd ed3f 6bda 38f6 3452 dd3f
000002e0: b44c 4612 cd57 e7bf 4e6a 0324 7a0d eb3f
000002f0: a88b cfa9 3f7c ac3f 0e2e d938 8ccc f0bf
00000300: 5800 fa82 a39b ef3f 823b 5a1a 5e19 e43f
00000310: 9714 972c 82e9 a13f 31b6 841c 321a 8fbf
00000320: 82d3 fbe0 61dc 95bf cc09 1cdd d475 943f
00000330: 9c50 b25e c661 7c3f bb27 766e 15bb 833f
00000340: c801 d227 8031 8a3f 21be e7af f19f ec3f
00000350: dbcf ca9e 7e1f b1bf 7437 1155 a07a c8bf
00000360: dab2 02af 28de cb3f a759 8e03 6c9f d73f
00000370: c36d fb46 ca7b c4bf 3e88 7d15 c400 c73f
00000380: 9560 3943 81aa 873f 1cef 7a49 4d60 a33f
00000390: fa18 0b95 b6f7 99bf 9225 201a fc9a 9f3f
000003a0: f0de d43f 6cca 8f3f 0a67 fbcb 35be 8bbf
000003b0: a014 9b82 17a8 58bf 06d1 60bd c162 b1bf
000003c0: 4000 526b 9930 ee3f e42c 00b0 69df bcbf
000003d0: 801c 2c90 cc32 d83f f1e2 b4bc 6205 d83f
000003e0: 8c2f fbc3 09b6 cdbf a46b 54be 09d9 84bf
000003f0: ffdc c2b0 161b 853f a022 f399 65c7 843f
00000400: b8ea d313 9e9f 5abf b204 2fd5 890c 7d3f
00000410: 0332 e8c1 9998 823f 688f 50b2 2145 67bf
00000420: b05f 9710 0959 5c3f 10ef 8c84 db1a acbf
00000430: 4005 2f2c be19 533f e67c 4790 669e eb3f
00000440: 8b4f 662b 23b5 c53f 98d9 e8fe 1be0 cc3f
00000450: 5073 3179 5b4a bfbf 207e d150 b134 8e3f
00000460: 5a77 3b3b ee4c 68bf 0024 6765 9aa5 59bf
00000470: 5cff 328f 9d0e 603f 1ce3 3315 3895 603f
00000480: 482e 4857 7ed5 7abf 000a 49d4 5087 3b3f
00000490: 0023 ff1a 18b3 323f 12f6 265d b1e7 953f
000004a0: fa83 54b2 d3e6 9ebf c8c9 4ab2 792b a23f
000004b0: d4e0 199b dc04 ec3f 8020 3563 ddd6 b2bf
000004c0: 3558 0804 412c ac3f b0a6 d187 b9d0 983f
000004d0: 461e ebf6 65db 89bf 20bf 0026 60d7 643f
000004e0: 2faf ae62 fc56 813f f0d9 9900 d713 463f
000004f0: 30a0 d08e 3b4b 613f c019 cc98 b91c 65bf
00000500: 90db 8fb0 9773 7abf 644b 4c25 594e a83f
00000510: 40b3 8d03 efcd 94bf 543c 5820 3cc2 b93f
00000520: 7f98 1777 ef8f bcbf 8a33 f789 5eb6 e73f
00000530: 8900 44cb 6704 ba3f f875 b27f 4215 9fbf
00000540: 73a8 b13e 53ab 903f 78e8 7348 6fdb 843f
00000550: 24ba 3df0 331b 98bf de0a 6e3f 7171 a03f
00000560: cc99 d480 f71d 903f f854 da30 6402 68bf
00000570: 4815 0385 7fa8 603f 0edc 47c4 6cbc b1bf
00000580: 2037 af77 57ff 6e3f f81c d75d e88d c1bf
00000590: f77b bfd7 ab3c d53f ca67 d2a2 b370 d63f
000005a0: 43db 4672 1b48 e83f e889 7ac0 9dce 8d3f
000005b0: e2bd a355 daa9 a8bf ca95 08e4 9893 963f
000005c0: 9cda 2e0d 7a6f 9f3f e5fc 6043 fea9 a0bf
000005d0: d268 594b 76ba 91bf c270 8c5b c620 77bf
000005e0: e661 5ff8 8fa2 87bf 7525 3ef4 f6ef af3f
000005f0: a721 d9d3 7816 c03f 0992 6295 63d5 d03f
00000600: 823d 343f e26a d5bf 8451 6625 0b4a e3bf
00000610: 68c2 9fa0 80cf ca3f 5c1f a8ba 14b7 e43f
00000620: bd6b cd9a 93d2 63bf 80a0 e7af 16d1 30bf
00000630: 3c1c 9ed8 9124 363f 9042 c730 83d5 58bf
00000640: 76cb 00de b2d7 61bf d844 7907 8ceb 413f
00000650: 285d 0eaa 2bee 4cbf ebfc 9f4f 1286 ae3f
00000660: 4ce6 579b 675c adbf fa8b 975b bb49 ac3f
00000670: 1d30 823a eb56 a1bf fced 6a47 444e a1bf
00000680: 4d13 48a9 2532 ab3f 706e cd39 3b90 af3f
00000690: 14f0 4dc4 dcf1 7abf 001a 985d 8019 a03f
000006a0: c401 402a 15a6 81bf c8a2 57c3 29d2 8fbf
000006b0: 0c57 8cf0 705d a43f 18e8 a463 ddc7 9bbf
000006c0: 88c6 1c7f 8e54 88bf 82f4 696c cbe0 d5bf
000006d0: 3441 673e 4e3e e83f 0861 09c0 2854 e1bf
000006e0: 7830 eede e0b5 eb3f 11b6 cd63 68dc e63f
000006f0: 85fb d67a e925 e7bf 15ae 8b49 b2bb e1bf
00000700: 8920 d55f fdc7 843f b06d cd90 0609 833f
00000710: 2459 de36 741e 85bf 5828 4e16 ba04 82bf
00000720: 6504 97ef 280e 903f 18f3 41d1 6dd6 82bf
00000730: 70e9 5ac1 c617 63bf a916 dc75 538b c1bf
00000740: 5c01 c590 89c5 cc3f 6edd 7ab0 58a2 bdbf
00000750: cc13 aeff f38e cf3f 25c2 1636 a49d d23f
00000760: 1c5e 1577 64a1 d0bf e230 213f 7d7b cbbf
00000770: 5865 5e61 a957 58bf c0fb 96a0 8f10 74bf
00000780: a040 9517 61f2 573f c062 1ed1 a008 433f
00000790: 8075 6914 8ae9 6e3f 309d d96c 97b8 713f
000007a0: 80a4 07d4 3eff 693f 4049 fcd0 ee5b a7bf
000007b0: 7e92 2843 b041 c63f a4fe 82d0 2fe7 c3bf
000007c0: 650a d80a 2113 d83f 00aa 4993 63c4 9c3f
000007d0: 3c1d e514 c8c2 bebf 4ab4 f1eb 3d2e b2bf
000007e0: 901e b80a fc71 65bf 38a6 3810 c806 7e3f
000007f0: 608a f6ff 3030 223f f8b0 656d 7015 45bf
