ddpg/checkpoints/ddpg_traj_track/actor.pth (torch, 278772 bytes, 6 tensors)

fc1.weight f4 [256, 9]
00000000: 1476 4f3e 5729 f1be 6c55 e6bd 028b 743e
00000010: b5fc 743e f774 d4bd f871 a7bc 0574 8bbe
00000020: 62ed 6b3e d0ac f7be 863c 2dbd 5fe7 ac3e
00000030: 61e5 a2bd d41a 34bd 3ecc dabc f7ca 733e
00000040: e57e 003f 77cb 1d3d b492 423e a0b0 8e3e
00000050: b960 68bd 4b5f acbe 7ff9 433d 9ea5 923e
00000060: 7b1b 303e dc56 f73e 991d 8bbe 913a ca3e
00000070: 05dc 41be 4e81 a03d 8521 46be 25d3 9c3d
00000080: e0e3 dcbd 155d 7ebe a9e7 463e 13dd 423e
00000090: 1224 d3be 8940 203e 14ef a23d 55da 043e
000000a0: 6088 41be f3c0 063d 0292 963e fe87 94be
000000b0: b0b0 673e d331 c4bd 79f1 973e 5432 203e
000000c0: 74d1 493e b8a6 20bd 1205 5bbe 00df 3fbd
000000d0: 59e1 15bf 4f40 723e 86ff e23e 9ec6 04bc
000000e0: ab6f a63e 3bda 783d c6b0 7dbe 6505 983e
000000f0: e1d2 9bbd c88b e83e c3f3 583e e654 983e
00000100: c486 d63d b154 f3bd 485e b9be 15c4 afbe
00000110: c034 01be d197 adbe 7ea1 223e 9281 fe3d
00000120: 50a0 3cbd 569c a5bd e96b 013f f24c 07bd
00000130: e96c 833e 878f 33be f1a4 c53e c3b1 d03e
00000140: fad0 a4bd d664 383e 3a31 8e3e c505 9cbb
00000150: e5dd 993b e7c7 893e ebe8 1d3d e8d0 b5be
00000160: 9d28 0cbf d651 bd3e 7378 aebe 73ae 4f3e
00000170: 911a a9be 43b3 b8be 21b9 3bbe cef9 77bd
00000180: cf15 cb3c f6f1 29bf a975 ca3e cafc b3be
00000190: cdc5 dc3e f577 de3e ed5b 173e 5a70 3d3e
000001a0: 9086 933e 81e8 b83d 88cb 5dbe f91d 713e
000001b0: 0622 853e 1d7f c33e 3003 a43e 768e adbd
000001c0: 55ef 1d3e 7ce3 c03c 7807 ca3b a729 0dbf
000001d0: e4c6 363c 4787 33be d9a2 e4be 641f 0ebf
000001e0: 0ad1 923e fe03 d4be 6422 86be 930d 66be
000001f0: 96cb 46be 0af7 83be 1318 ca3e 2a4b 55be
00000200: 3603 a63d 69ba 06be 3173 a5be 8bc4 a13d
00000210: 3204 0abe d3af adbe 572c c33d 2a79 5b3e
00000220: 4684 e5be b7b2 c83c 30e5 073e 9fa4 de3d
00000230: 087e 8bbe 6c03 483e 62ba a6be 953f 953e
00000240: 8040 503d 248e 903e 7859 2bbe eb18 da3d
00000250: 9dbf 80be 947d 85be d9b9 093f 5250 45be
00000260: c6b9 8c3e 7bbd 80bd 695d b4be d3f3 14bf
00000270: 3bcd 933e 518e 9a3e bcbf 90bc 18d6 3b3e
00000280: 5381 303d e7b1 0f3b 268c c4be e4e6 cf3e
00000290: 6a87 6a3b 6c21 74be 6111 2a3e dd97 1f3e
000002a0: 7416 c03d bea6 2d3f f0bb 6c3e bdcc db3e
000002b0: 6bb4 913e 9007 ea3d 710d 70be 2e48 9dbe
000002c0: 798b 8ebe 90ef a2bd 4c7b 1ebf e5bd 163e
000002d0: 363e 7abc 3824 68be 66de bfbe e3d6 8f3e
000002e0: 267e 13bd 4aae 36be de05 043f 0c8d e7bd
000002f0: 8d9b 8b3e 5400 e13d 6646 9a3d 1db5 c9bd
00000300: c8d4 b2be ce6e a2be af9a bcbd 6dcb 3cbe
00000310: cc97 ed3e 51db 003e 9f50 b13e 417a 99be
00000320: b26f c03e d640 2cbe 799c ebbd a477 2ebe
00000330: c517 623e 706b a83e fd74 553d ec1a ae3e
00000340: 0771 a03e 9f8f de3e 3f89 20be 8923 09be
00000350: 7fb3 37be 71f8 aebe 4e15 4dbe aaa9 2bbe
00000360: 4b93 dd3e 5726 163e 4c10 12be 62b4 8f3d
00000370: 042b 1a3d 550c 103d bb6a c03e b722 e6be
00000380: 7b00 ef3d 100c c33e c871 433e 760d f93c
00000390: b66f a93e 57ff 75be bc35 32be 87ff 31be
000003a0: 6712 193f de4f 703e 0ade fe3e c910 003d
000003b0: 4524 aa3e 4607 b33d 18a2 863e 4b2b 84be
000003c0: 737a a2be 0d56 0d3e f3a1 263e 62e5 4e3e
000003d0: 693f 91be 1639 ae3c 4581 983e 11d3 4fbe
000003e0: 7e53 91be 7dab 0b3e 0381 173f 544b da3d
000003f0: 1b76 b6be 3f32 e03e 2e75 543e 2c3d 06bd
0.20259887 -0.47101852 -0.11246762 0.23881152 0.23924525 -0.10373872 -0.020440087 -0.27236953
0.23039773 -0.48374033 -0.042294048 0.33770272 -0.07953907 -0.043970898 -0.026708718 0.23807894
0.50193626 0.038524117 0.19001275 0.2786913 -0.056732867 -0.33666453 0.04784536 0.2864198
0.17197983 0.48308456 -0.2717102 0.39497808 -0.18931587 0.07837163 -0.19348724 0.0765746
-0.10785651 -0.24840195 0.19424309 0.19029646 -0.41238457 0.15649618 0.07955757 0.12973912
-0.18899679 0.032898854 0.2940827 -0.29010004 0.22625995 -0.09579816 0.29676417 0.15644199
0.19708806 -0.039221495 -0.21388653 -0.04684353 -0.5854698 0.23657344 0.44335574 -0.008103995
0.3250707 0.060754996 -0.24774465 0.29691616 -0.07608581 0.45419145 0.21186738 0.29752272
0.10474923 -0.11881388 -0.36204743 -0.34329286 -0.12617779 -0.3390489 0.15881917 0.12427057
-0.046051323 -0.08086459 0.5055528 -0.033032365 0.2566903 -0.1753522 0.38602403 0.4076062
-0.080476716 0.18007216 0.27771932 -0.00476143 0.0046956413 0.26910326 0.038552206 -0.35510945
-0.5474947 0.36976498 -0.3407627 0.20281391 -0.3302808 -0.36074266 -0.1833234 -0.060540967
0.024790673 -0.6638483 0.39542893 -0.351538 0.4311966 0.43450895 0.1478116 0.1849989
0.288136 0.090287216 -0.21659672 0.2354659 0.2600252 0.38182917 0.32033682 -0.08474438
0.15423329 0.023545973 0.006165441 -0.5514168 0.011155818 -0.17532073 -0.44655493 -0.5551665
0.2867511 -0.41409296 -0.26198113 -0.22466116 -0.194136 -0.25774413 0.39471492 -0.20829454
0.08106081 -0.13157047 -0.32314447 0.07898816 -0.13478163 -0.33923206 0.095299415 0.21432939
-0.4482748 0.02449928 0.13271022 0.10871243 -0.27244592 0.19532555 -0.32564074 0.29150072
0.050842762 0.28233445 -0.16733348 0.10649284 -0.2514619 -0.2607237 0.53799206 -0.19268921
0.27485484 -0.062861405 -0.35227516 -0.58184546 0.28867516 0.30186704 -0.017669551 0.18343389
0.043092083 0.0021926106 -0.38388175 0.40605843 0.003578628 -0.23840874 0.16608192 0.15585275
0.093792826 0.67832553 0.23118567 0.4292964 0.2845796 0.11427224 -0.23442627 -0.3071913
-0.27840784 -0.07955849 -0.61906886 0.14720877 -0.015273621 -0.22670066 -0.37474364 0.28093633
-0.036008976 -0.17839924 0.5157145 -0.113061994 0.27267113 0.10986391 0.07532959 -0.09848998
-0.34927964 -0.31725162 -0.09209191 -0.18436976 0.46404874 0.12583663 0.34631822 -0.29976085
0.37585217 -0.16821608 -0.11504454 -0.17037827 0.2207938 0.32894468 0.05211352 0.34004915
0.31336233 0.4346895 -0.15677355 -0.13392462 -0.17939566 -0.3417392 -0.20027658 -0.1676394
0.43276438 0.14663063 -0.1426403 0.07016827 0.03763868 0.03516801 0.3758143 -0.4494836
0.116700135 0.3809514 0.19086373 0.030401926 0.3309304 -0.24023186 -0.1740331 -0.17382632
0.59793705 0.23467967 0.49778777 0.031266008 0.33230796 0.08741622 0.26295543 -0.2581428
-0.31734046 0.13802357 0.16272716 0.2020469 -0.2836869 0.021267455 0.29786125 -0.20295359
-0.28384012 0.13639636 0.5918123 0.10658899 -0.35636982 0.43788335 0.20747826 -0.03277318

fc1.bias f4 [256]
00000000: 645f e7bd b423 eb3d 344e 543d e05d ec3d
00000010: 2b88 913e 2e50 4c3d 3f9f 5bbe 256c 27bc
00000020: ff43 533e 9c9d f13d d38d c7bd 135a 9abd
00000030: 105c f7bd 5953 35be 06a9 483d 9568 6b3d
00000040: ae34 04be 7d57 0c3d df71 73be e276 f5bc
00000050: afe8 85bd 47bc e9bd b3d1 d63d bb24 6b3d
00000060: b8a9 69bd a6dc e53b a918 e9bd 5eed d8bd
00000070: 5287 a13e 9dfe efbd f69d 53be 32ff d03d
00000080: 331f a23d c095 a9bd 821b a13e d3ab 243e
00000090: ce88 943e 40e3 823e 00f1 723e 6303 333d
000000a0: 275f a13d 0225 8a3e 48bb 473e 5770 22bd
000000b0: b726 3dbe 4a9d c0bd 27e8 a43d 6b38 a03d
000000c0: 8645 4e3e dd88 12be f589 5c3e 9821 803e
000000d0: 0f34 99be b133 6c3d 27fa 113e 947b c73d
000000e0: d013 7e3c df45 9c3e dba7 fcbc aec9 7b3e
000000f0: 61b3 bdbb ec59 2abe 7f78 d73c 73c8 d2bc
00000100: 8cab c7bd 3bcf 9f3e 27b6 0fbe f711 76bd
00000110: e363 903e 3718 d63d e8db 8a3e f301 61be
00000120: 0854 403e fc05 e83d b204 0a3e 9632 3c3e
00000130: 733d d8bd 519a 65bd cd66 5fbe 3c36 983e
00000140: 966c 933e ddab 923d 5851 9f3e 1683 fa3d
00000150: 5b5d 963d 8f84 243e 25e4 69bd 345a 1b3e
00000160: 44a5 9a3e b16b 4fbd 07f9 783e 9f97 813e
00000170: 6166 193d 8d88 683e 7403 83be cb93 883e
00000180: 354d 983e 5cd5 6a3e 3dfe a23e 5816 92be
00000190: 629a e9bd 58d3 0b3e 8eb5 6e3e f800 04bc
000001a0: cc42 ac3d 0988 e3bc 5b47 e7bd 3ecd 64be
000001b0: ca61 963e 2425 49be 868d 8d3e 4557 8b3e
000001c0: 399b a43e a1c6 cc3d de2f 053e 5e46 1c3e
000001d0: 023e 563e 6399 483c 44de 423d bfb3 a73d
000001e0: 4bbf 8a3e c381 2ebe 83c0 0a3e 51cd 4a3c
000001f0: b9c1 403d 844d 9bbd 5297 11bb 7d1a ba3d
00000200: 9631 973e e964 8b3e 6cd6 813d 2e29 bc3b
00000210: b679 733d dbe5 f63d ea81 543d 9912 9d3e
00000220: 984a 25be 539c a3bd c0da 19be 2c2c 1bbe
00000230: a2bb 993e b7dc 5f3d 6320 513e d368 b13e
00000240: c9d4 b23c 1c5a 8e3e a878 af3d 5bd6 a43e
00000250: 931b c6bd 3f87 f3bc 0ae5 543e 8bda 3b3c
00000260: 5f78 843e 5665 7d3e 7c6f a43e 3448 cd3d
00000270: c2db 4c3e 1798 8d3e 13e2 2bbe 3c3e 213c
00000280: c560 133d 0619 13be b132 a9bc 5e72 91ba
00000290: 0122 3a3d a21f 6c3e 5b07 43be 31f3 88bd
000002a0: 53e1 853e dfb6 a9bd 3a55 a13e 0ede 67be
000002b0: fcb6 9d3e 0abd 9a3c 73f5 83be 8c81 59bd
000002c0: 01f8 5bbe 4060 87bd 63b2 da3c c655 c23e
000002d0: 76fc b1bd a3a2 f43d ef6c 9b3e 5984 25bd
000002e0: 3112 e6bd 086a 153e 056e 343e 3aa3 a83e
000002f0: ffbd 56be a925 c1bc da57 7a3e b10d babc
00000300: ecf0 f43d 5271 31be 11fb d33c 51b3 6b3e
00000310: 7d43 543d 7e3c 053d 6334 7e3d 0ed5 7c3c
00000320: 110a 5a3e 1e54 843e 6386 35bd 54b1 b03d
00000330: 6d92 373e c14c 5b3e 0f34 4c3e 6a71 aabd
00000340: 0d2b 4d3e 8766 8e3e 12c1 0dbd aa88 d93d
00000350: 0c6f 2fbe 131a 653e 4f44 5cbd be95 68bd
00000360: 24b1 ccbc bf8d 7b3e af37 21be 1c1c 933d
00000370: 1c13 563d 7cff 3fbb 23cd dfbd aff8 913e
00000380: 45de 66bd fc55 343e c566 203e d095 a53e
00000390: 53e4 d1bb a9cb 7d3e b5ba 463e 473a 503e
000003a0: c595 29be 640e b23c 61dd e43c eb41 ad3d
000003b0: f6b6 f7bd 9455 ddbd 0e5d 84bd 441c 4f3e
000003c0: 7c74 1bbe b88b 4abd 5abe 653c cefe 9c3e
000003d0: a1c6 a63d 5290 543e 39c2 dc3d 28a6 d1bd
000003e0: b067 25bd 359e 293e 9d11 8b3d 6950 603e
000003f0: 75fd 513d 9efe 5fbd 0830 2bbe a636 de3d
-0.11297491 0.11481419 0.051832393 0.11541343 0.284242 0.049881153 -0.21447466 -0.010218655
0.20631407 0.1179764 -0.09743848 -0.075367115 -0.120781064 -0.17707576 0.04898932 0.057472784
-0.1291072 0.034263123 -0.23773907 -0.029963914 -0.065385215 -0.11412864 0.10489216 0.057408076
-0.057046622 0.0070148287 -0.11381657 -0.10592149 0.31548554 -0.117184855 -0.20665726 0.10204925
0.07916107 -0.08280516 0.314663 0.1608117 0.29010624 0.25564003 0.23724747 0.0437044
0.07879477 0.2698136 0.19505036 -0.039657917 -0.184718 -0.094050005 0.08052092 0.07823261
0.20143709 -0.14310022 0.21537001 0.2502563 -0.2992253 0.057666484 0.14255582 0.097403675
0.015507653 0.30522057 -0.030841758 0.24588653 -0.005789206 -0.16635865 0.026302574 -0.025730347
-0.09749517 0.31212792 -0.1403433 -0.060075726 0.28201208 0.10453837 0.271209 -0.219734
0.18782055 0.113292664 0.13478354 0.18378672 -0.105585955 -0.05605537 -0.21816559 0.29728878
0.28793782 0.071616866 0.31116748 0.12232034 0.07342025 0.16066192 -0.05710234 0.15171129
0.30204213 -0.050639812 0.24313746 0.2531099 0.03745115 0.2270834 -0.25588572 0.26675257
0.29746404 0.22932953 0.31834593 -0.28532672 -0.11406399 0.1365484 0.23311445 -0.008056872
0.08411178 -0.027774828 -0.11292907 -0.22343919 0.29371482 -0.19643074 0.27647036 0.2721502
0.32149675 0.09998823 0.13006541 0.15261218 0.20922092 0.0122436015 0.04757525 0.08188581
0.2709907 -0.17041688 0.1355 0.012378053 0.04705975 -0.07583144 -0.0022215438 0.090870835
0.2953002 0.27225426 0.06339726 0.0057422137 0.059442244 0.1205556 0.05188171 0.3067825
-0.16141737 -0.07988801 -0.15024853 -0.15153569 0.30025965 0.05465385 0.20422511 0.34650287
0.02182998 0.27803123 0.08567935 0.3219479 -0.09673228 -0.029727576 0.20790496 0.011465679
0.25873086 0.24745688 0.32116306 0.10023537 0.20005706 0.27655098 -0.16785459 0.009841498
0.03598096 -0.14365014 -0.020654054 -0.0011096706 0.045442585 0.23058942 -0.19045775 -0.0668701
0.2614847 -0.08286833 0.31510335 -0.22643301 0.30803668 0.018888969 -0.257732 -0.05310206
-0.21481325 -0.06610155 0.02669639 0.37956065 -0.08690731 0.11945083 0.30356547 -0.04040942
-0.112339385 0.14591229 0.17620094 0.32937032 -0.20970915 -0.023577528 0.24447575 -0.022711607
0.11960015 -0.17328385 0.025876554 0.23017623 0.051822174 0.032528393 0.06206168 0.015431656
0.21292903 0.25845426 -0.044317614 0.08627573 0.17926951 0.21415998 0.19941734 -0.08322413
0.20035954 0.27812597 -0.034607954 0.1062177 -0.17132205 0.22373228 -0.05377608 -0.05678343
-0.024986811 0.2456579 -0.15743898 0.07183096 0.052264318 -0.0029296568 -0.109277986 0.28510043
-0.056364316 0.17610925 0.15664203 0.3234086 -0.006405392 0.24784721 0.1940716 0.20334731
-0.16561039 0.021735378 0.027937593 0.084598385 -0.12095444 -0.10807338 -0.06463061 0.20225626
-0.15181154 -0.049449652 0.014022434 0.3066315 0.08143354 0.20758179 0.107792325 -0.1023677
-0.040382087 0.16564257 0.06790469 0.21905674 0.051267106 -0.05468618 -0.16717541 0.10850267

fc2.weight f4 [256, 256]
00000000: 74b0 22be f6f6 20be 4a32 6a3d c4c2 353c
00000010: 7cb5 343d 5351 9f3d 9664 9c3d c677 463c
00000020: 393d 3bbc d26d d13d 9f5a b7bd 6dc4 183b
00000030: 6af9 593d 9d96 6ebb cbca a2bc 0d4c 9d3c
00000040: 0aec cdbd cb68 83be e392 703d 2c7a b63d
00000050: df63 74be ebf0 b5bb 97be 5fbc 7a04 1f3e
00000060: 26be 9e3c cdd6 c3bc 2597 053e 974e 273c
00000070: 8abd 483d 01db babd 70c7 f1bd 848a 2c3d
00000080: f348 3b3d 3708 19be f359 d7bd 641b c8bc
00000090: 24a9 5c3d 5fcf 42bd 9ef2 8a3c 9006 113e
000000a0: c71d 2e3b 6f96 84bd fbb2 bc3c 128d 51bd
000000b0: 57fa f33d 5777 03be 6e83 823d d877 8dbc
000000c0: 03fb 9cbd dc49 033e 8ca4 2fbe ea53 013e
000000d0: 127c 043d ca2c 523d d2f8 113e 178f ee3b
000000e0: e861 47be 17be 2a3d c6cc 293e 8c06 68bc
000000f0: a75b e83d ad05 3e3d 56c5 683d 2763 9d3d
00000100: 5369 a53d ae5c ee3c 7a6d 1f3d bf37 e2bd
00000110: 8dd1 e03d b021 c6bc f291 e83c 57a3 84bd
00000120: 79f7 d03c f45f 9abd 2e23 33bd af53 943d
00000130: 31aa 353e 90c5 81bd df5f 46be 9627 7a3d
00000140: 42ab 7d3c 0401 45bc 5996 8e3d a03f a8bd
00000150: 4ebc 843c 0f72 c63d 34a7 37be 3c65 a03d
00000160: 537b c5bd 1c67 453e d655 ab3d 9792 7abd
00000170: 1b7a 703d f487 9abc f2f4 e43b c398 063b
00000180: c54b a3bd 13b5 7cbd 7f63 8bbc 549a 1bbe
00000190: 057d 243e 4967 85bd ec40 7dbd 36b3 d13d
000001a0: bef3 9e3d fc92 043d f653 03be bfdc e0ba
000001b0: 6594 233d e71e a33d e0f5 f0ba 20a6 8f3d
000001c0: 625d 633d 4907 483d 2b2e fa3d ef0b c73d
000001d0: 1945 033d a38f d3bd 3ea9 873b 6ca7 1bbe
000001e0: 9090 7abd b16f 04bd 65db 8cbd 35a5 6abc
000001f0: a014 613d 00d3 3fbe d075 10be 0cb6 983b
00000200: be44 343d 23b3 fe3c e24d abbd 1a3d 183e
00000210: c0b1 0c3e af48 a2bd f585 f03c 1686 e03d
00000220: 3414 5d3d 07c5 a938 bfad a3bd 340b c83d
00000230: 5298 84bd 0032 04be 2a85 003e 523a b8bd
00000240: 4c67 8d3d 946e 4cbd 2047 a03b 6ade 953d
00000250: 1bf1 343e 678d 203c 7e1a 9e3d 1443 8f3d
00000260: bf2f 82b9 90d2 4a3d 061f bdbc f49f 6a3d
00000270: 0de9 39bd bb2f 76bd 00bf e03c 42f4 103d
00000280: 4ee9 443e 0c21 cbbd fcb5 833d 2a16 173d
00000290: 27ec bb3d 126c dbbd 9dc1 4f3c 8dba 37be
000002a0: 0700 c2bd 13dd 5f3d 8c90 85bb 8466 59bd
000002b0: 8c24 5ebd cbd9 273c 6591 01bd 1fb7 173e
000002c0: 58c7 d3bc 1540 a7be 75f1 81bd e17e 113d
000002d0: 8f0d 153d 0027 7e3d b488 973d f19b df3d
000002e0: 0af8 693d 9e5c 3fbd 6c76 533d c1c6 79bd
000002f0: 9c82 6b3c edd0 2c3c b130 743d 01fe a43d
00000300: 3bd9 c93c dbac 37be 2242 3fbd 95b1 ad3d
00000310: b82d 103e 8ee7 383d 87d9 b1bd 39ea 1d3c
00000320: 5b36 88bc 4454 143d 47a7 c43c 16df c6bc
00000330: cf20 1d3e db39 883d 4a89 be3d 12a7 e13c
00000340: 8e01 84bc bdd5 f6bc 0813 f53b fa4f e73d
00000350: 2b74 ecbd 74b2 793c 0c5f 633c 3f13 a3bd
00000360: 3210 bb3d dab3 bebd 1db4 bbbd 109e fd3d
00000370: 6b0e fbbd 6150 9c3d 7e4a a2bd e1fd 35bd
00000380: 33d3 0cbe 9dc3 0c3e 397b 613d c539 5c3d
00000390: 5b97 b83c 2f84 b73d 20e0 373c 03a1 20bd
000003a0: 4645 bcbc 6231 3cbc d151 823b 2d90 a8bd
000003b0: 07e4 2ebd c6c1 e23d 575c 2d3d 0e80 823d
000003c0: b3fb 09be 6555 5bbd 322e c63c 3a86 01be
000003d0: abbe b83d 3be2 ec3d e93b 4bbd 0c20 71bd
000003e0: 8601 583d bd3c a6bd e92b a6bc 8d3e 08be
000003f0: d3f7 cfbd 79a0 80bd 1025 e6bd b68b de3d
-0.15887624 -0.15719208 0.057176866 0.011093799 0.04411839 0.07779183 0.07636373 0.012113517
-0.011428171 0.10226025 -0.089528315 0.0023310438 0.053216375 -0.003640569 -0.01987209 0.019201303
-0.100547865 -0.25665888 0.058733832 0.08910021 -0.23866223 -0.0055524013 -0.01365628 0.15529051
0.01937778 -0.023906136 0.13045938 0.010211608 0.049008884 -0.09123803 -0.11805618 0.042124286
0.045723867 -0.1494454 -0.10515203 -0.024427123 0.053872243 -0.047561046 0.016961392 0.1416266
0.0026568042 -0.064740054 0.023034563 -0.051159926 0.11912983 -0.12838493 0.063727245 -0.01726906
-0.07665064 0.12821144 -0.17152613 0.12629667 0.032344885 0.051312245 0.14255074 0.007280241
-0.19470942 0.04168519 0.16582021 -0.014161717 0.11345606 0.04639213 0.05682882 0.076849274
0.080767296 0.029096927 0.038922764 -0.11045789 0.10977469 -0.024185985 0.028389905 -0.06476467
0.02550863 -0.07537833 -0.04373472 0.07242524 0.17740704 -0.0633651 -0.1937251 0.06107291
0.015482726 -0.012024168 0.0696227 -0.082152605 0.016203072 0.09689724 -0.17934877 0.07831809
-0.09642663 0.19277614 0.08365981 -0.061174955 0.0587102 -0.018863656 0.0069872076 0.002053783
-0.07973436 -0.061696123 -0.017015217 -0.1519559 0.16063316 -0.06513841 -0.061829492 0.1023926
0.07761334 0.032366738 -0.12824997 -0.0017155631 0.039936442 0.079648785 -0.0018383823 0.07014108
0.05550898 0.048835073 0.12215837 0.09719073 0.03204832 -0.10330131 0.0041400483 -0.15200585
-0.06117302 -0.03233308 -0.06877784 -0.014321615 0.05495131 -0.18732834 -0.14107442 0.0046603736
0.04401087 0.031091278 -0.08364464 0.14867058 0.13739681 -0.079240195 0.02936075 0.10963075
0.053974345 8.095247e-05 -0.07992124 0.09767762 -0.06474365 -0.12909698 0.12550798 -0.08995499
0.06904468 -0.049910143 0.0048912913 0.07317813 0.176701 0.009799338 0.07719897 0.06995216
-0.00024831106 0.049517214 -0.023086082 0.05728145 -0.04538827 -0.060104113 0.027434826 0.035389192
0.19229624 -0.099184126 0.06431195 0.03688637 0.09175902 -0.10713972 0.012680438 -0.17942257
-0.094726615 0.054654192 -0.004076069 -0.053076282 -0.054234073 0.010244797 -0.0316328 0.14815949
-0.02585189 -0.32666078 -0.063448824 0.03552139 0.036389884 0.062048912 0.07399121 0.10918415
0.057121314 -0.046719186 0.051626608 -0.060980562 0.014374401 0.010547859 0.05961675 0.0805626
0.024639716 -0.17937033 -0.04669393 0.08481137 0.1407994 0.045142703 -0.08684068 0.009638363
-0.016627481 0.036213174 0.024005545 -0.024276298 0.15344547 0.0665166 0.093035296 0.027545486
-0.016114023 -0.030131215 0.0074790753 0.11294551 -0.11545595 0.0152403 0.013877641 -0.07962655
0.091339484 -0.09311648 -0.09165213 0.12383664 -0.122586094 0.076325186 -0.079243645 -0.04443157
-0.13752441 0.13746496 0.055049155 0.05376603 0.02253311 0.08960759 0.011222869 -0.039216053
-0.02298225 -0.011486383 0.0039770384 -0.08230624 -0.042697933 0.110721156 0.04232439 0.06372081
-0.13474922 -0.053548235 0.02419195 -0.1264886 0.09020742 0.115665875 -0.04961768 -0.058868453
0.052735828 -0.08117054 -0.02028461 -0.13305111 -0.101546906 -0.06280608 -0.11237538 0.108664915

fc2.bias f4 [256]
00000000: 4255 8e3d 302b 293d 020e 0c3c e1b9 8e3c
00000010: 46b1 443c 9491 ebbc 6e9f 693b d5ca 1cbc
00000020: 6b56 a33c 4c28 4cbd 7416 793b e53c 45bd
00000030: 7b32 e3bc 8ec2 d4bc f593 493d 1128 513d
00000040: 1b10 0f3d 0ef4 293d ccab 8ebc dbf1 11bd
00000050: f171 2f3d 78f8 a23d 1fcd 70bc fa47 9aba
00000060: b327 143d 5812 9e3d a0de 96bd d1fd bf3c
00000070: 29c1 963b 33a5 aaba 70e8 de3c c847 2cbd
00000080: 9e05 07bd 762e 583c 0c0d 643d 6dc4 953d
00000090: 6d2f e63b 2a07 8c3d 6347 533c 26d1 643d
000000a0: 12ab e53c 0bfc c83c 9aa5 7ebd 6169 11bc
000000b0: e28a 253b 8345 62bd 3197 a33b 639f 983c
000000c0: 6851 413d ef85 9fbc 91c9 1cbc 2c48 643d
000000d0: 9126 01bc a7dc 29bd c1c5 863d a257 87bc
000000e0: f14b 2fbd 918a 37bd 682e 74bc 29f2 053d
000000f0: 1200 003c 8fac 7d3d a034 03bd 31c8 823d
00000100: e890 a93c f869 4bbd 63be b3bc d0d4 063d
00000110: e2ed a63d 2f74 9d3c 82dd f03c 122a 023c
00000120: a258 973c 6bbc a13c 43d7 0a3c 8b7f babc
00000130: c01e 93bc 5269 d23c f3fa 54bd 19a7 183d
00000140: fe58 53bc 7be7 243d 91a6 083d 41eb 733d
00000150: 3867 1ebd f20c e83c a33c 42bd 06b1 b6bc
00000160: 248c 46bd 87c6 17bd 53f5 81bd d9d2 903d
00000170: c2d7 f93a 8ac5 7b3c ce30 bbbd 7ee8 ff3c
00000180: 6285 9fbc 75a8 b5bd 6ce3 1a3d ca69 133b
00000190: a171 233c ca87 0dbd a2bb 183d 9dfa ea3c
000001a0: 5022 2b3d f27a 6f3d ab43 e3bc a9f2 62bd
000001b0: 3150 493d 62ba e2bb 78c9 7dbc 84d7 9cbb
000001c0: d4ee d0bc 3e03 80bd f38e 7e3d 25aa be3d
000001d0: 60a7 c5bb b697 dbbc 9f63 c4bb 0ec1 473d
000001e0: 0256 f23b 812d 293d 2884 703c 79f3 4dbc
000001f0: f52e 4bbd 4da1 eb3b 50e3 833b 31d0 773d
00000200: e2d3 ca3b e250 723d 9e70 d33c 31a2 173d
00000210: b284 e8bc 249e ae3c 34fe 3fbd eaf8 11bb
00000220: b868 7bbd 5c36 813d 0d70 f1bb 1dba 9c3b
00000230: 6f92 01bd a692 823d c0f5 8e3c d218 68bc
00000240: 010f e9bb 1fb4 0b3d 489a 1c3d 3c8b 4ebd
00000250: 61e9 20bd 0a11 543d 3911 b8bb ba2b 443d
00000260: 9beb 683d 539d e73b 9bb9 46bc 882a 41bc
00000270: 0b08 9fbc c053 e93c 0eb1 9f3d 5a28 923c
00000280: ad45 a53c 4046 443d b042 c7bb c0fa 92bc
00000290: 9c93 bebc b894 91bb d91d babc a975 173c
000002a0: 3cf6 0f3d 6112 a5bc 0b8a 3e3b 74cd 6c3c
000002b0: bb1d d2bb 2d63 853c 4963 4ebd 0dba 42bc
000002c0: d3d8 0bbd ce53 6ebd da37 77bd 3d9f 3cbd
000002d0: 51be 623d d83c 793d d3b6 0b3a 0e50 d8bb
000002e0: 9efe b6bc 616e 23bc bbbb 733d ff42 213d
000002f0: cd4c 42bc 11ff 8ebd 38b9 28bb f654 3d3d
00000300: 5da0 453d d620 5abd c42b 94bb 5e00 e6bc
00000310: 35c5 f4bc a695 043c 89fd cf3c a985 e3bc
00000320: 3bc9 273d 4d8f c2bd 8f96 70bc 7df7 a7bb
00000330: 00ae 56bd b226 78bc 8266 24bc af83 dabc
00000340: c21b 353d ec68 5fbb 5185 2ebd b0b9 33bd
00000350: c6aa ed3c a20a 0dbd 1e8d 383d 430e f9bc
00000360: ef8b f3bc ae74 ebbc ed76 16bd a103 da3b
00000370: b346 d53c f480 8bbc 5a2a 6a3d d7db 80bd
00000380: 97f2 7c3c 29ee 1a3c c3b5 e9bc 30f1 acbc
00000390: e8e2 28bc d11c 2c3d 8f68 8bbd 871c 52bd
000003a0: 65ad 04bd d397 7f3d 1c16 833c 00f5 c73c
000003b0: d9c3 38bd 91ba c13c 2a0c a63d fd13 b73b
000003c0: e977 043d 05ab dcbc d791 063d 9926 adbc
000003d0: 59e9 1d3d 59d4 80bd 8573 a13c 44b3 273c
000003e0: cd20 103b 770f a73c 1d4d 30bd 995a d2bc
000003f0: cb1d 243d 6904 f83c 5f23 af3b 4948 cb3b
0.069498554 0.041300952 0.008548262 0.017422618 0.012005156 -0.02875594 0.0035648006 -0.009569843
0.019938668 -0.049843118 0.0038007768 -0.048153777 -0.027734032 -0.025971677 0.04921337 0.0510636
0.03492747 0.041492514 -0.017415904 -0.035631042 0.042833272 0.07957548 -0.014697342 -0.0011770718
0.036170673 0.077183425 -0.07366681 0.023436459 0.004600663 -0.0013019204 0.027210444 -0.042060643
-0.03296434 0.013194671 0.055676505 0.07312856 0.0070246966 0.06837304 0.012895438 0.055863522
0.028035674 0.024534246 -0.06216965 -0.008875222 0.0025259783 -0.055242073 0.0049923887 0.018630689
0.047196776 -0.019473044 -0.009569542 0.05573289 -0.00788273 -0.041470196 0.06580687 -0.016521279
-0.042797033 -0.04480988 -0.014903642 0.032701645 0.007812517 0.061932143 -0.03203261 0.0638584
0.02069898 -0.049661607 -0.02194137 0.032917798 0.08150841 0.01922044 0.029402498 0.007944601
0.01847488 0.019743165 0.008474174 -0.022765895 -0.017958999 0.025684986 -0.051997136 0.03726873
-0.012899635 0.04025982 0.033361975 0.059550527 -0.038672656 0.028326485 -0.04742111 -0.022301208
-0.048473492 -0.037054565 -0.0634562 0.07071466 0.0019061493 0.015366921 -0.09140168 0.03123879
-0.019472782 -0.08870021 0.037814543 0.0022493475 0.009975822 -0.034553327 0.037288316 0.028683955
0.04178077 0.05846686 -0.027742228 -0.0554072 0.049148742 -0.006919191 -0.015489928 -0.0047864337
-0.025504507 -0.062506184 0.062148046 0.09309796 -0.0060319155 -0.02680574 -0.005993321 0.048768096
0.007395507 0.04130316 0.014679946 -0.012570255 -0.04960533 0.0071908594 0.0040249005 0.06050128
0.006189809 0.059159167 0.025810536 0.037019912 -0.028383587 0.021315642 -0.046873286 -0.0022273608
-0.061379164 0.06309196 -0.007368094 0.0047829286 -0.03163379 0.06375627 0.017451167 -0.014166074
-0.0071123843 0.034107324 0.03823307 -0.050425753 -0.039285067 0.051774062 -0.0056172875 0.047893263
0.056865316 0.007068315 -0.012129213 -0.011789925 -0.019413015 0.028482318 0.077974424 0.017841507
0.020174826 0.047918558 -0.006080948 -0.017941833 -0.023263745 -0.0044427775 -0.02271931 0.009244361
0.035146937 -0.020150365 0.002907398 0.014453281 -0.0064122356 0.016282642 -0.050387654 -0.011885178
-0.034142327 -0.05818539 -0.060356 -0.0460503 0.05535728 0.06084904 0.0005329672 -0.00660134
-0.022338208 -0.009975047 0.059505206 0.039370533 -0.011859131 -0.06982244 -0.0025745165 0.046223603
0.048248637 -0.05325397 -0.004521819 -0.028076347 -0.029879192 0.00809232 0.02538945 -0.027773695
0.040963393 -0.09499989 -0.0146843335 -0.0051259384 -0.052412033 -0.015145944 -0.010034205 -0.02667412
0.044215925 -0.0034089638 -0.04260761 -0.043878257 0.029012095 -0.03443397 0.045056455 -0.030402308
-0.029729811 -0.02874216 -0.03673451 0.0066532646 0.026034689 -0.017029263 0.057169296 -0.06291931
0.015438697 0.009456196 -0.028529054 -0.0211111 -0.010308005 0.04201967 -0.06807052 -0.051296737
-0.032391924 0.06240065 0.016001754 0.024408817 -0.04510865 0.023648532 0.08107789 0.0055870996
0.032340918 -0.026937017 0.032853927 -0.021136569 0.038552616 -0.06290502 0.019708404 0.010235611
0.0021992207 0.020393116 -0.04304229 -0.025677966 0.040067475 0.03027554 0.0053447927 0.0062036854

pi.weight f4 [3, 256]
00000000: fb52 72bd 688e 2e3d 39e3 87be 8332 933d
00000010: 9748 803e 6790 40bd 2cce b1bd 10da 7e3d
00000020: efba 113e 9a30 a7bd 3a0d d1be 1a58 cc3c
00000030: 268b 723e a1e1 c33c 6c02 7f3d 9c2a 2f3d
00000040: 1ce3 e6bd 9c9d 793a f780 3b3d 2dbb a23d
00000050: 9e71 873c c426 2e3d b97e fc3d 7dab cd3d
00000060: 116e 34bd 70d3 133d dc2e 73be c842 7dbe
00000070: dd59 4b3c e55b 19be bed8 8dbd 1d66 103d
00000080: 211d fd3d 1752 e6bd 75eb a13e 94eb 74bd
00000090: f4f6 56bd cd2e ff3d 7fc9 8cbd 2a21 4dbd
000000a0: cf2e 593e 6cde b9bd 14b6 16bd 032d 80bd
000000b0: ec8f e73e 1417 4fbd 6daa e1bd 5b1e 973c
000000c0: d12b d4bd 1c92 2b3f 2668 8b3d 1a09 d03c
000000d0: 24f6 65bd 732a 383d 87bc b4bd c76e 3f3b
000000e0: dbfd d9bc 2aa3 c0bd 1e20 8b3c 2cdb 38bd
000000f0: 0750 1bbd 5a31 8bbd 004f 73bb d98d 8bbd
00000100: b4b5 fd3d 8328 1b3f 5eec 5c3d e415 403d
00000110: 0a9c 10be a8a7 f7bc 65a0 2fbd d815 adbd
00000120: 057f b43d 0474 82be ff02 553e e17b 7dbc
00000130: a1a0 c53c a475 c83e 9f50 8fbd 8f3e bc3d
00000140: 1087 b93d 8223 863c 3f00 203d 8a4d 203d
00000150: 4996 583c 21bd 243f 3da8 cb3d 455d 6abe
00000160: 061b e2bd 4f5a babd 8fad 5fbd b5f1 7bbd
00000170: d51d 3c3d 7947 04bd 9a01 6cbe 690f f5bd
00000180: bfb7 09be 638d 4bbe 0cde 823d 3e13 443c
00000190: abcc 04bd ad17 70bd 4f0e cabc 588e 39be
000001a0: ced9 2cbd e271 c63b 08be 423e 52a4 9cbe
000001b0: 405c 443b db18 f13e 5714 b3bd 7598 f83c
000001c0: 60d3 dd3c b6a8 56bd d50e 1d3e 6aef a73d
000001d0: cbb6 94bd abc0 143d cd7b 92b9 ddc0 3b3d
000001e0: aa56 3bbd a557 a8bb 8291 513b 081e f63c
000001f0: 41aa e83d e28d 47be 7368 6b3d 1bc8 7c3d
00000200: f6b6 00be 8a98 53bd ca60 943b acee 103e
00000210: 2890 423c b7f5 483c 03f1 903e 204a cabd
00000220: 416e 6abe 67ee 9b3c df16 d6bc 0358 edbd
00000230: 95c1 3bbd 973e 03be 52fa 9cbd 4109 a03b
00000240: 2404 7abd c6be e6bc 0fa9 99bc 2aa5 49bf
00000250: 5b96 e1bd 0bdb fcbd b685 813d 8fc8 0bbc
00000260: da48 d4bd 5a5f 44bd a6fc 24bd afd0 43be
00000270: ea83 393d 71c5 60bc f15d 6c3d b6c6 edbd
00000280: 3083 86be 8154 64bd 7e12 eabc 30e7 bb3d
00000290: 9853 233e fe70 893d afc3 863d 9f38 4d3d
000002a0: 871f aa3d dc4f 663d 5901 4c3d 56a3 fdbd
000002b0: 35ef e1bc 02ac 46be 61df f93e 6c78 ffbb
000002c0: f5eb 813d 7771 1a3f a7e9 74be b512 efbd
000002d0: 254c 1f3f d4e9 d13d 9710 6ebd a5bd a2bd
000002e0: e330 2a3f a950 4f3d 6b7e 923d 3c46 c03d
000002f0: b239 1dbd 57a8 063f 9c75 0cbe dba2 80bd
00000300: 1d09 d73d cf20 3e3e edde 473e 99fc b73c
00000310: 18f5 51bf 8fc5 4abd 086d d8bd bde8 00bf
00000320: 2f5d 1abd c78b bbbe d57e 2d3e 3356 6bbd
00000330: 5ec0 033d 7a5e b23d b0fc 623f 803c 103d
00000340: 628f fabc 2795 dfbd aa1c ffbd 6b04 b53c
00000350: ff5c c4be 59b9 8a3b ea37 da3c e840 843b
00000360: 2aef ff3c 86cf 8cbc 758f 1bbe 81d7 3ebd
00000370: 141b 3cbc 9bc4 833d 6e3a 553f 6a67 433d
00000380: 5baf 383e 7971 f5bd 7f6f 12bd a8d7 cb3d
00000390: 50f1 9c3b cf09 b73e 5a31 193f a039 243d
000003a0: b491 843d f839 9a3d b818 b0be 95c6 323f
000003b0: 7c0c 45bd 73da 7c3e 8301 a33d 50b8 f23e
000003c0: 6744 e23d b817 1ebe bce5 9b3e 4453 983d
000003d0: 74ea a43d 9050 1c3e eb1e 9a3c f64a bf3d
000003e0: c57b b5bd f976 0bbe ca58 a53c d4d2 643d
000003f0: 7107 13be 410f 9cbb ee68 12be 746d f0be
-0.059161168 0.042616278 -0.26540545 0.07187369 0.25055382 -0.047012713 -0.08681902 0.06221968
0.14231466 -0.08163567 -0.40830404 0.024944354 0.23685893 0.0239113 0.06225817 0.042765245
-0.112737864 0.0009522082 0.045777287 0.07945857 0.01653367 0.04251744 0.12328858 0.100424744
-0.04405028 0.036090314 -0.23748344 -0.24732506 0.012411562 -0.14976461 -0.06926106 0.035253633
0.123590715 -0.11246126 0.31624952 -0.059794977 -0.052481607 0.124600984 -0.0687437 -0.050080456
0.21209262 -0.09075627 -0.036794737 -0.06258585 0.4522699 -0.05055912 -0.11018834 0.018447092
-0.1035992 0.6701982 0.06806974 0.025394965 -0.05614294 0.044962358 -0.08825021 0.0029210316
-0.026610306 -0.09406121 0.016983088 -0.045130894 -0.037918117 -0.067965224 -0.0037125945 -0.06814165
0.12388173 0.6060869 0.053936355 0.046895877 -0.14122024 -0.030231312 -0.042877574 -0.08451432
0.088132896 -0.25479138 0.20801924 -0.01547143 0.024124445 0.39152253 -0.06997799 0.091916196
0.09058964 0.016374353 0.039062735 0.039136447 0.0132194245 0.6435109 0.09944198 -0.22887142
-0.110403106 -0.09099256 -0.054608878 -0.061509807 0.045926888 -0.032294724 -0.23047486 -0.1196583
-0.13449 -0.19878154 0.06390008 0.011967478 -0.03242175 -0.05861633 -0.024665026 -0.18120706
-0.042199902 0.0060560564 0.19017804 -0.30594116 0.0029962212 0.47089276 -0.08744114 0.030346135
0.02707833 -0.05240699 0.15337689 0.081999615 -0.072614275 0.036316555 -0.0002793953 0.045838226
-0.045736946 -0.005137401 0.0031977599 0.030043617 0.11360598 -0.19487718 0.057472657 0.061714273
-0.12569794 -0.051659144 0.0045281397 0.14153546 0.01187519 0.012265614 0.28308877 -0.098774195
-0.22893621 0.019034578 -0.026133953 -0.115890525 -0.04583891 -0.12816845 -0.07664932 0.0048839157
-0.061039105 -0.02816714 -0.018757371 -0.78767645 -0.11015006 -0.12346467 0.063243315 -0.008531704
-0.10365458 -0.047942497 -0.040280007 -0.19122575 0.04529182 -0.013718949 0.057706777 -0.11610167
-0.26271963 -0.05574465 -0.02857327 0.09174955 0.15949857 0.06711005 0.065802924 0.050102826
0.083067946 0.056228504 0.049805973 -0.123846695 -0.027579883 -0.19401553 0.48803237 -0.007796338
0.06343833 0.60329384 -0.23917256 -0.1167349 0.6222556 0.10249677 -0.05812129 -0.07946328
0.66480845 0.050614033 0.071530186 0.09388396 -0.0383851 0.52600616 -0.1371674 -0.06281062
0.10499785 0.18567203 0.19518633 0.022459315 -0.8201461 -0.049504813 -0.10567671 -0.5035513
-0.037686523 -0.3663008 0.16942914 -0.057455253 0.032165878 0.08709426 0.8866682 0.035213947
-0.030585948 -0.109171204 -0.12456639 0.022096833 -0.383522 0.004233521 0.02663799 0.0040360577
0.031241972 -0.017188799 -0.15191443 -0.04659224 -0.011481065 0.06433984 0.8329228 0.047706045
0.18035643 -0.11984534 -0.035750862 0.099532425 0.004789509 0.3574967 0.5984093 0.040094018
0.06473103 0.07530588 -0.3439386 0.6983426 -0.04810761 0.24692707 0.07959273 0.47406244
0.11048203 -0.15438735 0.3044871 0.07437757 0.08052531 0.15265107 0.018813571 0.093404695
-0.08861498 -0.13619603 0.02018394 0.055865124 -0.14358307 -0.0047625606 -0.1429784 -0.46958506

pi.bias f4 [3]
00000000: dd7b cdbc 2cc2 a8bc 2ddf 123d
-0.025083477 -0.0206004 0.03585737
