ddpg/checkpoints/ddpg_traj_track/critic.pth (torch, 279806 bytes, 5 tensors)

fc1.weight f4 [256, 12]
000000 e4 c4 05 bf 0b db 0c be 49 e2 43 be c5 16 7f 3e
       -0.52253556 -0.13755433 -0.1912929 0.2491103
000010 64 40 04 be 17 e5 bc 3e 6c 93 16 bd fe e6 e6 bf
       -0.12915188 0.36893532 -0.036761686 -1.8039243
000020 cb 4f 94 be 39 49 9f be a9 7d cb 3d 99 e4 ca 3e
       -0.28967127 -0.31110552 0.09936077 0.3962753
000030 13 af a1 be 33 fe e6 3e 9c 13 20 bb 35 44 c5 3d
       -0.31578884 0.45115814 -0.002442575 0.0963215
000040 4a 99 3e 3e 87 07 e1 3d 66 63 11 bf 5c b2 31 3f
       0.18613163 0.10987764 -0.56792295 0.6941278
000050 ab 88 21 bd 70 f5 87 3e 83 b4 d5 3e f1 38 12 3e
       -0.039436977 0.2655444 0.41739282 0.14279534
000060 ec 91 16 3f 36 2b 62 be af ab fc 3e f8 7c ec bd
       0.5881641 -0.22086796 0.49349734 -0.115472734
000070 63 2b 2f bc e0 d5 33 3d 52 56 40 bf 75 c4 02 3f
       -0.010691497 0.04390514 -0.75131714 0.5108102
000080 70 6f a3 3d 3e 8c 9e 3d 9b e5 ce 3c 2a 6e cf 3d
       0.079802394 0.07741593 0.025255969 0.10128434
000090 43 df 7e bd a9 67 fd be 7e cc ac 3e 9b a2 4f 3e
       -0.062224638 -0.4949315 0.33749765 0.20276873
0000a0 e2 d0 87 bd 49 89 78 bd 76 51 e0 3d f9 e5 1f 3e
       -0.06631638 -0.0606778 0.109530374 0.15615071
0000b0 3e 11 11 bf 42 e1 38 be 82 78 de 3d 27 83 3c be
       -0.56666934 -0.18054679 0.10862829 -0.18409406
0000c0 6d 50 1e be 4f 2f 1a bf 3c 63 e8 3e c3 0e 74 3a
       -0.15460368 -0.6022844 0.4538821 0.0009310061
0000d0 fe 4f e6 3a 24 57 1d bd 87 c8 23 3e 1f 8e 86 bf
       0.0017571447 -0.038413182 0.15994464 -1.0512122
0000e0 e3 4c da bd a3 51 1e bc 7e 1a 12 bd f4 09 ce 3a
       -0.10659196 -0.009663018 -0.035669796 0.0015719519
0000f0 b0 42 3d 3e 81 20 1c bf 6e 53 04 3d f4 08 4c be
       0.1848247 -0.609871 0.032306127 -0.1992529
000100 b5 23 93 be af 62 36 be b0 c1 06 b9 74 50 37 bf
       -0.2873818 -0.17811082 -0.0001285139 -0.71607137
000110 4f 34 0e 3e bb 58 88 be 8b 6f cd 3c e6 84 95 be
       0.13887142 -0.26630196 0.025077602 -0.29202956
000120 52 f4 56 3d b4 24 18 3d 56 1d 94 bc f3 bb 01 3e
       0.052479096 0.037144378 -0.018080395 0.12669353
000130 b8 bd 15 be f5 6d 49 be 36 4e e2 3c 07 ee ac 3f
       -0.14623153 -0.19670852 0.027625185 1.351014
000140 5f 0b 34 3e f6 74 67 be 25 e2 24 3e 2a 49 6b 3e
       0.17582463 -0.22603211 0.16101892 0.22977129
000150 c9 78 af 3e bc 3c a3 bd 4d f6 72 bf 50 d9 10 3c
       0.3427184 -0.079705685 -0.94907075 0.008840874
000160 56 2a 77 bc 39 66 b7 bc 7a 95 3c bf bb 5f 00 3f
       -0.015085777 -0.02238761 -0.73665583 0.50146073
000170 48 01 d6 3e 9f b6 cd 3b a7 e3 13 bb 2e e7 87 bc
       0.41797853 0.0062778736 -0.0022566111 -0.016589727
000180 6d 4a ad 3e ed dd 3e 3c 98 19 a3 be 71 f8 84 3e
       0.33845845 0.011649591 -0.31855464 0.25970796
000190 5d 56 ae 3e 8d 26 85 3c 31 ca e9 be b8 50 7d be
       0.34050265 0.016253734 -0.45662072 -0.24737823
0001a0 d4 b2 ba be cd 5b 4d be 6a b1 e3 be c8 ee db bc
       -0.3646456 -0.2005455 -0.44471294 -0.026847258
0001b0 71 17 b3 bd e2 9e ec be ec 33 9a 3c 5f 47 3b be
       -0.087447055 -0.46214968 0.018823586 -0.18288945
0001c0 77 ea 5d bc 41 45 df 3e 45 b8 4d 3d d0 a3 83 3e
       -0.01354467 0.43607524 0.05022456 0.25710917
0001d0 c2 af 4f bf ec ab 8f 3e d6 4a b0 bd 35 57 7c be
       -0.8112756 0.28060853 -0.08608024 -0.24642642
0001e0 4b d9 a6 bd 4b 90 f6 3b 01 ec 3a 3c 8e 50 51 3e
       -0.08146914 0.0075245253 0.011408807 0.20440885
0001f0 11 17 47 3d f4 3b 05 bc 79 dd 3e bd 72 80 00 c0
       0.048605982 -0.00813197 -0.04659793 -2.0078397
000200 51 ef 30 bf f3 85 52 be c7 81 da bd c4 fd ba bc
       -0.6911517 -0.2055891 -0.10669284 -0.022826083
000210 3f 61 51 3f 95 83 92 be 6d ce 07 be 08 07 2a bc
       0.8178901 -0.28616014 -0.13262339 -0.010377653
000220 c0 d1 e4 3c 69 5f a4 3b 07 49 fe be ec ae 52 3f
       0.027932048 0.0050162566 -0.4966509 0.8229816
000230 7f b5 85 3e 80 da d7 3c 2e c2 b7 3b 51 06 a2 bc
       0.26115033 0.026349306 0.005607865 -0.019778403
000240 92 05 30 3d 84 b1 29 bf 55 48 51 be fe 57 87 be
       0.042974062 -0.6628649 -0.20437749 -0.2643432
000250 74 2b 21 3e 1b 7a bb bd c9 9c 16 be 21 65 c0 bf
       0.15739232 -0.09154149 -0.14708246 -1.5030862
000260 dd 89 81 3e 58 30 56 3e 67 89 7b bd 9f 9a 95 be
       0.25300494 0.20916879 -0.061410334 -0.2921953
000270 f3 8a 4f bd c0 c4 cf be 88 e3 ae be 23 0e c5 3d
       -0.05066962 -0.40579796 -0.34157968 0.09621837
000280 ba 83 55 be 08 38 dd 3d 6a d3 1b 3e ba b6 be 3e
       -0.20851031 0.10801703 0.15217367 0.37248784
000290 28 4b ec 3c 85 b2 29 3e b3 82 ce 3d 2c db db bd
       0.028844431 0.16572006 0.10083523 -0.10735163
0002a0 5f 4e 4b 3e 2d d1 59 3d 3d a7 bf 3e 6a 6d a1 3e
       0.19854115 0.053178 0.3743228 0.3152879
0002b0 a8 8f 12 3d 7f 08 fd 3e 4c e5 93 bd f6 fe 1b bf
       0.035781533 0.49420545 -0.07221469 -0.60935915
0002c0 e9 9e e8 be f6 d2 b8 3d 48 22 27 be 44 f4 f0 3b
       -0.4543374 0.090246126 -0.16321671 0.0073533375
0002d0 70 2b ca 3e a0 46 02 3f af c8 89 bf 84 f7 0e 3c
       0.39486265 0.50889015 -1.0764369 0.0087260045
0002e0 03 2a 09 3d e7 0c 7f bd 92 44 3c be 7a d7 db be
       0.03348733 -0.062268164 -0.18385532 -0.42937833
0002f0 4d 56 7c 3e d9 78 a9 3c 75 f8 8b 3b 4c f9 4c bd
       0.24642296 0.020687507 0.0042715617 -0.050042436
000300 64 68 d3 3e a1 07 24 bf 39 15 11 be 84 21 02 3e
       0.4129058 -0.6407414 -0.14168252 0.12708098
000310 f8 0d 10 3d a1 de 97 be 8a 0a 65 be 03 8f 70 bc
       0.03516957 -0.2966204 -0.22367302 -0.014682534
000320 8d 54 5a 3e 90 44 2d be f6 55 e2 bb 2c a3 e6 3e
       0.21321316 -0.16920686 -0.00690722 0.45046365
000330 69 22 d8 be 8c 94 b9 bc fd 50 e4 3e 47 38 a8 be
       -0.42213753 -0.02265384 0.4459304 -0.32855436
000340 3d 60 3a 3e d8 f8 7a be 05 75 82 be ff 5f 32 3f
       0.18200774 -0.24508989 -0.25479904 0.6967773
000350 db 8f d9 3c 12 fe cc be cb 61 94 3e 2c 4d 52 be
       0.026557853 -0.4003759 0.2898086 -0.20537251
000360 a5 c8 ab bc 90 7d 6e be 7a 60 6d be a7 3d dc bc
       -0.020969698 -0.23290086 -0.23181334 -0.026884867
000370 59 78 dc 3d 34 0d 33 3d 21 a6 38 3d 37 05 9f be
       0.10765142 0.043713763 0.045080308 -0.31058666
000380 1a e2 97 3e 66 0f 8c bd fa 21 4f be 30 7f 98 3d
       0.2966469 -0.068388745 -0.20227805 0.07446134
000390 3d 1d 9a 3e c3 eb 14 3e c2 da c3 be ce 2b 3f bd
       0.30100432 0.14543061 -0.38252836 -0.046672635
0003a0 29 60 8b bb 20 56 07 3c 0c 6e 19 3e 0d c9 bf bf
       -0.0042534065 0.00826028 0.14983386 -1.4983231
0003b0 52 26 86 be da a7 81 be dd ea 4b be 25 da d8 bd
       -0.2620111 -0.25323373 -0.19913812 -0.10588483
0003c0 d6 c7 ac be f7 12 5e 3e 4c db c1 3e d8 1a ea bd
       -0.33746213 0.21686922 0.37862623 -0.11430901
0003d0 d1 d4 91 bd f9 25 dd 3d cf 1d c1 be f7 4c 16 40
       -0.0712067 0.10798258 -0.37718055 2.3484476
0003e0 dd ed db 3e 2e 92 33 be 1e 2d 20 3e a3 41 d7 bd
       0.42954913 -0.17536232 0.15642211 -0.10510566
0003f0 2f d3 56 bd 6d b8 07 3e ef 1b 45 bd 14 be ab 3e
       -0.052447494 0.13253947 -0.048122343 0.33543456

fc1.bias f4 [256]
000000 6f ee 3a be 5a 40 4d be 1c d5 b7 bd 66 32 1a be
       -0.18255018 -0.2004408 -0.08976194 -0.15058288
000010 ae 24 74 3d d0 e5 a2 be b6 ad 93 be 09 92 d6 3d
       0.059605293 -0.31815958 -0.28843468 0.10477073
000020 b4 5a 9a be c1 5b 1f be 7b f3 07 3e d0 90 78 be
       -0.30147326 -0.15562345 0.13276474 -0.24273992
000030 ac e6 ac bd 9a 19 36 be 43 37 8a be 75 79 77 bd
       -0.08442435 -0.17783204 -0.26995286 -0.060418565
000040 ad 43 9a be db b3 ac be 8a 0c 86 be d5 df a2 be
       -0.30129758 -0.3373097 -0.26181442 -0.31811395
000050 77 1a 5b be b5 30 9e be ad 3e 70 3e 86 97 65 be
       -0.21396814 -0.30896536 0.23461409 -0.22421083
000060 f4 73 c3 be 20 71 50 3e 81 fe ab 3d 60 a1 b7 be
       -0.38174403 0.20355654 0.08398152 -0.35865307
000070 2d 0d a3 bd 95 8e db bc ba 56 50 3e eb da 0b be
       -0.079614975 -0.026801387 0.20345584 -0.1365773
000080 9e 26 81 3e 05 52 61 bc 69 09 10 be ca 8e ea bd
       0.25224775 -0.013752465 -0.1406609 -0.11453016
000090 26 0f 57 be 87 6f 8e be 47 1e 85 3e 7d 5d 79 3d
       -0.21001872 -0.27819464 0.25999662 0.060880173
0000a0 f1 36 19 be fb fb b1 be 88 bd b1 be c5 be ae be
       -0.14962365 -0.34762558 -0.34714913 -0.3412992
0000b0 7d 1f 87 be 2b db 4c 3d be 0f a9 ba 67 00 ec be
       -0.2639121 0.050013702 -0.0012898368 -0.46094057
0000c0 c1 89 7f bc 54 13 c2 bd 0d 60 29 3e 91 82 92 3d
       -0.015596808 -0.09476343 0.16540547 0.0715381
0000d0 26 20 9c be 10 2f b8 bc 8d 22 75 be 96 1e 13 3e
       -0.30493277 -0.022483379 -0.23938961 0.14367136
0000e0 dd 6c ab bd ba 95 08 bf 30 08 8d be 0e ff b6 be
       -0.083703734 -0.53353465 -0.2754531 -0.35741466
0000f0 42 e9 c4 bd 94 c9 85 be 3e e6 1f 3e 8c d9 34 3d
       -0.09614803 -0.26130354 0.15615174 0.04415278
000100 54 ae ae bd 8b ee ac be f7 8d ad bc eb d0 93 3e
       -0.08529344 -0.33775744 -0.021185858 0.2887033
000110 f2 09 09 3e bc c3 43 be 48 c2 a1 be 26 4c 24 3e
       0.133827 -0.19117635 -0.31593537 0.16044673
000120 86 6d 83 3e d3 4a ca 3d ba 64 f9 bd 04 af 1f 3e
       0.25669497 0.09877553 -0.12177415 0.15594107
000130 79 12 bd be 8c 16 f2 bd d1 e1 8a bc ee 56 3a be
       -0.36928156 -0.11820707 -0.01695338 -0.18197224
000140 86 67 f1 3c 87 0a 90 3c 8e e4 3e 3d df 2f 8a be
       0.02946831 0.017583145 0.046604685 -0.26989648
000150 d8 f4 ae be 42 eb 73 be fe 17 81 be 4f 96 7a 3d
       -0.34171176 -0.23820212 -0.25213617 0.0611785
000160 3d 96 50 3e 1f 9e c4 bd 1c 9a 24 3c 0d e6 b0 bc
       0.20369811 -0.09600472 0.010046508 -0.021594072
000170 39 b9 80 be 3b ce 33 3e 2e 5c 20 be ce 1d a1 3d
       -0.25141314 0.1755914 -0.15660164 0.07867013
000180 13 d4 f2 3d 3b 51 57 be ac bd 54 3e c3 2c e8 bb
       0.11856856 -0.2102708 0.20775479 -0.007085414
000190 98 30 80 be 2d ef b0 bd c5 20 4a 3c dd b5 e3 bd
       -0.25037074 -0.08639369 0.012336914 -0.11118672
0001a0 fa ae 48 bd d3 d4 89 bd be 30 15 be ec b0 94 bd
       -0.048994996 -0.06730046 -0.14569375 -0.07260308
0001b0 02 79 7c bd f0 80 b9 be c9 b8 64 be 6d 98 82 3d
       -0.06163884 -0.36231184 -0.22336115 0.06376729
0001c0 8d a8 0e bc 53 d4 00 3c f8 f4 61 be 54 a0 0f 3e
       -0.008707178 0.007863122 -0.22066104 0.14026004
0001d0 74 03 a8 be a8 7d 0f 3e 79 37 46 3b 5f 39 80 be
       -0.32815135 0.14012778 0.0030245467 -0.2504377
0001e0 4e c6 91 bc c7 f2 86 be 1c 46 26 be 82 a0 e0 3c
       -0.017794754 -0.263571 -0.16237682 0.027420286
0001f0 d6 43 3f be bd c9 07 bd 79 fb 8b 3c 3f e4 89 3d
       -0.18678221 -0.033151377 0.017087685 0.067329876
000200 ec 7d 17 be 88 1b 8f be 2c 45 92 be d0 2b 0c be
       -0.14794129 -0.27950692 -0.285684 -0.13688588
000210 bb 3f 46 be 0e d5 8e be 9a 27 4a be e3 4e ef 3d
       -0.19360249 -0.27896923 -0.1974167 0.11684968
000220 84 bc db bd a8 7a a4 be b2 2f 18 be 61 73 34 be
       -0.10729316 -0.3212483 -0.14861944 -0.17622139
000230 11 94 9d 3c 5f cd 90 bb 26 4b 42 3c c8 df 08 be
       0.019235643 -0.0044190134 0.011858737 -0.13366616
000240 86 4a 6a bd f9 25 cd bc ac e4 97 bc 28 02 0c 3e
       -0.057199977 -0.02504252 -0.018541656 0.13672698
000250 15 53 6e be 99 a8 39 3c 2b 91 09 bf 79 6d 41 bc
       -0.23273881 0.011331701 -0.53737134 -0.0118058855
000260 3a dc 41 be a5 63 a9 be a0 69 6d 3d ff 7c 81 be
       -0.18931666 -0.33083835 0.05796206 -0.25290677
000270 24 b3 7e be 77 a9 a0 3d 71 65 54 be 40 61 fa 3d
       -0.24873024 0.07844823 -0.20741822 0.1222558
000280 8e ba 3f bc 9f 7f e5 bd 37 4d 33 be 88 3a 63 be
       -0.011702193 -0.112059824 -0.17509924 -0.22190297
000290 04 57 8e be 60 f7 96 be 31 a1 5b be c1 0a f8 bd
       -0.27800763 -0.29485607 -0.21448208 -0.12111426
0002a0 9a 74 a5 be 08 ba 87 be 16 5c 0c be ce 40 ee bd
       -0.32315522 -0.26509118 -0.13707003 -0.11633454
0002b0 d1 8e 8d be cd 1c 90 bc e4 97 74 3e 9e a8 aa bd
       -0.27648023 -0.017591858 0.23886067 -0.083329424
0002c0 6d 57 a2 3d 38 cf b8 be 1e 15 1b be b4 60 ed bd
       0.079268314 -0.36095595 -0.15144774 -0.1159071
0002d0 fc b1 1b be e1 33 0d be d2 65 8d 3e 3d bc 87 3a
       -0.15204614 -0.13789321 0.27616745 0.0010355782
0002e0 7c f6 a2 be 5d 48 d3 bd 2a c6 28 3e c6 5c 09 be
       -0.31828678 -0.103165366 0.16481844 -0.13414297
0002f0 26 aa dc bd 71 ef bc be 5f 48 00 be 06 7b 84 be
       -0.10774641 -0.3690143 -0.12527607 -0.2587511
000300 95 f1 4a 3e 92 f6 b6 be 61 47 a7 be 20 5d e0 be
       0.19818719 -0.35734993 -0.32671645 -0.4382105
000310 5c db 42 bd 3d bf 32 3d 71 51 89 bd b0 39 dc be
       -0.04757248 0.04363941 -0.06704987 -0.43012762
000320 c0 b4 b5 bd 35 59 b2 be 74 77 41 3e 30 fa 84 bd
       -0.08872366 -0.34833685 0.18893224 -0.06493032
000330 36 d0 81 3c 73 e5 b2 be 63 83 90 bc 16 a3 c5 bd
       0.015846353 -0.3494068 -0.017640775 -0.09650247
000340 cc e5 1d bf 8d ae 5a be 25 57 b5 be 03 99 50 be
       -0.6167877 -0.21355648 -0.35418049 -0.2037087
000350 2a 38 d4 3d 66 98 9e be 52 27 08 be be d6 0c 3e
       0.10362275 -0.30975646 -0.1329625 0.13753793
000360 ee ca 8c be 4a 90 4e be a4 50 bb bd 55 7e c5 bd
       -0.27498573 -0.2017223 -0.0914624 -0.096432365
000370 66 e4 ea bd e0 37 d5 be 82 07 e3 be 72 54 e1 bd
       -0.11469345 -0.41644192 -0.44341666 -0.11002435
000380 73 75 78 bd f8 cd bc 3d 6c fa 49 3c fe b5 d2 be
       -0.060658883 0.09218973 0.012327772 -0.41154474
000390 5d c7 d5 be 7e d3 61 3e bf de 98 be 04 be 42 be
       -0.41753665 0.22053334 -0.29857442 -0.19017798
0003a0 48 30 a2 3d 22 aa 8d bc 15 40 8f 3e f7 4c 57 be
       0.07919365 -0.01729304 0.27978578 -0.21025454
0003b0 56 ef 5f bd d7 44 1b bd 2c b7 85 bd 82 e1 fc 3d
       -0.054671608 -0.037907448 -0.06529078 0.123477
0003c0 3a 4d 43 bc fc 77 8d be 44 7d 3d bd 4b b1 69 be
       -0.011920268 -0.27630603 -0.04626204 -0.22821538
0003d0 cb 04 2d bd 3b 24 43 be 02 36 07 3e e5 f1 04 3e
       -0.0422409 -0.1905679 0.13204196 0.129829
0003e0 e7 f8 91 be 34 02 68 be 76 59 37 3d 06 3e ad be
       -0.2851021 -0.2265709 0.04476305 -0.33836383
0003f0 77 50 bc be 7c 16 b1 bc dd 59 53 3e 8a 20 af be
       -0.3678014 -0.021617167 0.20639749 -0.34204513

fc2.weight f4 [256, 256]
000000 73 f3 3c be 7d 87 34 be 50 09 e8 be 3f 52 01 be
       -0.18452244 -0.1762981 -0.45319605 -0.1262903
000010 a1 b2 ca 3d 97 0a 85 3d e6 a9 46 be 80 ad d7 bb
       0.09897352 0.064961605 -0.19400749 -0.006581962
000020 45 7b 08 3e 49 28 47 3e d3 7b 6f 3d f3 fd 69 bf
       0.13328274 0.19448961 0.058467697 -0.9140312
000030 1e e4 7b bd 57 f9 ec 3d 84 14 20 3e 6c 0a 7e bc
       -0.061496846 0.11570995 0.15632826 -0.015505414
000040 f5 72 7f be 5d 15 41 be 24 40 99 be e9 0a 58 bc
       -0.24946196 -0.18855806 -0.29931748 -0.013186195
000050 02 69 b5 be 19 87 3a 3d 4c 15 a0 bd 84 f9 8e 3c
       -0.35431677 0.045538995 -0.07816562 0.017452963
000060 00 b4 b6 3e d0 3b 97 3d 78 73 b2 3d 92 a1 8d bc
       0.35684204 0.07384455 0.0871343 -0.017288957
000070 ad e6 51 3e 33 58 38 3c a6 cc 24 be e9 e4 60 3d
       0.20498152 0.011251497 -0.16093692 0.054905806
000080 16 11 ca be 51 df d0 3d e4 8c 52 be 5a 6d 08 bf
       -0.3946616 0.10198844 -0.20561558 -0.5329186
000090 5b 60 e6 3d a4 b1 80 3d 8d ad 04 3e fc 78 6e be
       0.11248847 0.06283882 0.1295683 -0.2328834
0000a0 17 7c 1c 3e 69 f2 4b bd 4d fa d0 bd ce 92 0c be
       0.15281712 -0.049791727 -0.10203991 -0.13727877
0000b0 a6 0b 41 3e 85 32 35 be d0 a4 cd bd 49 34 6f bd
       0.188521 -0.17695053 -0.10041201 -0.058399472
0000c0 37 df 9e 3d 4e b3 1e 3e 78 ac 72 bd d3 a4 23 bd
       0.077574186 0.15498087 -0.05924651 -0.03995211
0000d0 d6 d6 29 be 36 e5 12 3e 5e 84 5c 3e a2 f5 93 ba
       -0.1658586 0.1434525 0.21534869 -0.0011288414
0000e0 6f 2d d1 be 3e 3d d2 bd 3a f6 e0 bc 07 0b 10 bd
       -0.40854976 -0.10265587 -0.02746116 -0.035166766
0000f0 1d ef ea 3d 86 19 e1 3d 17 bd 95 3d ef 2d 18 3e
       0.114713885 0.10991196 0.07311457 0.14861272
000100 6b df b4 bc 1d 92 37 3d 5d 45 e6 bc ef ff 19 be
       -0.02207919 0.04481708 -0.028109247 -0.15039037
000110 69 85 e9 bd 41 37 21 3e a6 1c 0e be 4b 68 7c 3c
       -0.11402399 0.15743734 -0.13878116 0.015405725
000120 eb ec b5 bd ef 19 43 be d8 be 98 bd 13 57 21 be
       -0.08883079 -0.19052862 -0.074582756 -0.15755872
000130 27 81 8d bd 61 ee fe bd 64 5d 8a be df f6 f1 be
       -0.069093995 -0.12447811 -0.27024376 -0.4725866
000140 d2 16 e4 3d f8 8e 92 3d 1e 12 68 bc f7 6a a8 3b
       0.11137165 0.071561754 -0.014164476 0.0051397043
000150 1e c1 fa 3c d3 12 2b 3d c9 3f bd 3b a0 c7 1e 3e
       0.030609664 0.041766 0.005775426 0.15505838
000160 31 3a 41 bc 09 f7 fc bd a5 c8 3f 3d fd 55 23 3d
       -0.011793659 -0.12351806 0.04682221 0.039876927
000170 de 1f 2a 3c 9d f5 44 be d1 20 bd 3d 20 d4 3a be
       0.010383574 -0.19234319 0.09234775 -0.18244982
000180 40 11 e9 bb 04 0c 92 3e f8 74 48 bc 24 b6 83 3e
       -0.007112652 0.28524792 -0.012234919 0.257249
000190 30 b6 de 3d 4a d8 10 be 93 61 70 3d 7e 0a 93 bc
       0.10874593 -0.14145008 0.058686804 -0.017949339
0001a0 e9 70 5b 3e 01 f6 1e bf 0a 90 43 bf 89 08 45 bd
       0.2142979 -0.6209412 -0.7639166 -0.048103843
0001b0 34 a0 0d 3d b8 77 d2 bd 76 21 7e 3d 87 32 40 bd
       0.03457661 -0.10276741 0.06204363 -0.046923187
0001c0 b6 3f 4d bd 3d 53 0d bd b6 32 91 3c 0e 7d 5f be
       -0.050109588 -0.03450321 0.017724376 -0.21825048
0001d0 36 5a de be 81 54 29 bf fd 93 79 3e 13 b6 b2 3d
       -0.434282 -0.6614457 0.2437286 0.08726134
0001e0 1c 04 2b 3e f7 1c 83 bd a7 61 16 3c 64 42 77 bf
       0.16700786 -0.06402009 0.009178556 -0.9658568
0001f0 a4 4e 00 bf 9f 2d 79 be 68 9a 2c 3d dc bb f5 3d
       -0.50119996 -0.2433381 0.04213944 0.11998722
000200 78 e6 59 bc 21 b8 c9 3e 74 8b 67 be 58 d0 89 3d
       -0.013299577 0.39398292 -0.22611791 0.067291915
000210 0a c5 00 3e cd 42 6f be 67 13 ea 3e 09 ae 88 be
       0.12575164 -0.23365326 0.45717928 -0.26695278
000220 d9 f0 9d be e3 0c 3a bd cd 19 c4 3c ab f9 82 be
       -0.30847815 -0.045422446 0.023938084 -0.25581107
000230 c9 10 93 3d a1 f7 b4 3c 42 77 4c 3d 10 e7 81 3d
       0.07180936 0.022090735 0.04991842 0.063429
000240 86 15 43 bf ec ff d6 3e 6d 75 b3 3e b8 f8 7a 3d
       -0.7620472 0.41992128 0.35050526 0.061272353
000250 f9 88 af be c4 e9 2e 3d eb b2 0d bf 10 f0 4d be
       -0.3428419 0.042703405 -0.5535113 -0.20111108
000260 b4 c0 5a bf d8 79 b6 be c7 4c 93 be 9e a2 02 3e
       -0.8545029 -0.35639834 -0.28769514 0.12757346
000270 0b aa 7c 3e 01 f3 6d bc a1 f3 b1 3c d4 c0 a7 bd
       0.24674241 -0.014523269 0.021722617 -0.08191076
000280 0d f3 41 3d 4c 09 8b bf f6 61 3e bd c1 d2 3d bf
       0.047350932 -1.0862212 -0.04648014 -0.7414971
000290 7d 2b 31 3d 09 cd 7a 3d 33 08 81 3e ac eb 8b bd
       0.043254364 0.061230693 0.25201568 -0.0683206
0002a0 68 f7 04 be ec 8b dc bf 4d c7 5c be 93 b4 fc 3b
       -0.12985003 -1.7230201 -0.21560402 0.007711956
0002b0 c2 c6 26 3e 39 f2 e0 3d 94 56 3a be a3 d9 c6 bd
       0.16286758 0.109837 -0.1819709 -0.0970948
0002c0 72 7f 9c bd d1 20 18 bf da 61 86 be b7 03 bb bf
       -0.07641496 -0.59425074 -0.2624653 -1.4610509
0002d0 88 b5 f0 bd bb 60 e7 bc b8 19 c8 bc 14 9a 5a bc
       -0.11753374 -0.028244367 -0.024426326 -0.013342399
0002e0 ec a9 7f be d9 12 9f 3e 67 31 33 be 70 3c b9 bc
       -0.24967164 0.31069067 -0.17499314 -0.022611827
0002f0 8d df 08 3e 8a 84 49 3e 27 42 6d be 5f d5 a1 bd
       0.13366528 0.19679466 -0.23169766 -0.079020254
000300 cb bd 5e 3e bc 20 74 3b 22 2b e2 3d 0c 37 f6 3d
       0.21752088 0.0037250957 0.11043383 0.12022218
000310 d0 65 87 3d a1 dc 10 3d 83 e6 37 be b7 dc ae be
       0.06611216 0.035366658 -0.17959027 -0.34152767
000320 f5 c0 83 3d c2 41 13 bd cb 4c 2f bc e0 7b 45 be
       0.06433288 -0.035951383 -0.010699461 -0.19285536
000330 e4 fe 54 3d 3c ee 57 be 19 6d 08 3e e3 20 fd 3d
       0.052000895 -0.21086973 0.13322867 0.12359788
000340 b7 c6 04 3e c1 0e 6c 3d 2d 54 6d bf 7a aa 5c bd
       0.12966429 0.057631258 -0.9270657 -0.053873517
000350 cb 97 2e 3e 76 1e d1 bd f7 df 76 bd 1b bd 3d bd
       0.17050092 -0.10210888 -0.060272183 -0.046322923
000360 5b 55 19 3e 7d c1 76 3d 81 94 cb bd d9 15 c2 3d
       0.14973967 0.06024312 -0.09940434 0.09476823
000370 bb 67 97 3d 7a 85 9f 3e 76 72 4c be 5c 4c 92 3b
       0.07392832 0.31156522 -0.19965538 0.004464669
000380 d5 dc b1 bd a1 ae 49 bd 59 f5 c8 bd 3d 3d a5 3e
       -0.086846985 -0.049238805 -0.09812421 0.32273284
000390 8c 08 f6 be 73 c5 c8 3d 65 ae 86 bd c9 d1 a1 c0
       -0.48053396 0.098032854 -0.06576232 -5.0568585
0003a0 ed d5 e7 3d 9a c9 5d 3e 0f 0b 68 3e 62 ed 5a 3e
       0.113201 0.21658936 0.22660469 0.21379617
0003b0 87 af 0f be 98 e1 8e be ab 09 b3 3c 52 b6 ac 3c
       -0.14031802 -0.2790649 0.021855196 0.02108303
0003c0 56 ec 80 be 4d 2e d8 3d 31 d9 9a 3d 88 20 85 bd
       -0.2518031 0.10555706 0.07560957 -0.065003455
0003d0 1a 1c cf 3d a1 8d e6 bf a2 7d 1d 3d d1 c4 08 3c
       0.10112782 -1.8011972 0.03844989 0.008347706
0003e0 60 10 cb be c8 c5 a3 3e d0 c1 2b 3c a2 67 62 bf
       -0.3966093 0.31986833 0.01048322 -0.8843938
0003f0 f7 d3 0e be da 44 f9 3d 75 4d bb be 6c 80 64 bd
       -0.13948046 0.121713355 -0.36582533 -0.055786535

fc2.bias f4 [256]
000000 e7 c9 05 3c 18 4b 06 be 28 00 6f be b1 39 4b 3d
       0.008165813 -0.13114583 -0.23339903 0.049615566
000010 2e 9d 9d bc 8e 4c c4 bd c5 e0 89 3c 8c f7 07 bd
       -0.019239988 -0.09584914 0.016830811 -0.033195063
000020 e9 12 2c bd e0 a5 74 bd 3b 88 3f be 09 e3 0f be
       -0.04201022 -0.059728503 -0.18704312 -0.14051451
000030 7c 9b 8a 3d a2 6c 4a be 54 12 81 be 84 51 c0 3d
       0.067679375 -0.19768003 -0.25209296 0.09390548
000040 b3 0f ff bd 12 ca a8 bd 6f 4b 5f bd 2e 26 91 bc
       -0.12454166 -0.08241667 -0.0545153 -0.0177184
000050 f1 6b 46 bd 50 87 45 bd b4 7f 33 be 0a cf e1 be
       -0.048442785 -0.048224747 -0.17529184 -0.4410327
000060 ac 2b 35 3d 1f a4 36 be 39 11 9c bd 19 98 84 bb
       0.044231102 -0.17836045 -0.076204725 -0.0040464518
000070 0b 64 5e 3d b6 11 b9 bd 4c d8 8d bc d3 c3 01 be
       0.054294627 -0.09036581 -0.017315052 -0.12672357
000080 97 13 2d 3e f0 95 55 bb 4e a0 42 3c b3 f1 c5 bd
       0.16902004 -0.003259059 0.01187904 -0.09665241
000090 71 2b 78 bd 94 c2 5a bc 95 ed 79 3d 31 f3 4b 3d
       -0.060588304 -0.013352055 0.06101759 0.049792472
0000a0 46 ea 5d be 5e 4f 72 bd 8c c3 7c be 1a 34 c6 bc
       -0.216714 -0.05915772 -0.2468397 -0.024194766
0000b0 dc aa ee bc 9d a2 7f be 47 bc 16 be ea df 92 bd
       -0.029134206 -0.24964376 -0.1472026 -0.071716145
0000c0 64 64 58 3c 74 a2 f0 bc e0 fb 1d 3e 83 1c e4 bc
       0.013207529 -0.029374339 0.15428114 -0.027845627
0000d0 33 ca 94 3d 44 0f 02 be 1b ad ef be 1b 18 46 bd
       0.07265129 -0.12701136 -0.46811756 -0.048362833
0000e0 80 35 26 bd ac fa 54 be 8d 9d e0 bd c1 36 43 3d
       -0.040578365 -0.20798749 -0.109675504 0.04765964
0000f0 2b f3 9c bd 21 77 97 bd 21 e1 be bd aa 13 0d be
       -0.07663568 -0.07395769 -0.09320284 -0.13777032
000100 fc 7d 5c 3d f5 7f 80 bc c5 ab b0 bd 3b 07 9e 3d
       0.053831086 -0.015686015 -0.086265124 0.07716223
000110 2f 93 5e bd 0c 6d 3c bc a1 db 78 3c e9 1c 54 bd
       -0.054339584 -0.011500608 0.015189082 -0.051785383
000120 7e 27 ab bd 75 96 92 bd f7 bc f3 bd a9 e5 e9 bd
       -0.08357142 -0.07157604 -0.119012766 -0.11420757
000130 0c 2b 49 be 67 d3 9f bd 71 33 fd 3d 1d 11 4c 3e
       -0.19645327 -0.07803994 0.12363327 0.19928403
000140 6e a1 91 3c 70 ee 3c ba 77 28 c1 bc 91 b6 1b bc
       0.017777171 -0.0007207161 -0.023578865 -0.009503976
000150 a5 23 58 3d 0c 6f 7c bb 8a 45 18 be 06 d8 35 bd
       0.05276837 -0.0038518338 -0.14870277 -0.04439547
000160 99 21 0c be 79 41 96 bd f6 ac 78 3c 8f 9a bf bb
       -0.13684691 -0.07336707 0.015177956 -0.0058472822
000170 2b 7b 1a 3d 59 66 10 3e dc e5 42 be 33 cf ab bd
       0.03771512 0.14101543 -0.19032997 -0.083891295
000180 70 fa 3b be 68 25 69 3d 32 71 b5 bd e2 e8 1e bd
       -0.18357253 0.05692044 -0.08859481 -0.038796313
000190 a4 43 73 bc bb 88 65 bd ef a4 41 3d f5 34 07 3d
       -0.01484767 -0.0560386 0.047276434 0.033009488
0001a0 d8 4a 95 3d ce a5 80 bc 26 d8 83 bd 6a ac c2 be
       0.07289666 -0.015704062 -0.064377114 -0.38022166
0001b0 b3 59 dd bd 07 be 79 bd ad 64 60 be 72 c8 97 bd
       -0.108081244 -0.06097224 -0.21913405 -0.07411279
0001c0 f5 64 6b be 57 7a 44 bd fb 54 79 bd 29 b0 3c bd
       -0.22987731 -0.047968235 -0.06087206 -0.046066437
0001d0 91 3a 53 be 3e 36 9e bd 91 77 95 3e dd ca c3 bd
       -0.2062781 -0.077251896 0.29192784 -0.095601775
0001e0 93 40 69 3d 12 91 b5 bd a9 d7 a4 bd 66 ef 11 be
       0.05694635 -0.088655606 -0.080489464 -0.1425148
0001f0 77 d4 c7 bd d1 86 ae bd c0 4f 9f bd 45 9a 12 bc
       -0.09757321 -0.08521808 -0.07778883 -0.008947914
000200 c2 79 d0 3c 0c 8e 9a bd e6 d2 72 3d ed ff ed bd
       0.025448684 -0.075466245 0.05928316 -0.116210796
000210 52 6a 71 bd 22 4b 0d be f7 ca fc bc fe 65 56 bd
       -0.058939286 -0.13798192 -0.0308585 -0.05234336
000220 c0 d1 47 bd ce 5d 29 bd 72 67 c0 bd d9 10 0f be
       -0.048784018 -0.041349225 -0.09394731 -0.1397127
000230 5e 00 e5 bd d1 0c 61 3c 42 19 a2 3d 45 49 37 3c
       -0.11181711 0.013735966 0.07914974 0.011186902
000240 e0 8a 3e bd 19 90 1d bc 95 da a1 3d cc fb c3 bd
       -0.04651916 -0.009616875 0.07903019 -0.09569511
000250 ae 31 59 bd 7a 32 a4 3c a8 bd 64 bd 25 25 6e be
       -0.053025894 0.0200436 -0.055844933 -0.23256357
000260 13 d6 4b bc f4 5b 36 bd d5 d6 a1 be 3e 15 a2 bd
       -0.012441176 -0.044521287 -0.31609216 -0.07914208
000270 52 16 27 3d 7d 04 65 3b c2 81 58 bd 92 8b 59 bd
       0.04079277 0.0034945302 -0.05285812 -0.05311162
000280 7a 6b 26 3d 2c f0 69 3d af 7d 6c bd c9 6b 61 3d
       0.04062984 0.05711381 -0.05773705 0.055034433
000290 9c 0a 6b be 9f 00 97 bd 77 ed 46 bd 70 81 1b be
       -0.22953266 -0.07373165 -0.048566308 -0.15186095
0002a0 a8 07 55 be 4a 82 cd be fd 85 06 be 9e 8b 82 3d
       -0.20803702 -0.40138465 -0.1313705 0.06374286
0002b0 64 3e 2b bd ac b3 b8 bd 22 a9 ab bd a5 77 01 bd
       -0.041807547 -0.09018645 -0.08381869 -0.031608243
0002c0 4d 54 46 bd 6a 71 45 bd 98 a8 08 3e 7f 39 4d be
       -0.04842024 -0.048203863 0.13345563 -0.20041464
0002d0 98 9f 1a be 1d fe af bd 12 76 b7 bd 07 83 26 bd
       -0.15099943 -0.0859339 -0.08958067 -0.0406523
0002e0 7c b7 a4 be 1b 44 86 bd c1 79 7f bd da e4 a8 be
       -0.32171237 -0.06555959 -0.062371973 -0.329871
0002f0 91 96 f5 bc d1 f9 68 be 51 ab 06 3e 0b 4d 0f be
       -0.029979022 -0.22751547 0.1315129 -0.13994233
000300 61 38 81 3d 97 99 ef 3a 8a a1 6e bc e4 d8 2a be
       0.063095815 0.0018280026 -0.014564881 -0.166843
000310 66 d2 fb bd d0 ab 00 3e 09 01 a1 bc 81 d4 9a 3d
       -0.1229599 0.12565541 -0.019653814 0.07560063
000320 7c aa 93 bd ec 98 8d 3d 7f 15 39 bd 39 e9 55 3d
       -0.07210252 0.06913933 -0.045186516 0.05222437
000330 35 78 05 be a2 bb ec 3b b6 0a 8e bd 3c 22 44 be
       -0.13034137 0.007224516 -0.06935637 -0.19153684
000340 8d 54 0e be 7d 7d 00 be fb b2 bc 3d 80 a7 f4 3d
       -0.13899441 -0.1254787 0.09213825 0.119460106
000350 82 a6 63 be 1d 4e 0b bc 6d e7 a7 bd 7d ba 2b bd
       -0.22231486 -0.00850251 -0.08198438 -0.041925896
000360 f7 83 eb 3c f9 9d cf bc 48 30 f4 3d eb 21 85 be
       0.02874945 -0.025343882 0.119232714 -0.2600244
000370 ea 4f 4a be 2a 09 46 bd b5 44 f8 bd 8d ec d9 bd
       -0.19757047 -0.048348583 -0.1212248 -0.106408216
000380 3b 88 c2 bd d7 d0 d7 bd 97 a1 07 3c 6e 08 b7 bc
       -0.0949864 -0.1053788 0.008278272 -0.022342887
000390 6b 3c 4f bc 59 59 0e bd da fd 26 bd a4 a0 00 bf
       -0.012648682 -0.034753177 -0.040769435 -0.5024512
0003a0 2a 15 4b 3d bf 6b 17 be 43 f4 0c be c6 05 61 be
       0.04958073 -0.14787196 -0.13765053 -0.21974859
0003b0 02 cc 16 bd da 40 10 be 35 56 15 be 36 23 96 be
       -0.03681565 -0.14087239 -0.14583667 -0.2932374
0003c0 83 2c 81 3d 6c e0 75 bd 08 16 bd 3d e6 14 1c 3e
       0.06307318 -0.06002848 0.09232718 0.15242347
0003d0 8f 7d be bd f0 ad 59 bd c3 75 f0 bd 35 52 0c be
       -0.09301292 -0.053144395 -0.11741211 -0.13703234
0003e0 ed 30 22 bd 13 e1 3c bd 7a 5e b9 3b d9 f0 74 bd
       -0.03959744 -0.046113085 0.0056570144 -0.059800003
0003f0 74 e6 ef 3a 88 bc 93 bd f5 2e 79 bd af c1 d4 bd
       0.0018302933 -0.07213694 -0.060835797 -0.10388505

q.weight f4 [1, 256]
000000 e9 36 1d be 47 4c f0 3d c6 bb 43 3e 8b ad b9 3d
       -0.15352978 0.11733299 0.19114599 0.09066304
000010 98 95 28 b9 c3 a4 e9 3d 5d 38 15 3c 9e f4 f7 bb
       -0.00016077457 0.11408379 0.009107676 -0.0075670024
000020 4a d0 0a 3e c4 34 45 3d d2 67 0b be 50 7f 83 be
       0.13556018 0.048146024 -0.13613823 -0.2568307
000030 0f cd 1d 3d 9a 81 a0 bd 0e e8 88 bd 5a 0e 1a 3d
       0.038525637 -0.078372195 -0.06684886 0.037611343
000040 70 e2 a6 bd 87 15 53 bd bc 42 81 bc 90 87 5c 3e
       -0.08148658 -0.051534202 -0.015778892 0.21536088
000050 87 26 01 bc 28 ac 4f 3f 82 5a 58 bd f5 03 ff bd
       -0.007882721 0.81122065 -0.05282069 -0.124519266
000060 81 9d a0 3c 69 7e b9 bd fc 92 ad 3c 40 83 f2 3c
       0.019606354 -0.09057314 0.021188252 0.0296036
000070 61 fd 5f 3f 46 4f 1d 3e 88 2c db bd 65 2f 30 be
       0.87496 0.15362272 -0.10701853 -0.1720558
000080 46 b5 94 bd 74 1b 1c be a7 fd ac 3e fc f2 0e be
       -0.07261138 -0.15244848 0.3378727 -0.13959879
000090 0e 86 96 bc 36 9d 5a 3b 5c bb 1b 3f 33 2d a5 bd
       -0.01837447 0.0033357865 0.6083276 -0.08065262
0000a0 2f b5 e9 bd f0 86 9f 3d d0 1e 85 bd 38 c8 7b bd
       -0.11411511 0.07789409 -0.06500018 -0.06147024
0000b0 0e fe e4 3c 44 37 81 3d 5a c9 66 be 1b 0b 4c bc
       0.027953174 0.06309369 -0.22537747 -0.01245382
0000c0 79 c0 04 bd fb 79 0d 3e 6c 71 1a be f8 45 58 bc
       -0.03241012 0.13816063 -0.1508233 -0.013200276
0000d0 e9 80 22 be 1a 83 b9 3d ee d7 c5 bd 6e 5d 1f 3d
       -0.15869488 0.09058209 -0.09660326 0.03890746
0000e0 2e a9 d0 3e e5 b6 0c 3e a0 13 09 bd 0a 72 38 be
       0.40754074 0.13741644 -0.03346598 -0.18012252
0000f0 2c d9 53 3e 4a 9a 3f bd 31 00 8d 3e 00 47 f3 bd
       0.20688313 -0.046778 0.2753921 -0.118787766
000100 f2 89 fc 3e 27 10 37 3b a6 55 83 3c 00 2f 0a 3d
       0.49323994 0.0027933212 0.016032051 0.03373623
000110 43 05 c2 3e 6e 95 9e be 3d 3d 2e be c6 c5 8b 3c
       0.3789464 -0.3097338 -0.17015548 0.01706208
000120 98 f0 f2 bc 76 b0 92 bd 32 05 ed 3c 6f 64 1a 3b
       -0.02965574 -0.071625635 0.028933141 0.0023558398
000130 dc 7d 02 be 7c a9 03 3d 73 3a ad 3e 7c c8 9e bd
       -0.12743324 0.032144055 0.33833656 -0.07753083
000140 d0 ad af bc d5 65 ec 3c 32 da 8f bc 87 87 f6 3c
       -0.021445185 0.028857151 -0.017560098 0.030093921
000150 36 c1 a2 3d ac 07 92 bd 89 39 af bd 17 fd 88 bb
       0.07947008 -0.071303695 -0.08555896 -0.0041805613
000160 17 f6 8d 3d f3 bf 4f bb 23 48 20 3c 28 69 86 3d
       0.069317035 -0.0031700104 0.009782824 0.06563026
000170 76 64 13 3f d2 4b 0c 3e a3 fe b1 bd b0 00 4d 3b
       0.57575166 0.13700798 -0.08691146 0.0031280927
000180 f0 6b ad bc a3 97 b3 3d fa e3 28 bd 66 46 aa 3d
       -0.021169633 0.08769157 -0.04123304 0.08314209
000190 4c e8 2d be b0 88 23 be 98 b9 8d bd f5 3d 0c be
       -0.16983145 -0.15970111 -0.06920165 -0.1369551
0001a0 27 00 24 3f 8c 4c 33 be b0 7d ca bc b7 11 57 be
       0.6406273 -0.17509669 -0.024718136 -0.21002851
0001b0 37 f4 ac bd 3c 1e 23 bb 1d 3a 2b be b1 9b 0e 3b
       -0.08445018 -0.0024889847 -0.16721387 0.002176028
0001c0 68 11 9e bd 60 96 21 bd 18 d1 21 3d a1 fc 10 3c
       -0.07718164 -0.03945005 0.039506048 0.008849294
0001d0 ac 72 6e bd 2e cd 9e 3b b9 3d 24 3d 97 25 66 3d
       -0.05821483 0.0048462367 0.040097926 0.056188192
0001e0 19 8b 79 be ab 2a 91 3d 0e ea 16 3e 10 df 8d bd
       -0.24369468 0.070882164 0.14737722 -0.069273114
0001f0 a1 13 cc 3d 17 68 09 be c9 1c 19 bb 97 43 6e bd
       0.099646814 -0.13418613 -0.0023363105 -0.058169927
000200 86 4d fe 3d 8b a1 99 bd 73 cf fa 3c 59 db 42 3d
       0.1241713 -0.07501515 0.030616498 0.047572467
000210 d4 ec c4 bc d2 05 21 3d 17 af 19 3c 5c ce 22 bd
       -0.02403871 0.03931219 0.009380124 -0.03974758
000220 af fa 3a 3c 09 38 5d bd c5 ba 71 bd d3 5b af bd
       0.011412307 -0.054008517 -0.059016008 -0.08562436
000230 ce 06 68 bd 25 f7 0c 3e d6 0a 2a bd 3e 81 b0 be
       -0.056647114 0.13766153 -0.04151424 -0.34473604
000240 19 6c 11 3d 80 ed 21 bf 4f 79 45 3f 46 4f ff bd
       0.03550348 -0.6325302 0.7713823 -0.12466292
000250 09 24 e4 3c 3a f8 51 3e 49 08 69 bd 6a 60 84 3d
       0.027849214 0.20504847 -0.056892667 0.06463702
000260 1d 6e 16 bd a6 64 e6 bc 5d 0a 98 bd 3d 61 e4 bc
       -0.036726106 -0.028124165 -0.07423852 -0.027878398
000270 0e 7b 6e 3f 17 eb 92 3e f2 e6 da 3a 75 d3 75 3b
       0.93156517 0.28694984 0.0016700907 0.0037510071
000280 dc c8 51 3d 3d 0f 0b 3e 67 0c df 3c 98 6b 8e 3c
       0.051216945 0.13580032 0.027227594 0.01738529
000290 c4 9d cc 3d 91 37 a2 bd 8f 3e cf 3c 1a 75 9b 3e
       0.09991029 -0.07920755 0.025298385 0.3036278
0002a0 9c 9d 6b 3d 37 8e c2 bd 03 42 1f be b1 5e a7 3d
       0.057523355 -0.094997816 -0.15552525 0.08172358
0002b0 69 52 2d 3f 00 00 16 3c bd 73 82 3c fa 66 32 3d
       0.6770387 0.009155273 0.015924329 0.043555237
0002c0 92 1a 43 3b 07 b5 19 3d 1f 4c d2 bd e8 99 85 3d
       0.0029770476 0.037526157 -0.10268425 0.06523496
0002d0 06 00 19 bd 05 34 35 3d ba de 9a be 31 93 43 3f
       -0.037353538 0.044239063 -0.30248052 0.7639647
0002e0 69 f7 22 be 0f 4d d4 3d f5 a2 1f be c7 24 c1 bd
       -0.15914692 0.1036626 -0.15589507 -0.09430843
0002f0 85 3c af 3b 96 4e cb bd 46 59 92 bd 51 01 89 3e
       0.0053477907 -0.099270985 -0.07145934 0.26758817
000300 3e 06 db 3f 0d 57 50 be ad 2f b0 3f a2 2c 42 bd
       1.711128 -0.20345707 1.376455 -0.047405846
000310 57 58 ac 3d 2d 9f a3 3c 02 f7 9b 3b 1d 69 a9 bd
       0.08415287 0.019973362 0.0047596702 -0.08272002
000320 bc 25 6e be 6b 68 b2 bd 19 b6 fe 3c 8a f5 27 bd
       -0.23256582 -0.087113224 0.03109269 -0.04100565
000330 05 9b e4 3d 69 12 40 bc 09 f0 52 bc 9f 41 77 3d
       0.1116238 -0.011723139 -0.012874612 0.060365316
000340 21 3c 52 3d 5d 5f 99 bd 85 82 8e 3d 01 f8 4d 3d
       0.051326875 -0.07488892 0.069584884 0.050285343
000350 a2 2c a2 bd 50 36 f1 3b 80 33 82 3a c1 d3 df bc
       -0.07918669 0.007361211 0.0009933561 -0.027322652
000360 59 e3 0e be 14 df 27 bc 36 96 8c 3e 55 fd 0a bd
       -0.13953914 -0.010246057 0.27458352 -0.033933003
000370 84 14 40 be c4 82 f2 3c 21 c4 38 3d b3 ae 22 bd
       -0.18757826 0.02960337 0.045108918 -0.039717387
000380 ed d2 84 ba aa 9e d8 bd 76 65 da bb 3d c8 df bb
       -0.0010133662 -0.10577138 -0.006664927 -0.00682929
000390 4f 65 29 bd 49 58 0a 3d 03 78 b7 bc 6c dd e5 bd
       -0.04135638 0.0337756 -0.022396093 -0.112238735
0003a0 86 94 bc 3e 04 0e 85 bd 0e 09 8e bd 0f a2 75 3d
       0.36832064 -0.06496814 -0.06935321 0.059969004
0003b0 28 91 9e bb 42 03 08 bf 63 e6 74 be e9 db 87 bd
       -0.0048390813 -0.5312997 -0.2391601 -0.066337414
0003c0 c6 bc 65 be 3a ef 1b bd c8 aa c6 bd bb fe d6 3c
       -0.22435293 -0.03806994 -0.09700543 0.026244512
0003d0 8f ab 03 b8 9c c2 01 3c bc ef c6 3d 14 4b 4e 3e
       -3.139261e-05 0.007919934 0.097136945 0.20145828
0003e0 5a 01 52 bd 7d 98 a0 3c a5 fa 0a be 45 19 e3 39
       -0.05127082 0.019603962 -0.13572176 0.0004331564
0003f0 03 a6 de 3d 62 73 5d 3c 34 81 92 bc 3b a6 9f 3b
       0.10871508 0.013516279 -0.017883874 0.004872111
