ddpg/checkpoints/ddpg_traj_track/target_critic.pth (torch, 280196 bytes, 5 tensors)

fc1.weight f4 [256, 12]
0	0xbf05e141	-0.52296835
1	0xbe0cb642	-0.13741401
2	0xbe41aa22	-0.18912557
3	0x3e7e504c	0.24835318
4	0xbe01a769	-0.12661518
5	0x3ebfc133	0.37452087
6	0xbd14a143	-0.036286604
7	0xbfe64941	-1.7991105
8	0xbe93b974	-0.28852427
9	0xbe9f77c7	-0.3114607
10	0x3dc7fd8f	0.09765159
11	0x3ecaf45e	0.39639562
12	0xbe9de469	-0.30838326
13	0x3ee27cff	0.4423599
14	0x3a4910a6	0.00076700223
15	0x3dce51ca	0.10074194
16	0x3e38b9ea	0.1803967
17	0x3de1e18f	0.1102935
18	0xbf11c05f	-0.5693416
19	0x3f3279aa	0.69716895
20	0xbd3c7895	-0.046013433
21	0x3e8bc3fd	0.27297965
22	0x3ed2d0c1	0.41174892
23	0x3e19d955	0.15024312
24	0x3f16624e	0.5874375
25	0xbe604e19	-0.21904792
26	0x3efbd4d4	0.49185812
27	0xbde7926c	-0.11307225
28	0xbc42c024	-0.01188663
29	0x3d38a06a	0.045074858
30	0xbf406af2	-0.75163186
31	0x3f046a45	0.51724654
32	0x3da416ab	0.08012136
33	0x3da1daed	0.07903085
34	0x3ccec2e7	0.025239421
35	0x3dcc0ba8	0.09963161
36	0xbd720623	-0.059087884
37	0xbf00c24b	-0.5029647
38	0x3eaa28b5	0.33234182
39	0x3e48f2ed	0.19623919
40	0xbda8603b	-0.082214795
41	0xbd842bb6	-0.0645365
42	0x3de17082	0.11007787
43	0x3e1de67f	0.15419959
44	0xbf11992f	-0.56874365
45	0xbe336601	-0.1751938
46	0x3dda3cc3	0.10656121
47	0xbe3938b3	-0.18088035
48	0xbe1ee4da	-0.15516987
49	0xbf1a43be	-0.60259616
50	0x3ee8f6db	0.45500836
51	0x3b0a530d	0.002110663
52	0x3b43b4c4	0.0029862383
53	0xbd15207c	-0.036407933
54	0x3e24e3b7	0.16102491
55	0xbf8708a7	-1.0549515
56	0xbdd462d4	-0.103704125
57	0xbc276ab7	-0.010218314
58	0xbd06ac1d	-0.032878984
59	0x3b45c3df	0.0030176563
60	0x3e46bf21	0.19408847
61	0xbf1e3ed6	-0.6181463
62	0x3cc7ebab	0.024404367
63	0xbe4e38f9	-0.20138921
64	0xbe909e50	-0.28245783
65	0xbe32bd8b	-0.17455117
66	0x39f8c7c3	0.0004745108
67	0xbf374ae7	-0.71598667
68	0x3e0f7960	0.14011145
69	0xbe868b8d	-0.26278344
70	0x3cc3a516	0.02388243
71	0xbe950168	-0.29102635
72	0x3d3a36f7	0.045462575
73	0x3ce40cbc	0.027838103
74	0xbcafb235	-0.02144728
75	0x3de599dc	0.11210987
76	0xbe15e412	-0.14637783
77	0xbe3e86e2	-0.18606141
78	0x3ccd42ad	0.025056208
79	0x3fad8075	1.3554827
80	0x3e30cfbd	0.17266746
81	0xbe6763b7	-0.22596632
82	0x3e262c31	0.16227795
83	0x3e6f02b7	0.2334088
84	0x3eae94fd	0.34098044
85	0xbd9a026f	-0.075199954
86	0xbf71370c	-0.9422462
87	0x3bcc24c8	0.0062299706
88	0xbc8c8671	-0.01715395
89	0xbcddb7e4	-0.027065225
90	0xbf3c2b84	-0.735039
91	0x3f03469f	0.51279634
92	0x3ed6e3b8	0.4197061
93	0x3b685d98	0.0035456177
94	0xba88234e	-0.0010386498
95	0xbc89b5ac	-0.01681026
96	0x3ea8b35f	0.3294935
97	0x3c7767ea	0.015100459
98	0xbea43d26	-0.32077903
99	0x3e827121	0.25476936
100	0x3eaa15a6	0.3321964
101	0x3d01fe82	0.03173686
102	0xbef07bd1	-0.46969464
103	0xbe85d48e	-0.2613873
104	0xbebc79b1	-0.36811593
105	0xbe43b7e1	-0.19113113
106	0xbee6d378	-0.45083213
107	0xbd0e91d7	-0.034807052
108	0xbdb5e0d1	-0.08880771
109	0xbeec7bc8	-0.46188188
110	0x3cd84c88	0.02640368
111	0xbe3a9769	-0.18221821
112	0xbc594645	-0.0132613825
113	0x3edef9ab	0.43549857
114	0x3d495fa6	0.049163483
115	0x3e7f23af	0.24915956
116	0xbf502669	-0.8130861
117	0x3e8ed066	0.2789337
118	0xbda40c27	-0.080101304
119	0xbe7511c7	-0.23932563
120	0xbda3c54b	-0.07996615
121	0x3b8be0e2	0.0042687515
122	0x3c18be13	0.009322661
123	0x3e4908e5	0.19632299
124	0x3d49a4da	0.04922948
125	0xbbb8ce3b	-0.005639819
126	0xbd44d2b6	-0.048052512
127	0xc000d166	-2.0127807
128	0xbf30f45e	-0.69122875
129	0xbe530b30	-0.20609736
130	0xbddf2396	-0.10895459
131	0xbcb22aef	-0.021748988
132	0x3f50f949	0.8163038
133	0xbe93bfdb	-0.28857312
134	0xbe0305ef	-0.12795232
135	0xbc2f12cf	-0.010685637
136	0x3cd64e2a	0.026160318
137	0x3bb88783	0.0056313886
138	0xbefe95a9	-0.49723557
139	0x3f52bc90	0.82318974
140	0x3e8572a7	0.26064035
141	0x3cd52d1c	0.026022486
142	0x3bd189e0	0.00639461
143	0xbc7d5945	-0.015463178
144	0x3d2afc24	0.041744366
145	0xbf2bfb3b	-0.6718022
146	0xbe4f8c47	-0.20268355
147	0xbe88cb51	-0.26717618
148	0x3e1a5f2f	0.15075372
149	0xbdc1bb78	-0.09459585
150	0xbe1a1e19	-0.15050544
151	0xbfc0728e	-1.5034959
152	0x3e8165de	0.2527303
153	0x3e59835c	0.21241516
154	0xbd8974f3	-0.067117594
155	0xbe954775	-0.2915608
156	0xbd2f2933	-0.0427639
157	0xbed2fa12	-0.41206414
158	0xbeaf3643	-0.34221086
159	0x3dd34308	0.103155196
160	0xbe52ef07	-0.20598994
161	0x3df2abb2	0.118491545
162	0x3e1e24bf	0.15443705
163	0x3ec0ce3a	0.37657338
164	0x3cfe8f84	0.031074293
165	0x3e283614	0.16426879
166	0x3dc01777	0.093794756
167	0xbdc6a186	-0.09698777
168	0x3e4411c5	0.19147404
169	0x3d32a4d2	0.043614216
170	0x3ebeea21	0.37288
171	0x3ea14575	0.31498304
172	0x3d7b9932	0.061425395
173	0x3ef83d6b	0.48484358
174	0xbd91a766	-0.07112007
175	0xbf1ea30c	-0.6196754
176	0xbee98107	-0.45606253
177	0x3daa4b37	0.08315127
178	0xbe2a2719	-0.16616477
179	0x3c49a896	0.01230826
180	0x3eca3657	0.39494583
181	0x3f018564	0.5059416
182	0xbf8aa513	-1.0831627
183	0x3c490339	0.012268835
184	0x3d10a59b	0.035314184
185	0xbd7f28a2	-0.06229461
186	0xbe3ff0c1	-0.18744184
187	0xbed27254	-0.4110285
188	0x3e77c82c	0.24197453
189	0x3cc19050	0.023628384
190	0x3b6f5298	0.0036517736
191	0xbd3ba14c	-0.04580812
192	0x3ecf7db1	0.40525582
193	0xbf2317ba	-0.6370808
194	0xbe1dd969	-0.15414967
195	0x3e075120	0.1321454
196	0x3d219b57	0.039454784
197	0xbe9e3a13	-0.30903682
198	0xbe674fb9	-0.22589006
199	0xbcab950a	-0.02094509
200	0x3e5703d6	0.20997557
201	0xbe30ffa9	-0.17285027
202	0xbc0f4890	-0.008745328
203	0x3ee0cf6a	0.43908244
204	0xbed73a2b	-0.42036566
205	0xbcbb022a	-0.02282818
206	0x3ee6a364	0.45046532
207	0xbea886ae	-0.32915252
208	0x3e3e2228	0.18567717
209	0xbe7a6f67	-0.24456559
210	0xbe812321	-0.25222114
211	0x3f32628d	0.69681627
212	0x3cea6fc5	0.028617749
213	0xbecbc7c3	-0.39800844
214	0x3e92b68a	0.2865489
215	0xbe4d2f75	-0.20037635
216	0xbc9eef45	-0.019401202
217	0xbe649e32	-0.22325972
218	0xbe5af071	-0.21380784
219	0xbd308640	-0.04309678
220	0x3de836d0	0.1133858
221	0x3d18657e	0.037206165
222	0x3d49f07d	0.049301613
223	0xbe9c3848	-0.3051169
224	0x3e98d007	0.29846212
225	0xbd843162	-0.064547315
226	0xbe4dee28	-0.2011038
227	0x3d948464	0.07251814
228	0x3e9c220a	0.3049472
229	0x3e1548bc	0.14578527
230	0xbebdba2e	-0.37056106
231	0xbd5411b4	-0.051774696
232	0x3b67404b	0.0035286124
233	0x3c421cf0	0.01184772
234	0x3e152506	0.14564905
235	0xbfc0249c	-1.5011172
236	0xbe8469b0	-0.25861883
237	0xbe77441c	-0.24147075
238	0xbe5c8a6d	-0.2153718
239	0xbdc68754	-0.096937805
240	0xbeaa99b7	-0.333204
241	0x3e5b9569	0.21443714
242	0x3ec5d64b	0.38640055
243	0xbdee949d	-0.116494395
244	0xbd868354	-0.065680176
245	0x3de223b1	0.11041964
246	0xbec0d451	-0.37661985
247	0x40167250	2.350727
248	0x3edb68d8	0.42853427
249	0xbe2f431a	-0.17115441
250	0x3e255ef3	0.16149502
251	0xbdd293b0	-0.102820754
252	0xbd550284	-0.052004352
253	0x3e08b889	0.13351645
254	0xbd26d4e6	-0.04073038
255	0x3eb0108a	0.34387618

fc1.bias f4 [256]
0	0xbe3a5069	-0.18194737
1	0xbe53c35f	-0.20679997
2	0xbdb857a3	-0.090010904
3	0xbe1cebbd	-0.15324302
4	0x3d7acae3	0.061228644
5	0xbea20f3f	-0.31652257
6	0xbe955e70	-0.29173613
7	0x3ddb9e43	0.107235454
8	0xbe9b95f0	-0.3038783
9	0xbe20e614	-0.15712768
10	0x3e0710ca	0.13189998
11	0xbe792b87	-0.2433301
12	0xbdad0a19	-0.084491916
13	0xbe35215a	-0.17688504
14	0xbe8b401a	-0.27197343
15	0xbd835291	-0.06412233
16	0xbe9cd58d	-0.30631676
17	0xbeab8df4	-0.3350674
18	0xbe83b231	-0.25721887
19	0xbea2760f	-0.31730697
20	0xbe5c1093	-0.21490698
21	0xbe9b86d3	-0.303763
22	0x3e6f44a7	0.23366033
23	0xbe634335	-0.22193606
24	0xbec3264c	-0.38115156
25	0x3e4fde47	0.20299636
26	0x3db0535c	0.086096495
27	0xbebbcb47	-0.36678526
28	0xbd9e9aa3	-0.07744338
29	0xbce98983	-0.028507954
30	0x3e4f552a	0.20247331
31	0xbe0d4481	-0.13795663
32	0x3e815087	0.2525675
33	0xbc4151be	-0.011799274
34	0xbe0ea912	-0.13931683
35	0xbde2c6cd	-0.110730745
36	0xbe5439f5	-0.20725234
37	0xbe8dc6cf	-0.2769074
38	0x3e83ad9b	0.25718388
39	0x3d7b13d6	0.061298214
40	0xbe14fcf3	-0.14549617
41	0xbeb18c1b	-0.34677204
42	0xbeaeb6f5	-0.3412396
43	0xbeaf87b2	-0.34283215
44	0xbe861b05	-0.2619249
45	0x3d41052f	0.047124084
46	0xbb13982f	-0.0022521128
47	0xbeebd6fc	-0.46062458
48	0xbc66c0d6	-0.014084062
49	0xbdc83f78	-0.09777731
50	0x3e2afb49	0.1669742
51	0x3d8c6a05	0.06856159
52	0xbe996073	-0.29956397
53	0xbcb4fd39	-0.022093402
54	0xbe739767	-0.23788224
55	0x3e173022	0.14764455
56	0xbdac80a4	-0.08422974
57	0xbf08a6e1	-0.53379637
58	0xbe8ca773	-0.27471504
59	0xbeb8cc36	-0.360933
60	0xbdc69407	-0.09696203
61	0xbe85eb72	-0.26156193
62	0x3e1e636e	0.15467617
63	0x3d35a296	0.044344507
64	0xbda5b389	-0.08090884
65	0xbeac018c	-0.3359493
66	0xbc9acfb4	-0.018897869
67	0x3e936836	0.28790444
68	0x3e0e7006	0.13909921
69	0xbe4741af	-0.1945865
70	0xbe9fe74e	-0.3123116
71	0x3e22d49b	0.15901415
72	0x3e81606e	0.25268883
73	0x3dceeb12	0.1010343
74	0xbdf53f51	-0.11974967
75	0x3e1e2d7c	0.15447038
76	0xbebe7982	-0.37202078
77	0xbdfb2a66	-0.12263946
78	0xbc8cc712	-0.017184768
79	0xbe3b9623	-0.18318991
80	0x3cf658dc	0.030071668
81	0x3c9efed6	0.019408625
82	0x3d477938	0.048699588
83	0xbe860955	-0.26178995
84	0xbeaeb3a2	-0.34121424
85	0xbe7d2e27	-0.24724637
86	0xbe7f3e85	-0.24926193
87	0x3d8082d8	0.062749565
88	0x3e4f3655	0.2023557
89	0xbde0a3b3	-0.10968723
90	0x3bfcba63	0.0077126487
91	0xbcd74d32	-0.026281927
92	0xbe81534a	-0.25258857
93	0x3e358e10	0.17729974
94	0xbe21304a	-0.15741077
95	0x3d9d4c35	0.07680551
96	0x3df91562	0.121622816
97	0xbe58016b	-0.21094291
98	0x3e544514	0.20729476
99	0xbb9821ac	-0.004642686
100	0xbe7f3f84	-0.24926573
101	0xbdbcaa8b	-0.09212216
102	0x3c783d3a	0.015151316
103	0xbddb654b	-0.107126795
104	0xbd45bb2f	-0.048274215
105	0xbd82d779	-0.063887544
106	0xbe157599	-0.14595641
107	0xbd8de809	-0.06929023
108	0xbd71bfe9	-0.05902091
109	0xbeb7b6bf	-0.35881612
110	0xbe64af98	-0.22332609
111	0x3d7e2663	0.062048327
112	0xbc04872b	-0.008088867
113	0x3bcc6b28	0.00623836
114	0xbe66c3a1	-0.22535564
115	0x3e0f87ca	0.14016643
116	0xbeaadb9d	-0.33370677
117	0x3e155417	0.14582859
118	0x3ba38b44	0.004990967
119	0xbe818ed5	-0.25304285
120	0xbc80f6c3	-0.015742665
121	0xbe8709c3	-0.26374635
122	0xbe24de26	-0.16100368
123	0x3ce8ebf9	0.028432833
124	0xbe3e3507	-0.18574916
125	0xbcec5497	-0.02884893
126	0x3c4d192f	0.012518211
127	0x3d90c95b	0.070696555
128	0xbe16ea4d	-0.14737816
129	0xbe8e7cea	-0.27829677
130	0xbe90510c	-0.28186834
131	0xbe0cddf7	-0.13756548
132	0xbe47397d	-0.19455524
133	0xbe8fd7aa	-0.28094226
134	0xbe492f8d	-0.19647045
135	0x3de6d1f8	0.11270517
136	0xbdd4a924	-0.103838235
137	0xbea18a55	-0.3155085
138	0xbe101a59	-0.14072551
139	0xbe3796bb	-0.17928593
140	0x3c5835d7	0.01319643
141	0xbbca496f	-0.0061733047
142	0x3c8e0016	0.017334025
143	0xbe0847b5	-0.13308604
144	0xbd63fa5a	-0.055658676
145	0xbccba5a8	-0.024859264
146	0xbc756b47	-0.01497919
147	0x3e0a510a	0.13507476
148	0xbe69545b	-0.22786085
149	0x3c41befe	0.011825321
150	0xbf08a278	-0.5337291
151	0xbbc32a7a	-0.0059559913
152	0xbe4371b5	-0.19086345
153	0xbea7fcd8	-0.32810092
154	0x3d6296c4	0.055319563
155	0xbe79398e	-0.24338362
156	0xbe7ff724	-0.2499662
157	0x3d9baff6	0.07601921
158	0xbe4f3a24	-0.20237023
159	0x3df5eb1d	0.12007735
160	0xbc110512	-0.0088513065
161	0xbde10860	-0.109879255
162	0xbe3426e3	-0.17592959
163	0xbe615070	-0.2200334
164	0xbe906e14	-0.28208983
165	0xbe98b5d6	-0.2982623
166	0xbe59bc07	-0.21263133
167	0xbdf8b867	-0.12144547
168	0xbea3c4af	-0.31985995
169	0xbe87aca5	-0.26498905
170	0xbe0943ac	-0.13404721
171	0xbded7ac5	-0.11595682
172	0xbe8e13ff	-0.2774963
173	0xbc8b170b	-0.016978761
174	0x3e72306b	0.23651282
175	0xbdb30ca0	-0.087426424
176	0x3da70c34	0.081566244
177	0xbeb7e439	-0.35916308
178	0xbe16cc57	-0.14726387
179	0xbdf211b7	-0.11819785
180	0xbe1d9ffc	-0.1539306
181	0xbe10c91e	-0.1413922
182	0x3e8c8e94	0.27452528
183	0xbacc8126	-0.0015602454
184	0xbea41e0e	-0.3205418
185	0xbddb83b0	-0.10718477
186	0x3e29be5d	0.16576524
187	0xbe091852	-0.13388184
188	0xbde3c583	-0.11121657
189	0xbebcbf5b	-0.36864743
190	0xbe054410	-0.13014245
191	0xbe829b1e	-0.2550897
192	0x3e4a4e47	0.19756423
193	0xbeb5c6db	-0.35503277
194	0xbea830cf	-0.32849738
195	0xbee0b003	-0.43884286
196	0xbd3afcb3	-0.04565115
197	0x3d350117	0.044190492
198	0xbd87dd68	-0.06634027
199	0xbedb1aca	-0.42793876
200	0xbdb200af	-0.08691537
201	0xbeb378ac	-0.35053003
202	0x3e43c34c	0.19117469
203	0xbd7db8d4	-0.061943844
204	0x3c86e7dc	0.016467981
205	0xbeb355eb	-0.35026488
206	0xbca7b46d	-0.020471776
207	0xbdc64131	-0.09680403
208	0xbf1f37c4	-0.62194467
209	0xbe5b509f	-0.21417473
210	0xbeb5c5db	-0.35502514
211	0xbe4fbaa0	-0.20286036
212	0x3dcff5bd	0.10154293
213	0xbe9cef67	-0.306514
214	0xbe0a83bc	-0.13526815
215	0x3e0b188f	0.13583587
216	0xbe8e8ea7	-0.2784321
217	0xbe4e04df	-0.20119046
218	0xbdba8959	-0.09108228
219	0xbdc53711	-0.09629644
220	0xbdef4e39	-0.11684842
221	0xbed24a94	-0.41072524
222	0xbee21605	-0.44157425
223	0xbddb711d	-0.10714934
224	0xbd80b105	-0.06283764
225	0x3dbf0c69	0.09328539
226	0x3c13e1b9	0.009025984
227	0xbed1c53a	-0.40970784
228	0xbed55a40	-0.41670418
229	0x3e608ede	0.219295
230	0xbe98d6ea	-0.29851466
231	0xbe40ea7b	-0.18839447
232	0x3da3a8f2	0.07991208
233	0xbc871a27	-0.016491963
234	0x3e8e5cca	0.27805167
235	0xbe56a811	-0.2096255
236	0xbd604316	-0.054751478
237	0xbcf1e959	-0.029530214
238	0xbd887ddd	-0.066646315
239	0x3e03a643	0.12856393
240	0xbc593a7e	-0.0132585745
241	0xbe8d0286	-0.27540988
242	0xbd3dbf1f	-0.046324845
243	0xbe68679c	-0.22695774
244	0xbd2d5aa7	-0.04232278
245	0xbe41edcb	-0.18938367
246	0x3e072255	0.1319669
247	0x3e061c9d	0.13096853
248	0xbe90fb35	-0.28316656
249	0xbe66abb3	-0.22526436
250	0x3d39aa3f	0.045328375
251	0xbeab39f4	-0.33442652
252	0xbebb2805	-0.3655397
253	0xbca7b582	-0.020472292
254	0x3e53d122	0.20685247
255	0xbead6531	-0.33866265

fc2.weight f4 [256, 256]
0	0xbe3f96ac	-0.1870982
1	0xbe2f6a34	-0.17130357
2	0xbef05e01	-0.4694672
3	0xbe10e120	-0.14148378
4	0x3dc8c8f1	0.098039515
5	0x3d67c2f3	0.056582402
6	0xbe451eda	-0.1925005
7	0xbc0304fa	-0.007996792
8	0x3e00fe15	0.12596925
9	0x3e4c7a4c	0.19968528
10	0x3d76f55c	0.060292587
11	0xbf6a8769	-0.9161287
12	0xbd7035ca	-0.058645047
13	0x3dbf1e56	0.09331958
14	0x3e24af5e	0.16082522
15	0xbc634f37	-0.013873867
16	0xbe808695	-0.25102678
17	0xbe374fcf	-0.17901538
18	0xbe93c8e4	-0.28864205
19	0xbc5eeb4e	-0.013605906
20	0xbeb1d072	-0.34729344
21	0x3d53739d	0.05162393
22	0xbd99b8b9	-0.07505936
23	0x3c379212	0.0112042595
24	0x3eb6e26c	0.3571962
25	0x3d9a8e80	0.07546711
26	0x3dae3a59	0.08507223
27	0xbc464341	-0.0121009955
28	0x3e46995a	0.19394436
29	0x3bdbcecc	0.0067080017
30	0xbe20dd10	-0.15709329
31	0x3d51a9b1	0.05118722
32	0xbec83e88	-0.39110208
33	0x3dc268e0	0.094926596
34	0xbe543ae8	-0.20725596
35	0xbf0af7a9	-0.5428415
36	0x3de624e4	0.11237505
37	0x3d829e2d	0.06377826
38	0x3e09566c	0.13411874
39	0xbe6b90a2	-0.23004392
40	0x3e19a40d	0.15003987
41	0xbd30c5da	-0.043157436
42	0xbdb8cf15	-0.09023873
43	0xbe027995	-0.12741692
44	0x3e39ef18	0.18157613
45	0xbe325ee8	-0.17419016
46	0xbdb1853f	-0.08667993
47	0xbd8272e0	-0.06369567
48	0x3da4deae	0.08050285
49	0x3e29ae04	0.16570288
50	0xbd738e1e	-0.059461705
51	0xbcf41c7c	-0.029798739
52	0xbe22f532	-0.15913847
53	0x3e1370f9	0.14398564
54	0x3e5420c2	0.20715621
55	0x3b22d800	0.0024847984
56	0xbec6a3ef	-0.38796946
57	0xbda6e03e	-0.081482396
58	0xbcc85739	-0.024455654
59	0xbcd918be	-0.026501056
60	0x3de398f8	0.11113161
61	0x3ded9e86	0.116025016
62	0x3da328ad	0.07966743
63	0x3e193fc5	0.14965732
64	0xbce1bfeb	-0.027557334
65	0x3d454da6	0.048169754
66	0xbd034ea8	-0.032057434
67	0xbe1b7c48	-0.15184128
68	0xbdd97996	-0.10618894
69	0x3e25425e	0.16138598
70	0xbe0e084f	-0.13870357
71	0x3caaa506	0.020830642
72	0xbda3de74	-0.08001414
73	0xbe30f451	-0.172807
74	0xbd9ab7a6	-0.075545594
75	0xbe22cc6e	-0.15898296
76	0xbd8a1e54	-0.06744066
77	0xbe08d82a	-0.1336371
78	0xbe8e6c07	-0.27816793
79	0xbeefdf8c	-0.4685024
80	0x3dd63822	0.10459925
81	0x3d9bcc51	0.0760733
82	0xbc5f3552	-0.013623552
83	0x3bd6338a	0.0065369057
84	0x3c4e4dcb	0.0125917895
85	0x3d43b45c	0.047779426
86	0x3b8d67df	0.004315361
87	0x3e14d544	0.1453448
88	0xbc4a9e6d	-0.012366873
89	0xbdf4a93c	-0.119463414
90	0x3d4cfad9	0.050043914
91	0x3d2c3ca7	0.04205003
92	0x3c0b7962	0.008512827
93	0xbe4f1f71	-0.20226838
94	0x3dba64f1	0.09101284
95	0xbe30244d	-0.17201348
96	0xbb41d55e	-0.002957664
97	0x3e87a65c	0.2649411
98	0xbc31ac85	-0.0108443545
99	0x3e8386f5	0.25688902
100	0x3df498da	0.119432166
101	0xbe0b9dee	-0.13634464
102	0x3d9363cf	0.07196771
103	0xbc83bb5c	-0.01608055
104	0x3e5174f7	0.20454775
105	0xbf1a9fee	-0.60400283
106	0xbf41b07a	-0.75659907
107	0xbd51b042	-0.051193483
108	0x3d2d5751	0.0423196
109	0xbde29d45	-0.11065153
110	0x3d78ad4f	0.060712155
111	0xbd39511b	-0.045243364
112	0xbd34e899	-0.044167135
113	0xbd126fbb	-0.035751086
114	0x3caa1eab	0.020766577
115	0xbe5617fd	-0.20907588
116	0xbed98fad	-0.42492428
117	0xbf2387ca	-0.6387907
118	0x3e760b10	0.24027658
119	0x3db4a367	0.08820229
120	0x3e28079f	0.16409157
121	0xbd9d6087	-0.07684427
122	0x3b9dcc7f	0.0048156376
123	0xbf759741	-0.9593392
124	0xbf03794b	-0.51356953
125	0xbe7b43c7	-0.24537574
126	0x3d29511a	0.04133711
127	0x3df55a6d	0.11980138
128	0xbc1032c5	-0.008801167
129	0x3ec3143c	0.38101375
130	0xbe638572	-0.22218874
131	0x3d9f647e	0.07782839
132	0x3dfd2038	0.12359661
133	0xbe5db732	-0.21651915
134	0x3ee8835c	0.4541272
135	0xbe886730	-0.26641226
136	0xbea41543	-0.3204747
137	0xbd32fdb4	-0.04369898
138	0x3c83fb59	0.016111063
139	0xbe8233d0	-0.25430155
140	0x3d8dc6d4	0.06922689
141	0x3cb48545	0.022036204
142	0x3d2943c4	0.041324392
143	0x3d7338d5	0.05938037
144	0xbf4166ec	-0.7554767
145	0x3ed9ac93	0.42514476
146	0x3eb0dec5	0.3454496
147	0x3d8f98cb	0.07011565
148	0xbeb61a86	-0.3556711
149	0x3d337b6c	0.043818876
150	0xbf0eee30	-0.55832195
151	0xbe434961	-0.1907096
152	0xbf595ed6	-0.84910333
153	0xbeb6652a	-0.35624057
154	0xbe8e5f95	-0.27807298
155	0x3e02139b	0.12702791
156	0x3e75048c	0.23927516
157	0xbc169004	-0.009189609
158	0x3c5cc88c	0.0134755485
159	0xbd9b5b3b	-0.0758576
160	0x3d24ea85	0.040262718
161	0xbf8b828c	-1.0899215
162	0xbd6fb551	-0.058522526
163	0xbf3d962a	-0.7405726
164	0x3d28ffaa	0.041259445
165	0x3d38828b	0.04504637
166	0x3e803996	0.25043935
167	0xbd880964	-0.06642416
168	0xbe081e80	-0.13292885
169	0xbfdbb0f6	-1.7163379
170	0xbe60841d	-0.21925397
171	0x3c2cd58a	0.010548959
172	0x3e216794	0.15762168
173	0x3dd7d6e3	0.10539033
174	0xbe32ae2f	-0.17449258
175	0xbda5da6c	-0.08098301
176	0xbd966914	-0.07344261
177	0xbf17ec7e	-0.59345233
178	0xbe8ba8e4	-0.2727729
179	0xbfbacf9d	-1.4594609
180	0xbdf4e33c	-0.11957404
181	0xbcc3020d	-0.023804689
182	0xbcbb1099	-0.022835063
183	0xbc38fca5	-0.011290704
184	0xbe8023c0	-0.25027275
185	0x3e9ebc15	0.3100287
186	0xbe3b21a3	-0.1827455
187	0xbcb91da5	-0.022597143
188	0x3e00eb41	0.12589742
189	0x3e4713e8	0.19441187
190	0xbe63c7af	-0.22244142
191	0xbd9d81bd	-0.07690761
192	0x3e5ef71e	0.21773955
193	0xba69f2ff	-0.0008924454
194	0x3de8077d	0.11329553
195	0x3e0146f0	0.12624717
196	0x3d80492d	0.06263957
197	0x3d10a994	0.035317972
198	0xbe3accab	-0.18242137
199	0xbeaedc7f	-0.341526
200	0x3d78898c	0.06067805
201	0xbd03bdcd	-0.03216343
202	0xbb9f3230	-0.0048582777
203	0xbe47b56d	-0.19502802
204	0x3d6907e9	0.05689231
205	0xbe539d01	-0.20665361
206	0x3e09a5bf	0.13442133
207	0x3dfb63af	0.122748725
208	0x3e074aec	0.13212174
209	0x3d720fb5	0.05909701
210	0xbf712d4a	-0.9420973
211	0xbd30eeba	-0.043196417
212	0x3e327484	0.1742726
213	0xbdd49761	-0.10380436
214	0xbda1a55d	-0.07892869
215	0xbd2fb79d	-0.042899717
216	0x3e1aedfa	0.15129843
217	0x3d5eb7b8	0.054374427
218	0xbdc5979d	-0.096480586
219	0x3dba8be1	0.09108711
220	0x3daabbd5	0.08336607
221	0x3ea03390	0.3128934
222	0xbe4a4982	-0.19754604
223	0xbbb72d16	-0.0055900915
224	0xbdbf4a9e	-0.09340404
225	0xbd4c62d4	-0.049898937
226	0xbda40dd7	-0.08010452
227	0x3ea8594a	0.32880622
228	0xbef7ccbd	-0.4839839
229	0x3dcf308b	0.10116681
230	0xbd84eaf8	-0.06490129
231	0xc0a14972	-5.0402155
232	0x3dd94eb5	0.10610715
233	0x3e5a8ac7	0.21342002
234	0x3e6ebfb3	0.23315315
235	0x3e584c9a	0.21122971
236	0xbe091df7	-0.13390337
237	0xbe8eec6e	-0.27914757
238	0x3cd1a743	0.025592452
239	0x3c93d397	0.01804523
240	0xbe85bdf7	-0.26121494
241	0x3de32b31	0.110922225
242	0x3d9070cb	0.070527636
243	0xbd8723f9	-0.06598658
244	0x3dc97447	0.09836631
245	0xbfe7e151	-1.8115636
246	0x3d17b553	0.03703816
247	0x3c241a62	0.010016056
248	0xbecbb5c6	-0.3978712
249	0x3ea26c07	0.31723043
250	0x3c8a7016	0.01689915
251	0xbf641504	-0.8909457
252	0xbe1d6982	-0.1537228
253	0x3deeefad	0.11666808
254	0xbebbe65d	-0.3669919
255	0xbd68345d	-0.056690563

fc2.bias f4 [256]
0	0x3c20d30b	0.009815942
1	0xbdfc213b	-0.12311026
2	0xbe6f1f23	-0.23351721
3	0x3d4b0c1d	0.0495721
4	0xbc9d9cde	-0.01923984
5	0xbdc463d1	-0.09589351
6	0x3c89e765	0.01683397
7	0xbd07f775	-0.033194978
8	0xbd2be93b	-0.041970473
9	0xbd74a55c	-0.05972801
10	0xbe3df41b	-0.1855015
11	0xbe0fadae	-0.14031097
12	0x3d8fd8f4	0.070238024
13	0xbe474415	-0.19459565
14	0xbe7dfade	-0.2480273
15	0x3dc8397d	0.0977659
16	0xbdfc3852	-0.1231543
17	0xbda462e2	-0.08026673
18	0xbd5f4af2	-0.054514833
19	0xbc92e277	-0.017930252
20	0xbd466bc1	-0.048442606
21	0xbd3e49f8	-0.04645726
22	0xbe33765e	-0.17525622
23	0xbee19363	-0.4405776
24	0x3d351670	0.04421085
25	0xbe337534	-0.17525178
26	0xbd9c10c6	-0.07620387
27	0xbb84223e	-0.0040324023
28	0x3d6a6a04	0.05723001
29	0xbda83d1c	-0.08214781
30	0xbca003eb	-0.019533118
31	0xbe019127	-0.12653027
32	0x3e2ab59a	0.16670838
33	0xba23efe5	-0.00062537036
34	0x3c5a5294	0.013325352
35	0xbdd2653a	-0.10273214
36	0xbd782aec	-0.06058781
37	0xbc5ac202	-0.013351919
38	0x3d827354	0.06369653
39	0x3d4651c2	0.048417814
40	0xbe5b92fa	-0.21442786
41	0xbd69a77d	-0.057044495
42	0xbe7ac028	-0.24487364
43	0xbca5e8a5	-0.020252535
44	0xbcd167f5	-0.025562266
45	0xbe8044b8	-0.25052428
46	0xbe16bbee	-0.14720127
47	0xbd92dfa6	-0.07171564
48	0x3c586489	0.013207563
49	0xbcec9699	-0.028880404
50	0x3e1bfcb0	0.15233111
51	0xbce41c8b	-0.027845642
52	0x3d8ffdcd	0.070308305
53	0xbdf72b29	-0.12068779
54	0xbeee8868	-0.46588445
55	0xbd6fdf25	-0.058562417
56	0xbd2d678a	-0.04233507
57	0xbe53f18b	-0.2069761
58	0xbddafac1	-0.10692359
59	0x3d447678	0.047964543
60	0xbd9d06ec	-0.07667336
61	0xbd9776a6	-0.07395677
62	0xbdbee080	-0.09320164
63	0xbe0ece26	-0.13945827
64	0x3d598611	0.05310637
65	0xbc807f8b	-0.015685817
66	0xbdb0abc8	-0.08626515
67	0x3da19729	0.0789016
68	0xbd59ae4c	-0.053144738
69	0xbc403dc3	-0.011733475
70	0x3c83e266	0.016099166
71	0xbd541c72	-0.05178494
72	0xbdaa28d4	-0.083085686
73	0xbd929636	-0.07157557
74	0xbdf210e7	-0.1181963
75	0xbde9e503	-0.11420634
76	0xbe46627d	-0.19373508
77	0xbda06a6f	-0.078328006
78	0x3dfa4bb3	0.1222147
79	0x3e490e28	0.19634306
80	0x3c91fe98	0.017821595
81	0xba3cee10	-0.0007207105
82	0xbcc12819	-0.02357869
83	0xbc1057f5	-0.008810033
84	0x3d55b136	0.052170955
85	0xbace53ca	-0.0015741524
86	0xbe1844e6	-0.14870033
87	0xbd35d800	-0.044395447
88	0xbe0f9d58	-0.14024866
89	0xbd964146	-0.07336669
90	0x3c78ad63	0.015178057
91	0xbbbf9a70	-0.005847268
92	0x3d20e2bb	0.039278727
93	0x3e118fb1	0.1421497
94	0xbe41f98a	-0.18942848
95	0xbdabcc8c	-0.083886236
96	0xbe3a527f	-0.18195532
97	0x3d75e26f	0.060030397
98	0xbdb44c6c	-0.08803639
99	0xbd16c291	-0.036806647
100	0xbc61d917	-0.013784668
101	0xbd60e352	-0.05490429
102	0x3d411674	0.047140554
103	0x3d09130b	0.033465426
104	0x3d99dab1	0.07512415
105	0xbc710995	-0.014711757
106	0xbd83d7fd	-0.06437681
107	0xbec15656	-0.37761182
108	0xbdda7079	-0.10665984
109	0xbd79be0c	-0.06097226
110	0xbe5f7413	-0.21821623
111	0xbd97c7e6	-0.074111745
112	0xbe6a6356	-0.22889456
113	0xbd447a19	-0.047968004
114	0xbd795494	-0.060871676
115	0xbd3caf90	-0.046065867
116	0xbe513deb	-0.20433776
117	0xbd9e35fe	-0.07725142
118	0x3e94694a	0.2898658
119	0xbdb83d03	-0.08996012
120	0x3d5f112a	0.05445973
121	0xbdb6311d	-0.08896086
122	0xbda0ec30	-0.07857549
123	0xbe128ad2	-0.14310768
124	0xbdc9f6d6	-0.09861533
125	0xbdac09d6	-0.084003136
126	0xbd9f4f3e	-0.07778786
127	0xbb9e2e06	-0.0048272638
128	0x3cdd7954	0.027035393
129	0xbd99e4b6	-0.07514326
130	0x3d7ae312	0.061251707
131	0xbde49675	-0.1116151
132	0xbd716a04	-0.058938995
133	0xbe0c751d	-0.1371655
134	0xbcd1d652	-0.025614891
135	0xbd56659a	-0.05234299
136	0xbd47d191	-0.048783842
137	0xbd2789e0	-0.040902972
138	0xbdc75153	-0.09732308
139	0xbe147231	-0.14496686
140	0xbde4ffe3	-0.11181619
141	0x3c4d3f65	0.012527321
142	0x3da516be	0.08060978
143	0x3c49d786	0.012319451
144	0xbd3e8a90	-0.046518862
145	0xbc1fd742	-0.009755911
146	0x3d9f86d4	0.07789388
147	0xbdc442bb	-0.0958304
148	0xbd388a4b	-0.04505376
149	0x3c99a244	0.018754132
150	0xbd67f87a	-0.05663345
151	0xbe6f1f28	-0.23351729
152	0xbc4bd5b1	-0.012441085
153	0xbd365b40	-0.044520617
154	0xbe9ffcd2	-0.31247574
155	0xbdaeb6cd	-0.0853096
156	0x3d422fd9	0.047408912
157	0x3a6aa187	0.0008950461
158	0xbd588172	-0.052857824
159	0xbd598b12	-0.053111143
160	0x3d1d271c	0.038367376
161	0x3d5d318f	0.05400234
162	0xbd6c7d13	-0.057736468
163	0x3d6591a8	0.05604711
164	0xbe6b9532	-0.23006132
165	0xbda271c4	-0.07931855
166	0xbd46ed71	-0.048566286
167	0xbe1b8106	-0.15185937
168	0xbe5c2823	-0.21499686
169	0xbecbd347	-0.3980963
170	0xbe04301c	-0.12908977
171	0x3d781c13	0.06057365
172	0xbd263f2d	-0.040587593
173	0xbdb8b340	-0.09018564
174	0xbdaba8f7	-0.08381837
175	0xbcfd6016	-0.030929606
176	0xbd465451	-0.048420254
177	0xbd4570f9	-0.048203442
178	0x3e0987ca	0.13430706
179	0xbe4c34ef	-0.19942068
180	0xbe17ab5b	-0.1481146
181	0xbdaffd8f	-0.08593284
182	0xbdb8310f	-0.08993732
183	0xbd1ec2ec	-0.03876011
184	0xbea574cf	-0.3231568
185	0xbd7a8bc3	-0.061168443
186	0xbd7f793c	-0.062371477
187	0xbea53e98	-0.32274318
188	0xbcf595fc	-0.029978745
189	0xbe66c1d0	-0.22534871
190	0x3e03aee0	0.12859678
191	0xbe125760	-0.14291143
192	0x3d873c36	0.06603281
193	0x3b14d659	0.002271077
194	0xbc6ea183	-0.014564875
195	0xbe2a0e86	-0.16607103
196	0xbdfbff4b	-0.12304553
197	0x3e008209	0.12549604
198	0xbca100d7	-0.01965372
199	0x3d929179	0.07156653
200	0xbd9122f8	-0.07086748
201	0x3d8715ee	0.0659598
202	0xbd3914e8	-0.045185953
203	0x3d4ebbef	0.050472196
204	0xbe01d985	-0.12680633
205	0x3becbc5a	0.0072246017
206	0xbd8e0a25	-0.06935529
207	0xbe438647	-0.19094191
208	0xbe0ca5b0	-0.1373508
209	0xbe002dac	-0.12517422
210	0x3dbd285a	0.09236212
211	0x3df7f85e	0.12107919
212	0xbe69304b	-0.22772329
213	0xbc0b4e25	-0.008502518
214	0xbda7e73f	-0.081984036
215	0xbd2f18fb	-0.042748433
216	0x3d01de58	0.031706184
217	0xbccf9da9	-0.025343733
218	0x3df6dfb3	0.12054386
219	0xbe82e52c	-0.2556547
220	0xbe452a3d	-0.19254394
221	0xbd3c6544	-0.045995012
222	0xbe01f602	-0.12691501
223	0xbddbe6f1	-0.10737408
224	0xbdc26d69	-0.094935246
225	0xbde0721e	-0.10959266
226	0x3c07a24c	0.008278441
227	0xbcb708af	-0.022343008
228	0xbc6611fe	-0.014042376
229	0xbd0e590d	-0.034752894
230	0xbd1ceb13	-0.03831012
231	0xbf00fc8b	-0.5038535
232	0x3d531a0a	0.051538505
233	0xbe17d1ae	-0.1482608
234	0xbe0bac6c	-0.13639992
235	0xbe64db8d	-0.22349377
236	0xbd16cb8e	-0.03681522
237	0xbe1667ae	-0.14687988
238	0xbe140020	-0.14453173
239	0xbe952103	-0.29126748
240	0x3d8098f6	0.06279175
241	0xbd75e034	-0.06002827
242	0x3dbf6446	0.093452975
243	0x3e1c0938	0.15237892
244	0xbdbe7d48	-0.09301239
245	0xbd59ad72	-0.053143926
246	0xbde56d78	-0.1120252
247	0xbe049132	-0.12946013
248	0xbd2230bf	-0.03959727
249	0xbd3ce0c8	-0.046112806
250	0x3bfc4b11	0.0076993783
251	0xbd74f05c	-0.059799537
252	0x3a3d6e5c	0.00072262227
253	0xbd93bbf6	-0.07213585
254	0xbd792e4c	-0.060835168
255	0xbdd4c14a	-0.103884295

q.weight f4 [1, 256]
0	0xbe1dbe25	-0.15404566
1	0x3ddd2f20	0.10800004
2	0x3e42d22b	0.19025485
3	0x3db36dce	0.08761178
4	0xb928963e	-0.00016077698
5	0x3de98454	0.11402193
6	0x3c153e86	0.009109145
7	0xbbf7f503	-0.0075670495
8	0x3e0c5349	0.13703646
9	0x3d453598	0.048146814
10	0xbe0c9a10	-0.13730645
11	0xbe846c30	-0.2586379
12	0x3d192f25	0.037398476
13	0xbda3419e	-0.079715
14	0xbd8b9c29	-0.068168946
15	0x3d144dcc	0.036207005
16	0xbd9aa8bd	-0.075517155
17	0xbd4eedde	-0.050519817
18	0xbc81430c	-0.01577904
19	0x3e693cde	0.22777125
20	0xbc0126ec	-0.007882815
21	0x3f4ef66f	0.8084478
22	0xbd5f485d	-0.05451237
23	0xbe02577b	-0.12728684
24	0x3c9b68d2	0.01897088
25	0xbdb95405	-0.090492286
26	0x3cad9396	0.021188539
27	0x3cf2871a	0.029605437
28	0x3f5f5907	0.8724522
29	0x3e1b7b6b	0.15183799
30	0xbddd9974	-0.108202845
31	0xbe306da4	-0.17229325
32	0xbd935894	-0.07194629
33	0xbe1f09da	-0.15531102
34	0x3eb16d94	0.34653914
35	0xbe11068b	-0.14162652
36	0xbc968606	-0.018374454
37	0x3b5a9d49	0.003335791
38	0x3f1d8466	0.6153015
39	0xbda58e97	-0.080838375
40	0xbdf25ef6	-0.118345186
41	0x3da1337d	0.07871149
42	0xbd86965e	-0.06571649
43	0xbd7b16b3	-0.061300945
44	0x3cf0cf69	0.029395776
45	0x3d7e2f46	0.062056802
46	0xbe66c9b2	-0.22537878
47	0xbc4c0b98	-0.012453936
48	0xbd04c0cc	-0.032410428
49	0x3e01d485	0.12678726
50	0xbe19ca84	-0.1501866
51	0xbc584611	-0.013200299
52	0xbe267129	-0.16254105
53	0x3dc8bb18	0.0980131
54	0xbdc44429	-0.09583313
55	0x3d177652	0.036978073
56	0x3ed3f813	0.41400203
57	0x3e071b41	0.1319399
58	0xbd03d8c2	-0.03218914
59	0xbe37fab8	-0.17966735
60	0x3e52ab08	0.20573056
61	0xbd3f9a6f	-0.04677814
62	0x3e8d0084	0.27539456
63	0xbde69ff5	-0.11260978
64	0x3efed625	0.49772754
65	0x3b370fb8	0.0027932953
66	0x3c83564c	0.01603236
67	0x3d04e7f6	0.032447778
68	0x3ec65805	0.3873903
69	0xbe9f0961	-0.31061843
70	0xbe2ded68	-0.16985095
71	0x3c8bc674	0.017062403
72	0xbcefdfa7	-0.02928145
73	0xbd92affe	-0.07162474
74	0x3cdb610a	0.02677967
75	0x3b1a64a5	0.0023558524
76	0xbe029988	-0.1275388
77	0x3d0510ea	0.032486834
78	0x3eae231b	0.34011158
79	0xbda153e6	-0.078773305
80	0xbcafb50f	-0.02144864
81	0x3cec666a	0.028857429
82	0xbc8fda35	-0.017560104
83	0x3cef559f	0.029215632
84	0x3da71fca	0.0816036
85	0xbd9b508f	-0.07583725
86	0xbdaf3a3e	-0.08556031
87	0xbb88fc65	-0.0041804784
88	0x3d8c0037	0.068359785
89	0xbb4fbf41	-0.003169969
90	0x3c204876	0.009782901
91	0x3d8669cc	0.06563148
92	0x3f13b375	0.57695705
93	0x3e118fe7	0.1421505
94	0xbdb3d7d7	-0.087814026
95	0x3b4cef0e	0.0031270417
96	0xbcc91435	-0.024545768
97	0x3dbfcb7f	0.09364986
98	0xbd4dbb70	-0.050227582
99	0x3da0f350	0.07858908
100	0xbe322ca1	-0.17399837
101	0xbe27419e	-0.16333625
102	0xbd97b2c1	-0.074071415
103	0xbe0d5131	-0.13800503
104	0x3f24d7df	0.64391893
105	0xbe36b0b7	-0.17840849
106	0xbcca7df0	-0.024718255
107	0xbe566d2b	-0.20940082
108	0xbda83fa9	-0.08215267
109	0xbb231f06	-0.0024890318
110	0xbe2b87f7	-0.16751085
111	0x3b0e9c3c	0.0021760603
112	0xbd9f7409	-0.07785804
113	0xbd2196d6	-0.03945049
114	0x3d21d16e	0.03950637
115	0x3c10fc0e	0.008849157
116	0xbd77113d	-0.060319174
117	0x3b9eccc6	0.0048461882
118	0x3d24b066	0.04020729
119	0x3d6ba126	0.05752673
120	0xbe7c8659	-0.24660625
121	0x3d9574e4	0.07297686
122	0x3e132577	0.1436976
123	0xbd8ed116	-0.06973474
124	0x3dc39171	0.09549225
125	0xbe0a1a31	-0.13486554
126	0xbb191d4d	-0.0023363412
127	0xbd78123e	-0.060564272
128	0x3e024bc7	0.1272422
129	0xbd994157	-0.07483166
130	0x3cfe34c7	0.031031026
131	0x3d430d9d	0.047620405
132	0xbcc4ec29	-0.024038391
133	0x3d2b59ea	0.041833796
134	0x3c26f85d	0.01019105
135	0xbd22ce8e	-0.039747767
136	0x3c3afa10	0.011412159
137	0xbd5e67e6	-0.054298304
138	0xbd778c64	-0.06043662
139	0xbdac2784	-0.084059745
140	0xbd6806e2	-0.05664719
141	0x3e0e2eb4	0.13885003
142	0xbd2bf1f7	-0.041978803
143	0xbeb109fa	-0.34577924
144	0x3d116c8d	0.035503913
145	0xbf216187	-0.6303944
146	0x3f4732f8	0.7781215
147	0xbdeea20e	-0.11652003
148	0x3ce2614e	0.02763429
149	0x3e4d2c42	0.20036414
150	0xbd79c066	-0.0609745
151	0x3d90d50b	0.07071885
152	0xbd166dce	-0.03672581
153	0xbce664ea	-0.028124291
154	0xbd98e0ca	-0.0746475
155	0xbce1ce3a	-0.027564157
156	0x3f700715	0.93760806
157	0x3e964419	0.2934883
158	0x3adae6ba	0.0016700842
159	0x3b75d2ec	0.0037509752
160	0x3d5680c3	0.05236889
161	0x3e0e0b2a	0.13871446
162	0x3cdf0d39	0.027227985
163	0x3c80b536	0.015711408
164	0x3dcd9fc1	0.10040236
165	0xbda7a678	-0.08186048
166	0x3ccf3e59	0.025298284
167	0x3e9b754d	0.3036293
168	0x3d418cfb	0.04725359
169	0xbdcb1f53	-0.09918084
170	0xbe1da8a5	-0.15396364
171	0x3db2e227	0.087345414
172	0x3f2eab6c	0.6823032
173	0x3c16006d	0.009155375
174	0x3c8273bd	0.015924329
175	0x3d3612a2	0.044451363
176	0x3b431a89	0.0029770455
177	0x3d19b4de	0.037526004
178	0xbdd27d9a	-0.10277863
179	0x3d8ad346	0.067785785
180	0xbd0b7127	-0.034043457
181	0x3d3534b7	0.044239726
182	0xbe9a5b64	-0.3014785
183	0x3f44f278	0.7693248
184	0xbe243864	-0.16037136
185	0x3dddae0d	0.10824213
186	0xbe1fa39d	-0.15589757
187	0xbdc1d173	-0.094637774
188	0x3baf3bcf	0.005347706
189	0xbdd202c2	-0.10254432
190	0xbd885e70	-0.066586375
191	0x3e8be5fd	0.27323905
192	0x3fdb8e6e	1.7152841
193	0xbe5070f7	-0.20355593
194	0x3fb03057	1.3764752
195	0xbd48aa7c	-0.04899071
196	0x3da7d3e6	0.08194713
197	0x3c97c450	0.018526226
198	0x3b9bf6fe	0.0047596684
199	0xbdadcf0c	-0.08486757
200	0xbe6ed3e6	-0.2332302
201	0xbdc0bb3e	-0.094107136
202	0x3cfeb6b3	0.031092977
203	0xbd271133	-0.040787887
204	0x3ddabe97	0.106808834
205	0xbc4011f9	-0.011723035
206	0xbc52efaa	-0.012874523
207	0x3d795731	0.060874168
208	0x3d53ad0f	0.051678713
209	0xbd9bbe1e	-0.07604621
210	0x3d90f637	0.07078212
211	0x3d501462	0.05080069
212	0xbda6c204	-0.08142474
213	0x3bf135ac	0.0073611345
214	0x3a8233ac	0.0009933612
215	0xbcde3d21	-0.027128758
216	0xbe10982a	-0.14120546
217	0xbc27df6e	-0.010246141
218	0x3e8d5f26	0.27611655
219	0xbd13cc91	-0.03608376
220	0xbe42d14f	-0.19025157
221	0x3ce7aae2	0.028279725
222	0x3d1181b0	0.03552407
223	0xbd330cdc	-0.043713436
224	0xba86c9f8	-0.001028358
225	0xbddbd857	-0.10734623
226	0xbbda650a	-0.006664877
227	0xbbdfc8b9	-0.006829348
228	0xbd267ba8	-0.04064527
229	0x3d0a58d4	0.03377612
230	0xbcd5980c	-0.026073478
231	0xbded1601	-0.115764625
232	0x3ebdfed6	0.37108487
233	0xbd85c5ba	-0.06531854
234	0xbd8d2535	-0.06891862
235	0x3d605073	0.054764222
236	0xbb9e9165	-0.0048391097
237	0xbf0a5f61	-0.54051787
238	0xbe751d4a	-0.23936954
239	0xbd8abaa3	-0.067738794
240	0xbe690a73	-0.22757892
241	0xbd1bef2e	-0.038069896
242	0xbdc8d81f	-0.09806847
243	0x3caec40f	0.021333722
244	0xb803ab75	-3.1392516e-05
245	0x3c01c32c	0.007920068
246	0x3dba8768	0.09107858
247	0x3e4f2d17	0.20232044
248	0xbd520229	-0.05127159
249	0x3ca09827	0.019603802
250	0xbe15dc79	-0.14634885
251	0x39e3192b	0.00043315566
252	0x3dd4290e	0.10359393
253	0x3c5d73d9	0.01351639
254	0xbc9281e5	-0.017884204
255	0x3b9fa5f6	0.004872079
