ddpg/checkpoints/ddpg_traj_track/target_actor.pth (torch, 279162 bytes, 6 tensors)

fc1.weight f4 [256, 9]
0.20070463 -0.46632192 -0.1159121 0.23845328 0.23739868 -0.10489734 -0.021589916 -0.2717667
0.22771698 -0.48282486 -0.04252803 0.33632958 -0.081098735 -0.041485697 -0.027371716 0.23799537
0.49683937 0.03882412 0.18999416 0.2783323 -0.056116104 -0.335655 0.048364494 0.28414318
0.17100273 0.48147967 -0.27154085 0.39363727 -0.18845867 0.07838649 -0.1940517 0.07528732
-0.11013042 -0.24808916 0.1987731 0.19044694 -0.41229647 0.15621926 0.078883514 0.12994818
-0.18822506 0.03404317 0.29370245 -0.2933952 0.22552867 -0.09670536 0.29681736 0.15574895
0.19669789 -0.040798593 -0.21260315 -0.047444724 -0.58316064 0.2357055 0.44228247 -0.009383268
0.32493275 0.060696825 -0.24844092 0.29317075 -0.076720804 0.4542954 0.21181653 0.29573107
0.1074437 -0.11837272 -0.36099917 -0.3446905 -0.12745436 -0.33917624 0.1630947 0.12544058
-0.045326523 -0.08138286 0.50349313 -0.0337509 0.25929895 -0.1752238 0.38607493 0.40303278
-0.07970996 0.18083319 0.2774792 -0.0034665207 0.0044676187 0.26826653 0.037723366 -0.35493332
-0.54196364 0.36897767 -0.33964926 0.2029274 -0.32855996 -0.36274016 -0.18303947 -0.05957551
0.027029108 -0.6596542 0.39642698 -0.3528057 0.42965898 0.4319473 0.1469173 0.18697914
0.28976995 0.089322306 -0.21919894 0.23515865 0.25920328 0.38223377 0.31949484 -0.08306384
0.15558295 0.024508595 0.004333384 -0.54953265 0.010605079 -0.17513758 -0.447132 -0.5560878
0.28643963 -0.41416687 -0.26078206 -0.2237629 -0.19543704 -0.2569819 0.39488283 -0.20843457
0.08086079 -0.13127817 -0.32369202 0.07624048 -0.13348591 -0.33524275 0.09573121 0.21385343
-0.446197 0.024612835 0.13280919 0.10796018 -0.27161357 0.19595103 -0.32368496 0.29153782
0.05009945 0.2822391 -0.16721584 0.10611379 -0.2519205 -0.26038176 0.53677595 -0.19414203
0.27391523 -0.0623865 -0.35323656 -0.57988787 0.28918058 0.30229303 -0.016666833 0.18263689
0.041127574 0.00049582525 -0.382864 0.40608078 0.0036363306 -0.2377005 0.16667783 0.15668209
0.09325138 0.67366624 0.23146817 0.42897707 0.28301895 0.115206204 -0.23370348 -0.3088697
-0.27830422 -0.08014354 -0.615594 0.14707927 -0.015789818 -0.22487935 -0.37565523 0.28057286
-0.033639073 -0.17895713 0.5149518 -0.11342338 0.27110666 0.10861806 0.078049466 -0.098305106
-0.3496679 -0.31664804 -0.091658406 -0.1824755 0.46787792 0.12872759 0.3453279 -0.30053106
0.37313297 -0.16828525 -0.11376186 -0.17207006 0.22077696 0.32635137 0.05189388 0.33910105
0.3129559 0.43424731 -0.15568247 -0.13331841 -0.18006983 -0.3431193 -0.1985767 -0.16757703
0.43218067 0.14568155 -0.14137672 0.069771744 0.03838864 0.03671973 0.37534118 -0.44983757
0.11712672 0.3801199 0.19251376 0.031629406 0.3323023 -0.24146526 -0.17361325 -0.1737051
0.598722 0.23445038 0.49737802 0.030804247 0.33334845 0.08699609 0.26303843 -0.25807527
-0.31772047 0.1412732 0.16296594 0.20143305 -0.28140548 0.022053558 0.299395 -0.2032803
-0.2838347 0.13553992 0.5909861 0.105810836 -0.35488525 0.4365802 0.20715639 -0.033700425
00000000: 8485 4d3e bfc1 eebe 5363 edbd 192d 743e
00000010: a418 733e 6bd4 d6bd 56dd b0bc 0125 8bbe
00000020: a42e 693e d234 f7be df31 2ebd 6433 ac3e
00000030: 1817 a6bd e8ec 29bd a63a e0bc 0fb5 733e
00000040: bb61 fe3e 0a06 1f3d d48d 423e 9281 8e3e
00000050: 00da 65bd f9da abbe d919 463d 377b 913e
00000060: 571b 2f3e 8184 f63e 6707 8bbe d38a c93e
00000070: 4ffb 40be 1989 a03d 7db5 46be 3d30 9a3d
00000080: 0f8c e1bd 160b 7ebe 2d8b 4b3e 8604 433e
00000090: 8618 d3be f1f7 1f3e ae8d a13d 2311 053e
000000a0: 12be 40be da70 0b3d 2b60 963e e537 96be
000000b0: fdf0 663e 760d c6bd 72f8 973e a77c 1f3e
000000c0: 2c6b 493e 6d1c 27bd a4b4 59be 6655 42bd
000000d0: 044a 15bf c85c 713e d972 e23e 47bc 19bc
000000e0: 965d a63e 3c9d 783d 4c67 7ebe 7a1a 963e
000000f0: cc1f 9dbd 6899 e83e 6fe6 583e 106a 973e
00000100: 710b dc3d 666d f2bd e2d4 b8be 467b b0be
00000110: 6583 02be 82a8 adbe 4c02 273e 7f73 003e
00000120: 4ea8 39bd 0fac a6bd ede4 003f 623e 0abd
00000130: d5c2 843e de6d 33be 9dab c53e 505a ce3e
00000140: fa3e a3bd 562c 393e c111 8e3e 912e 63bb
00000150: 1a65 923b 3b5a 893e d183 1a3d d2b9 b5be
00000160: 21be 0abf a4ea bc3e 82e6 adbe 33cc 4f3e
00000170: 0339 a8be 14b9 b9be b36e 3bbe 7305 74bd
00000180: 266c dd3c 19df 28bf 7af8 ca3e f3a2 b4be
00000190: 43fc db3e 3228 dd3e 7d71 163e 7677 3f3e
000001a0: ba5c 943e 9dee b63d b075 60be 6ecd 703e
000001b0: 4bb6 843e 25b4 c33e d494 a33e 601d aabd
000001c0: 2351 1f3e 40c6 c83c 0fff 8d3b 2cae 0cbf
000001d0: edc0 2d3c 4457 33be 7cee e4be c55b 0ebf
000001e0: 37a8 923e ae0d d4be 3a85 85be 1a22 65be
000001f0: a620 48be 2293 83be 152e ca3e df6f 55be
00000200: 589a a53d c96d 06be f6ba a5be f823 9c3d
00000210: 88b0 08be f0a4 abbe ba0e c43d 65fc 5a3e
00000220: ef73 e4be dba0 c93c 22ff 073e 3a1a dd3d
00000230: ef10 8bbe 63a7 483e 09ba a5be 7244 953e
00000240: 1535 4d3d a581 903e a13a 2bbe 3052 d93d
00000250: b9fb 80be c250 85be 266a 093f 2bcd 46be
00000260: 9e3e 8c3e fd88 7fbd 6cdb b4be 8873 14bf
00000270: 7a0f 943e 27c6 9a3e e288 88bc 2a05 3b3e
00000280: 6375 283d 45fa 013a c006 c4be d2e9 cf3e
00000290: 814f 6e3b c367 73be 98ad 2a3e 4571 203e
000002a0: 94fa be3d 6475 2c3f fe05 6d3e e2a2 db3e
000002b0: dce7 903e 3bf1 eb3d f74f 6fbe 2b24 9ebe
000002c0: e47d 8ebe 4c22 a4bd 9297 1dbf f39b 163e
000002d0: a659 81bc c646 66be e255 c0be 3fa7 8f3e
000002e0: 20c9 09bd 8a40 37be e2d3 033f 844a e8bd
000002f0: 7ece 8a3e 2573 de3d 66d8 9f3d 3054 c9bd
00000300: ac07 b3be b11f a2be 67b7 bbbd dcda 3abe
00000310: b28d ef3e 2ad1 033e d2ce b03e 35df 99be
00000320: 490b bf3e f852 2cbe fafb e8bd 2233 30be
00000330: 5b13 623e 8717 a73e ad8e 543d a79e ad3e
00000340: c13b a03e aa55 de3e 3a6b 1fbe 9f84 08be
00000350: 3a64 38be 55ad afbe b157 4bbe 5099 2bbe
00000360: c946 dd3e 8b2d 153e 0fc5 10be 7de4 8e3d
00000370: 683d 1d3d 6d67 163d b82c c03e 1c51 e6be
00000380: 22e0 ef3d 139f c23e 5422 453e d68d 013d
00000390: 8723 aa3e ab42 77be acc7 31be c0df 31be
000003a0: d845 193f c313 703e 55a8 fe3e 3059 fc3c
000003b0: a6ac aa3e 022b b23d f9ac 863e 7122 84be
000003c0: 42ac a2be eca9 103e 8be0 263e 7744 4e3e
000003d0: 6114 90be aaa9 b43c 4d4a 993e b628 50be
000003e0: c852 91be faca 0a3e dd4a 173f 5ab3 d83d
000003f0: 85b3 b5be 7187 df3e ce20 543e 7509 0abd

fc1.bias f4 [256]
-0.11557054 0.11508636 0.05136272 0.11544281 0.28376082 0.049022973 -0.21541573 -0.00930846
0.20647544 0.11787925 -0.096278615 -0.0757277 -0.121528715 -0.17702332 0.05014132 0.058123138
-0.1302174 0.03315886 -0.23788254 -0.030312514 -0.06689559 -0.11203855 0.10453981 0.056725156
-0.056705263 0.0073750424 -0.11414646 -0.10628971 0.3157916 -0.11647662 -0.20779292 0.10210334
0.07934162 -0.084267884 0.31423163 0.16142285 0.29026395 0.25584966 0.2375855 0.042593617
0.07927773 0.26900145 0.19517228 -0.039850444 -0.18509166 -0.092332646 0.081021726 0.078880794
0.20082223 -0.14352468 0.21529704 0.25030732 -0.2992253 0.05707828 0.1430755 0.09720543
0.016417144 0.30541167 -0.030575702 0.24590239 -0.0064604306 -0.16536759 0.027609043 -0.02592204
-0.09729524 0.31181237 -0.13997161 -0.062035337 0.2825918 0.1046712 0.271797 -0.22148934
0.18807985 0.11367519 0.13487113 0.18369237 -0.10556615 -0.055334732 -0.21920012 0.29722187
0.28702798 0.07127924 0.31133825 0.12186015 0.07328364 0.16131361 -0.057581633 0.15297545
0.30257264 -0.050000984 0.2425828 0.2539849 0.034973003 0.22706525 -0.25556153 0.2668038
0.29744157 0.22918338 0.31805417 -0.2851694 -0.11157885 0.13681453 0.2330747 -0.007641045
0.08248309 -0.028357426 -0.11300049 -0.22519574 0.2929937 -0.19618548 0.27662992 0.27233255
0.32153162 0.09985942 0.1308112 0.15330733 0.2089516 0.012445205 0.04670674 0.08126375
0.27098206 -0.17041317 0.13510326 0.011158361 0.04766868 -0.07710098 -0.002401754 0.090375796
0.29287934 0.2714918 0.06620841 0.004725096 0.06007827 0.11984241 0.050894767 0.3066885
-0.16348556 -0.08100095 -0.1498777 -0.15305386 0.30071622 0.05490673 0.204412 0.34695393
0.021816857 0.27730304 0.08677439 0.3221207 -0.097023085 -0.029180704 0.20823857 0.011205758
0.25883436 0.2473307 0.320538 0.10074937 0.20087805 0.27667275 -0.16882426 0.0092526395
0.03645654 -0.1416617 -0.020409085 -0.0027788933 0.04550754 0.23079139 -0.1922109 -0.06729674
0.261405 -0.08441893 0.31436983 -0.22548585 0.30853158 0.018294267 -0.25756776 -0.053621903
-0.21456617 -0.06663093 0.027410416 0.38012448 -0.08633445 0.12011365 0.30260387 -0.041565455
-0.113521814 0.14552432 0.175351 0.3293478 -0.21108247 -0.022126757 0.24533434 -0.022734076
0.119077355 -0.17269999 0.02674054 0.23028925 0.051990934 0.03319309 0.063716546 0.016805952
0.2130965 0.2587129 -0.04518535 0.0857363 0.17957671 0.2138613 0.19918422 -0.081256665
0.19998875 0.27812505 -0.03564401 0.10683481 -0.17179944 0.22250742 -0.05389401 -0.0557603
-0.027792756 0.24501938 -0.15688701 0.071567945 0.052374516 -0.0033714718 -0.109552436 0.28521112
-0.056356993 0.17669225 0.15687309 0.32292277 -0.0062527168 0.2476995 0.19297619 0.20347066
-0.1664763 0.02243857 0.02774408 0.08529035 -0.12074096 -0.10861128 -0.06415396 0.20263888
-0.15078053 -0.05026311 0.013298144 0.30702016 0.08208693 0.20839304 0.10820697 -0.102357924
-0.039310645 0.16566142 0.068358846 0.21872312 0.05180827 -0.053859822 -0.17068823 0.10963382
00000000: 3fb0 ecbd 66b2 eb3d b761 523d 486d ec3d
00000010: 1949 913e 50cc 483d f195 5cbe 8382 18bc
00000020: 4c6e 533e ad6a f13d b92d c5bd 2017 9bbd
00000030: 0ce4 f8bd 9a45 35be fc60 4d3d 8712 6e3d
00000040: b657 05be 96d1 073d 7b97 73be f351 f8bc
00000050: 8e00 89bd 7874 e5bd f818 d63d a358 683d
00000060: c743 68bd 57aa f13b 9fc5 e9bd 6bae d9bd
00000070: 70af a13e 4b8b eebd abc7 54be 8e1b d13d
00000080: dc7d a23d a494 acbd f8e2 a03e 084c 253e
00000090: 7a9d 943e bafe 823e 9d49 733e a576 2e3d
000000a0: 5d5c a23d 8fba 893e 3edb 473e 383a 23bd
000000b0: ab88 3dbe e618 bdbd b8ee a53d 418c a13d
000000c0: 58a4 4d3e 22f8 12be d476 5c3e 4828 803e
000000d0: 0f34 99be eaca 693d 6282 123e a413 c73d
000000e0: 3f7d 863c eb5e 9c3e e579 fabc d6cd 7b3e
000000f0: 05b2 d3bb 1f56 29be 5c2c e23c 755a d4bc
00000100: ba42 c7bd dfa5 9f3e b854 0fbe c418 7ebd
00000110: dfaf 903e db5d d63d fa28 8b3e 1ace 62be
00000120: 0198 403e 8ace e83d a81b 0a3e da19 3c3e
00000130: 1133 d8bd aca6 62bd ff75 60be 772d 983e
00000140: 55f5 923e dafa 913d ba67 9f3e d091 f93d
00000150: bc15 963d 652f 253e b8da 6bbd 99a5 1c3e
00000160: cdea 9a3e d5cd 4cbd a067 783e 4f0a 823e
00000170: da3f 0f3d cb83 683e f6d8 82be 829a 883e
00000180: 434a 983e 0caf 6a3e ffd7 a23e b901 92be
00000190: 7483 e4bd 1c19 0c3e 22ab 6e3e bb61 fabb
000001a0: e5ec a83d d54d e8bc cd6c e7bd b699 66be
000001b0: 4503 963e d9e4 48be 70a2 8d3e 2c6f 8b3e
000001c0: cb9f a43e 1883 cc3d 5ff3 053e 99fc 1c3e
000001d0: 69f7 553e f9e6 4b3c 914f 3f3d 9c6d a63d
000001e0: 29be 8a3e ca80 2ebe 8258 0a3e 8fd1 363c
000001f0: 3c40 433d 1ee7 9dbd bf66 1dbb f216 b93d
00000200: 48f4 953e f900 8b3e 4698 873d fad4 9a3b
00000210: a214 763d f06f f53d 0877 503d 4606 9d3e
00000220: c268 27be d3e3 a5bd 8a79 19be 27ba 1cbe
00000230: 7af7 993e e1e5 603d 6151 513e f2a3 b13e
00000240: 44b9 b23c aafa 8d3e c5b6 b13d 01ed a43e
00000250: 0ab4 c6bd 5f0c efbc 7e3c 553e 5b98 373c
00000260: f085 843e 4244 7d3e 8f1d a43e b055 ce3d
00000270: fab2 4d3e 0da8 8d3e 44e0 2cbe 6298 173c
00000280: 7453 153d c40f 11be f430 a7bc 181e 36bb
00000290: 1d66 3a3d 9454 6c3e efd2 44be e0d2 89bd
000002a0: e0d6 853e d5e3 acbd 15f5 a03e c3e5 66be
000002b0: daf7 9d3e dcdd 953c ecdf 83be a4a2 5bbd
000002c0: 3cb7 5bbe cc75 88bd cf8b e03c ad9f c23e
000002d0: 1ed0 b0bd 25fe f53d e5ee 9a3e 8a40 2abd
000002e0: 207e e8bd 5404 153e 368f 333e 46a0 a83e
000002f0: 0126 58be 2c43 b5bc ed38 7b3e d03c babc
00000300: d4de f33d 44d8 30be fa0e db3c f2d0 6b3e
00000310: 72f4 543d 7af5 073d d27d 823d a3ac 893c
00000320: f835 5a3e 0476 843e 4614 39bd 8396 af3d
00000330: f5e2 373e 75fe 5a3e f3f6 4b3e e569 a6bd
00000340: dac9 4c3e 6866 8e3e 74ff 11bd 35cc da3d
00000350: 31ec 2fbe fcd8 633e f7bf 5cbd ea64 64bd
00000360: a2ad e3bc 5ce6 7a3e fda6 20be 3792 923d
00000370: a986 563d e9f3 5cbb 075d e0bd 3107 923e
00000380: 97d6 66bd d0ee 343e 57a3 203e 2256 a53e
00000390: 97e3 ccbb f0a4 7d3e 8d9b 453e 9d5a 503e
000003a0: c378 2abe 18d1 b73c 8e47 e33c b5ac ae3d
000003b0: 0947 f7bd 976f debd 2763 83bd 9180 4f3e
000003c0: 3666 1abe b1e0 4dbd 75e0 593c bf31 9d3e
000003d0: 311d a83d fc64 553e 9e9b dd3d 08a1 d1bd
000003e0: 3304 21bd 26a3 293e b9ff 8b3d f4f8 5f3e
000003f0: e934 543d 1e9c 5cbd e5c8 2ebe b287 e03d

fc2.weight f4 [256, 256]
-0.15889655 -0.15736811 0.056028545 0.010619144 0.043856964 0.077894054 0.07630443 0.012232403
-0.011868989 0.10163243 -0.09120415 0.002181076 0.052914087 -0.004359915 -0.019467479 0.01917831
-0.10097043 -0.2575578 0.058172178 0.088806726 -0.23909222 -0.006161782 -0.013776622 0.15510684
0.01848412 -0.023902653 0.1309553 0.010679156 0.048394956 -0.09261071 -0.11762418 0.04234174
0.0459131 -0.15085708 -0.106079064 -0.024999235 0.05302612 -0.04827593 0.01668924 0.14187181
0.0028252683 -0.06581894 0.022845978 -0.050925266 0.11961981 -0.12878841 0.063612886 -0.017645128
-0.076658346 0.12786545 -0.17210299 0.12569702 0.032344885 0.050242856 0.14191158 0.0061910376
-0.1945095 0.04120607 0.16494937 -0.015039061 0.11331814 0.04598403 0.056874003 0.078173086
0.07939023 0.028494703 0.038145326 -0.110959075 0.10947735 -0.023986882 0.028011765 -0.06402859
0.025021367 -0.075313464 -0.044198394 0.071538575 0.17772996 -0.06360434 -0.195117 0.06076074
0.015594031 -0.012624691 0.069493294 -0.08223383 0.015537268 0.096583955 -0.17846075 0.07795603
-0.0969012 0.19375126 0.0824323 -0.061721545 0.05757302 -0.018905163 0.007199449 0.0016646178
-0.08025667 -0.061044343 -0.017597204 -0.15158352 0.16055678 -0.064990476 -0.06180554 0.10210563
0.0771372 0.031799283 -0.1291137 -0.0015179772 0.039520636 0.08007499 -0.0019498278 0.069794126
0.055137254 0.04820342 0.12154623 0.097368605 0.031964768 -0.10266687 0.0031950737 -0.15156111
-0.06188527 -0.032309905 -0.069079146 -0.014840221 0.055080976 -0.18674657 -0.14011328 0.004680768
0.043597795 0.030335572 -0.08337092 0.14839438 0.13754126 -0.07993927 0.028534431 0.1092077
0.054036077 0.00034564568 -0.07933253 0.09737292 -0.0654327 -0.12945946 0.1248931 -0.09045019
0.06843732 -0.05061607 0.0051866644 0.07266475 0.17609242 0.00951451 0.07708759 0.06934449
-0.0007312728 0.048943326 -0.023385907 0.056747925 -0.045350324 -0.060676556 0.0262996 0.033800773
0.19118541 -0.09903414 0.06397461 0.035773966 0.091652565 -0.107840806 0.011949927 -0.17847876
-0.09554655 0.053888276 -0.0047488715 -0.053382568 -0.05476235 0.009666818 -0.031538263 0.1477115
-0.02649995 -0.32488665 -0.06404043 0.034858994 0.036821254 0.06199297 0.07380794 0.10790098
0.057012457 -0.046535928 0.05143083 -0.061194688 0.012875882 0.011156048 0.059058987 0.07948449
0.025493741 -0.17933072 -0.047543027 0.084174156 0.14007647 0.04567543 -0.08810196 0.009267705
-0.017153816 0.035902314 0.024060791 -0.023761895 0.15279953 0.0658616 0.092608154 0.028281368
-0.016071301 -0.030715793 0.007591011 0.113066524 -0.11485458 0.0149537455 0.013300026 -0.08070779
0.091611005 -0.092340544 -0.090115435 0.12287136 -0.12271563 0.07558333 -0.07877908 -0.045154862
-0.13644147 0.13733387 0.054156184 0.053238798 0.022205364 0.089426994 0.01023762 -0.03943664
-0.02284544 -0.011831476 0.0038088681 -0.08318386 -0.04288611 0.11077037 0.04257677 0.06332867
-0.13417089 -0.053472135 0.024212595 -0.12653181 0.08980976 0.11530345 -0.049271468 -0.05883401
0.053533886 -0.08159599 -0.020109024 -0.13337582 -0.10209837 -0.063374996 -0.113712914 0.1083025
00000000: c7b5 22be 1b25 21be 307e 653d ebfb 2d3c
00000010: 5ca3 333d eb86 9f3d 7f45 9c3d 6b6a 483c
00000020: 2676 42bc aa24 d03d 3ec9 babd 62f0 0e3b
00000030: 71bc 583d 9edd 8ebb 437a 9fbc d51b 9d3c
00000040: 96c9 cebd 9ede 83be f345 6e3d 4de0 b53d
00000050: 97d4 74be c6e8 c9bb 57b7 61bc 54d4 1e3e
00000060: 026c 973c 7fcf c3bc 2519 063e a0f7 2e3c
00000070: ca39 463d afaa bdbd f2e4 f0bd 886e 2d3d
00000080: 600f 3c3d 477a 1abe fb3f d9bd 32cb ccbc
00000090: eb31 593d fbbc 45bd dfb7 883c d846 113e
000000a0: 2328 393b 15cc 86bd 7d27 bb3c 0397 50bd
000000b0: 3bfb f43d 1ce1 03be 7947 823d 848c 90bc
000000c0: 0dff 9cbd 29ef 023e c43b 30be b8b6 003e
000000d0: 127c 043d 74cb 4d3d 4551 113e 30de ca3b
000000e0: 802d 47be b2c7 283d 7de8 283e 6566 76bc
000000f0: 5713 e83d c059 3c3d b7f4 683d 3619 a03d
00000100: 5897 a23d b96d e93c 463e 1c3d 833e e3bd
00000110: a935 e03d 2380 c4bc ee78 e53c 6c21 83bd
00000120: 9cf9 cc3c f23d 9abd 6009 35bd d182 923d
00000130: d8fe 353e fe42 82bd c0cc 47be 41e0 783d
00000140: 1b7e 7f3c cbd7 4ebc 8052 8e3d 366a a8bd
00000150: 0690 7e3c cfcd c53d 6abe 36be 69a7 9f3d
00000160: 2374 c6bd bb66 463e 44d2 a83d bbcf 7cbd
00000170: b0d1 6b3d 00df 9abc 5be9 eb3b 4e2f da3a
00000180: 9c5d a4bd a209 7abd 0328 90bc b638 1bbe
00000190: ff68 243e ba19 85bd ce27 7dbd c21c d13d
000001a0: 1cfa 9d3d f73f 023d 6236 04be ddf6 c6ba
000001b0: 64e0 213d 5bfe a33d 5d91 ffba 39f0 8e3d
000001c0: 9ad7 613d f370 453d 3bed f83d 3169 c73d
000001d0: 7ded 023d 0243 d2bd 7164 513b d632 1bbe
000001e0: 697b 7dbd 6457 04bd 5e79 8dbd 6624 73bc
000001f0: 979c 613d 7e3a 3fbe db79 0fbe 2161 993b
00000200: 9a93 323d 4e82 f83c 5fbe aabd b2f4 173e
00000210: 9ed7 0c3e 33b7 a3bd 0ac1 e93c 49a8 df3d
00000220: ef54 5d3d c737 b539 1879 a2bd 746b c73d
00000230: 9401 86bd 0591 04be f4c7 ff3d f33d b9bd
00000240: de28 8c3d cc52 4fbd e5f4 a93b 42d1 943d
00000250: 9251 343e bfe2 1b3c 19e0 9d3d 7c04 8e3d
00000260: e3b2 3fba cc78 483d cd93 bfbc 8370 683d
00000270: 43c1 39bd fb87 78bd 4272 d73c ae72 0a3d
00000280: 1cc6 433e 69d2 cabd 1f05 833d b987 123d
00000290: 57b4 bb3d a4db dcbd a0c9 433c 23c3 36be
000002a0: e9ad c3bd f4b9 5c3d 6c9c 9bbb aea7 5abd
000002b0: 7c4e 60bd 9361 1e3c 442e 01bd af41 173e
000002c0: 6c16 d9bc 8b57 a6be a127 83bd 4ec8 0e3d
000002d0: e2d1 163d 57ec 7d3d 9e28 973d 30fb dc3d
000002e0: e585 693d 759c 3ebd 22a9 523d 48a7 7abd
000002f0: 5df5 523c dbc7 363c d6e7 713d c4c8 a23d
00000300: 40d8 d03c 79a2 37be 7abc 42bd 8063 ac3d
00000310: 3570 0f3e 2916 3b3d cd6e b4bd 92d7 173c
00000320: 2986 8cbc 4e0e 133d 231b c53c 4ea8 c2bc
00000330: 7b77 1c3e 72e2 863d 58a9 bd3d 54ae e73c
00000340: f6a7 83bc b09f fbbc 04be f83b 6c8f e73d
00000350: e138 ebbd 8e00 753c 5ae8 593c 204a a5bd
00000360: 8d9e bb3d 0a1d bdbd 718e b8bd fba3 fb3d
00000370: 5552 fbbd 6fcb 9a3d ed56 a1bd 4ef4 38bd
00000380: 50b7 0bbe 40a1 0c3e e0d2 5d3d ed10 5a3d
00000390: 06e8 b53c 8025 b73d b1bb 273c 5088 21bd
000003a0: 5c26 bbbc cfd8 41bc 349e 793b 4d5c aabd
000003b0: 58a9 2fbd 93db e23d fb64 2e3d 76b2 813d
000003c0: 1864 09be 9905 5bbd 7e59 c63c 8e91 01be
000003d0: 2eee b73d 3724 ec3d e1d0 49bd eefb 70bd
000003e0: 5946 5b3d cc1b a7bd aebb a4bc ac93 08be
000003f0: f318 d1bd c0ca 81bd 51e2 e8bd b3cd dd3d

fc2.bias f4 [256]
0.068990335 0.041604705 0.008629088 0.017520165 0.010810034 -0.028662171 0.0030530521 -0.009569814
0.019792773 -0.050891258 0.0037514975 -0.048574295 -0.028568465 -0.025344322 0.049201477 0.05137331
0.03464435 0.041685957 -0.01740742 -0.035871267 0.042849954 0.08003278 -0.014444856 -0.0010587628
0.035057034 0.07741666 -0.07336155 0.023511961 0.0047455365 -0.0017520192 0.027276551 -0.041882936
-0.033027668 0.013504809 0.05506968 0.07324942 0.00702474 0.06844835 0.012227251 0.055931102
0.02687967 0.02477979 -0.062169567 -0.009606792 0.0018342368 -0.055242013 0.0056870594 0.01841471
0.046658568 -0.020613322 -0.009125331 0.055756535 -0.0078826295 -0.041148264 0.06468197 -0.017393
-0.042733703 -0.044439375 -0.015667208 0.032523643 0.00783495 0.061690643 -0.03203261 0.06392793
0.02018033 -0.049784217 -0.021580823 0.032440107 0.081230514 0.0191471 0.029402813 0.0075643873
0.018591084 0.019784823 0.008120364 -0.022616522 -0.017958712 0.026070857 -0.05166385 0.037077326
-0.01246509 0.041465133 0.03313448 0.059550684 -0.038744472 0.027989134 -0.04761499 -0.019691048
-0.047933817 -0.03644442 -0.06345592 0.069827855 0.0017278001 0.0157083 -0.09144942 0.03135541
-0.02129493 -0.08946152 0.037653558 0.0022493557 0.010187361 -0.034563746 0.03728907 0.028545067
0.04222795 0.05827203 -0.026621565 -0.055417683 0.049148917 -0.0066503626 -0.015209869 -0.0045839283
-0.025381811 -0.06156511 0.06221823 0.09326494 -0.0066947243 -0.026767993 -0.0059932997 0.048956156
0.007395593 0.04150091 0.014679986 -0.012570166 -0.049438797 0.007190888 0.0043316022 0.060245287
0.006402712 0.05893895 0.024989404 0.03708185 -0.028569128 0.021489754 -0.04700591 -0.003125006
-0.06204444 0.06271069 -0.007014557 0.0041959994 -0.03196817 0.063010566 0.017238963 -0.0124621345
-0.0066556036 0.03410767 0.037635025 -0.05086297 -0.039491434 0.051180795 -0.0052708723 0.047953434
0.055313844 0.0070683258 -0.012129092 -0.0118685635 -0.019150307 0.02839525 0.07802168 0.017441828
0.021061027 0.046727438 -0.005962775 -0.018253459 -0.02307523 -0.0051453677 -0.02226689 0.009244409
0.03523751 -0.019979237 0.0029074287 0.014487963 -0.006507689 0.016320817 -0.050301142 -0.011885085
-0.0338547 -0.057826154 -0.061317526 -0.047280617 0.054887682 0.061300393 0.0005329789 -0.0070250235
-0.023347924 -0.009974941 0.059638653 0.038470726 -0.012006545 -0.0698154 -0.0031102488 0.046107933
0.048707545 -0.05293455 -0.0041922447 -0.028076237 -0.030030396 0.00793463 0.02504502 -0.027571555
0.040857382 -0.09257644 -0.01470009 -0.005125865 -0.052412033 -0.014927478 -0.009950214 -0.026664902
0.04436562 -0.003166066 -0.042573195 -0.04387763 0.029880825 -0.034433264 0.045381278 -0.030848162
-0.029749377 -0.02830683 -0.037698857 0.0073352437 0.026316792 -0.01702925 0.055917345 -0.062917985
0.015449753 0.009852063 -0.02852886 -0.02097753 -0.010308005 0.04200579 -0.06729474 -0.051432826
-0.034044776 0.06272336 0.015916485 0.022585064 -0.045108467 0.023843314 0.08114064 0.0049971817
0.032586966 -0.026647966 0.032072663 -0.020912178 0.038700573 -0.061935686 0.02009679 0.010444198
0.0019199883 0.020367946 -0.04294002 -0.025677893 0.03976088 0.030398231 0.004623824 0.005827862
00000000: ce4a 8d3d b269 2a3d 0561 0d3c 7386 8f3c
00000010: 921c 313c eecc eabc b715 483b b6ca 1cbc
00000020: 7424 a23c 5a73 50bd afdb 753b d7f5 46bd
00000030: 6a08 eabc e59e cfbc 7d87 493d d26c 523d
00000040: 3ce7 0d3d e5be 2a3d 019a 8ebc c0ed 12bd
00000050: 6f83 2f3d 3ae8 a33d 1eaa 6cbc 2fc6 8aba
00000060: f797 0f3d a08c 9e3d 953e 96bd 289c c03c
00000070: 7280 9b3b 02a4 e5ba 1373 df3c 718d 2bbd
00000080: 0548 07bd 4643 5d3c bf90 613d cb03 963d
00000090: ca2f e63b a62e 8c3d cf54 483c 0318 653d
000000a0: c132 dc3c fcfe ca3c 84a5 7ebd ce65 1dbc
000000b0: c66a f03a 7345 62bd 835a ba3b 72da 963c
000000c0: 0e1d 3f3d 45dd a8bc 6a82 15bc f760 643d
000000d0: 2526 01bc 158b 28bd fb77 843d c47b 8ebc
000000e0: 8909 2fbd 1006 36bd 8458 80bc 8337 053d
000000f0: 2a5e 003c 54af 7c3d a034 03bd a6ec 823d
00000100: 3851 a53c 89ea 4bbd 44ca b0bc ebdf 043d
00000110: 2f5c a63d 61da 9c3c 2bde f03c aede f73b
00000120: 544c 983c c813 a23c 460b 053c 4946 b9bc
00000130: 261e 93bc 8d92 d53c 799d 53bd 65de 173d
00000140: 603a 4cbc 58d7 293d 05b8 073d 6beb 733d
00000150: 86b2 1ebd 7849 e53c f007 43bd 1f4f a1bc
00000160: 4056 44bd bf46 15bd 2df5 81bd e801 8f3d
00000170: 5a77 e23a b1ae 803c d549 bbbd 886e 003d
00000180: b472 aebc 9a37 b7bd 9e3a 1a3d ed69 133b
00000190: e4e8 263c b792 0dbd 6dbc 183d 58d7 e93c
000001a0: 37f7 2c3d a7ae 6e3d 7815 dabc a7fd 62bd
000001b0: 6050 493d 49eb d9bb d032 79bc c734 96bb
000001c0: 84ed cfbc b22b 7cbd 8bd8 7e3d b001 bf3d
000001d0: 6b5f dbbb 8d48 dbbc 7163 c4bb 4086 483d
000001e0: bb56 f23b dcfc 293d 5384 703c 19f3 4dbc
000001f0: 5680 4abd 8aa1 eb3b 1df0 8d3b c3c3 763d
00000200: d7cd d13b f869 713d 94b6 cc3c 23e3 173d
00000210: ce09 eabc 480b b03c 4589 40bd e7cc 4cbb
00000220: 5022 7ebd 766e 803d 5eda e5bb 987e 893b
00000230: 0ef1 02bd af0b 813d ba38 8d3c fb2d 4cbc
00000240: 4017 dabb 7cb4 0b3d 2f27 1a3d b155 50bd
00000250: c5c1 21bd f4a2 513d 48b7 acbb d26a 443d
00000260: c590 623d 6a9d e73b 19b9 46bc 5d74 42bc
00000270: 1be1 9cbc 289d e83c d5c9 9f3d 2ae2 8e3c
00000280: 2d88 ac3c 4565 3f3d 6263 c3bb 4788 95bc
00000290: 4408 bdbc 799a a8bb 0e69 b6bc dd75 173c
000002a0: 3555 103d 7fab a3bc 8f8a 3e3b ec5e 6d3c
000002b0: 743e d5bb 3cb3 853c 9208 4ebd a9b9 42bc
000002c0: 3aab 0abd 1edb 6cbd 1628 7bbd 52a9 41bd
000002d0: e8d1 603d 1f16 7b3d 9cb7 0b3a 2b32 e6bb
000002e0: 2544 bfbc ef6d 23bc a947 743d 7b93 1d3d
000002f0: 1ab7 44bc 60fb 8ebd 51d5 4bbb acdb 3c3d
00000300: 9081 473d e6d1 58bd 195f 89bb 2300 e6bc
00000310: 4e02 f6bc 4000 023c 372b cd3c bedd e1bc
00000320: 125a 273d b798 bdbd a5d8 70bc dff6 a7bb
00000330: 00ae 56bd 6192 74bc 3906 23bc 5a70 dabc
00000340: b9b8 353d c67d 4fbb 3b61 2ebd 08b9 33bd
00000350: a2c8 f43c e509 0dbd b8e1 393d 49b5 fcbc
00000360: f7b4 f3bc bae3 e7bc 1e6a 1abd 7c5c f03b
00000370: 5096 d73c ed80 8bbc 9609 653d 25db 80bd
00000380: f620 7d3c 8c6a 213c 5bb5 e9bc 12d9 abbc
00000390: e8e2 28bc 430e 2c3d d3d1 89bd 3aab 52bd
000003a0: 8972 0bbd 1b75 803d 4a63 823c 5004 b93c
000003b0: a8c3 38bd 0e53 c33c 102d a63d 66bf a33b
000003c0: e979 053d d64c dabc a05e 033d 0450 abbc
000003d0: 7e84 1e3d 46b0 7dbd 06a2 a43c 241e 2b3c
000003e0: 1ea8 fb3a aeda a63c e0e1 2fbd 725a d2bc
000003f0: 4edc 223d b605 f93c 7283 973b a6f7 be3b

pi.weight f4 [3, 256]
-0.05913055 0.042804576 -0.26630434 0.07200177 0.24661984 -0.045845028 -0.086946696 0.062220227
0.14049034 -0.082303934 -0.40096042 0.025759356 0.23590025 0.023894021 0.06261149 0.042835124
-0.11217219 0.0014441381 0.04602792 0.07753093 0.0175329 0.043179817 0.122720204 0.100863315
-0.042744227 0.03630848 -0.2374551 -0.24697225 0.012730358 -0.15071365 -0.06885831 0.03563179
0.12399275 -0.111793466 0.31309712 -0.059735462 -0.05248231 0.12274302 -0.06926418 -0.049609154
0.2119475 -0.09152913 -0.0367951 -0.062124074 0.44964686 -0.050559312 -0.10972527 0.01907211
-0.108146004 0.66730124 0.06631085 0.024909075 -0.05614353 0.045202665 -0.087573886 0.0022646664
-0.026059639 -0.09390354 0.01677477 -0.04480885 -0.037112195 -0.06718027 -0.0037125945 -0.0680562
0.12150523 0.603919 0.05420393 0.04731771 -0.1400994 -0.029450515 -0.042877756 -0.08396127
0.088269204 -0.25510344 0.20644528 -0.014945609 0.024124816 0.3892291 -0.069815055 0.08977758
0.090800434 0.016498258 0.03827106 0.03913608 0.013232924 0.64333594 0.098986745 -0.23076227
-0.10931501 -0.090082325 -0.05460945 -0.061518285 0.045153983 -0.032662213 -0.2314854 -0.11943284
-0.13560045 -0.19950256 0.065047115 0.011967599 -0.032001648 -0.057556175 -0.024665356 -0.18040149
-0.042632576 0.0048367092 0.19066444 -0.306894 0.0029961842 0.4726203 -0.08820983 0.029843822
0.027832404 -0.05221476 0.15068369 0.082286395 -0.071286626 0.036540378 -0.00027939415 0.045889746
-0.04573655 -0.004946729 0.003197769 0.030043565 0.11411453 -0.19487609 0.057625625 0.061566915
-0.12242296 -0.051291265 0.0037475561 0.14027837 0.010893834 0.012779345 0.27999204 -0.09845561
-0.22957651 0.019444175 -0.025596423 -0.118536755 -0.0450069 -0.12758891 -0.07609299 0.0044649653
-0.059855074 -0.028167134 -0.016594538 -0.78618455 -0.11150129 -0.122836635 0.0634828 -0.007119246
-0.10329608 -0.04794267 -0.040280484 -0.19078638 0.04548876 -0.01331877 0.05790721 -0.11631512
-0.2592852 -0.055866417 -0.028275631 0.08992221 0.15668166 0.064684495 0.06582292 0.050103337
0.08336763 0.056411665 0.04980606 -0.124688834 -0.027342534 -0.19476487 0.48594382 -0.0077963416
0.06352153 0.6011505 -0.24100275 -0.11666956 0.61789536 0.10221604 -0.05812166 -0.07901953
0.6607217 0.050614446 0.07188795 0.09494703 -0.037448753 0.5244408 -0.13720219 -0.062291186
0.10318274 0.18356477 0.19404653 0.022459239 -0.8207458 -0.049289707 -0.10561192 -0.502199
-0.038124736 -0.3680504 0.16705655 -0.057455577 0.032165878 0.08737489 0.8856764 0.03449986
-0.03037467 -0.108864315 -0.12319591 0.022097139 -0.38302618 0.0042334707 0.026849559 0.0045224624
0.029997297 -0.017220771 -0.15161493 -0.04637223 -0.0115798 0.06434104 0.8276811 0.047706485
0.1803919 -0.119548194 -0.03575053 0.09977308 0.004789509 0.35678878 0.6010277 0.040216763
0.061681747 0.07379213 -0.34111068 0.6961254 -0.04810807 0.24660349 0.079999335 0.4730964
0.110718556 -0.15438661 0.29631197 0.0743172 0.080659024 0.15179242 0.018899892 0.0936265
-0.08807287 -0.1357781 0.020380944 0.05586488 -0.14263754 -0.0041519413 -0.14311388 -0.46921358
00000000: e032 72bd da53 2f3d 0b59 88be aa75 933d
00000010: e989 7c3e ffc7 3bbd 1c11 b2bd a3da 7e3d
00000020: b3dc 0f3e f78e a8bd af4a cdbe 4905 d33c
00000030: d68f 713e 65bd c33c 743a 803d e273 2f3d
00000040: 88ba e5bd 3c49 bd3a c687 3c3d 89c8 9e3d
00000050: 28a1 8f3c 52dd 303d bb54 fb3d 6d91 ce3d
00000060: 9214 2fbd 33b8 143d 6e27 73be 4be6 7cbe
00000070: fe92 503c ae54 1abe 9605 8dbd a4f2 113d
00000080: e9ef fd3d f9f3 e4bd 444e a03e 2cad 74bd
00000090: b1f7 56bd b160 fb3d 61da 8dbd f832 4bbd
000000a0: c408 593e a073 bbbd 75b6 16bd d075 7ebd
000000b0: 1d38 e63e 4817 4fbd a4b7 e0bd 1d3d 9c3c
000000c0: a77b ddbd 41d4 2a3f fccd 873d 1e0e cc3c
000000d0: c2f6 65bd 6e26 393d f059 b3bd cc6a 143b
000000e0: 067b d5bc 8050 c0bd 3e6b 893c 7c89 37bd
000000f0: f502 18bd cf95 89bd 004f 73bb 0d61 8bbd
00000100: bcd7 f83d 709a 1a3f f104 5e3d 37d0 413d
00000110: 3876 0fbe 3542 f1bc 96a0 2fbd e3f3 abbd
00000120: 7cc6 b43d eb9c 82be 6466 533e 6dde 74bc
00000130: 68a1 c53c 0949 c73e 32fb 8ebd 4fdd b73d
00000140: 94f5 b93d 5b27 873c 1dc2 1c3d 274d 203d
00000150: e8ce 583c aab1 243f 90b9 ca3d f24c 6cbe
00000160: 8ce0 dfbd 157d b8bd 29ae 5fbd 99fa 7bbd
00000170: 62f3 383d d0c8 05bd 820a 6dbe 3499 f4bd
00000180: d8da 0abe 664a 4cbe 6c37 853d c013 443c
00000190: 2914 03bd 06c0 6bbd 000f cabc 2bbb 38be
000001a0: 7f9f 2ebd 427d 9e3b 8a3d 433e 3621 9dbe
000001b0: a15b 443b 4afb f13e 5ba7 b4bd 087b f43c
000001c0: c800 e43c 25df 55bd d34c 1a3e c585 a83d
000001d0: b9fe 91bd 5dab 153d a67b 92b9 e3f6 3b3d
000001e0: 4056 3bbd 2c18 a2bb a991 513b ec1d f63c
000001f0: e1b4 e93d 998d 47be d908 6c3d 972d 7c3d
00000200: e4b8 fabd ca16 52bd 8f99 753b 22a5 0f3e
00000210: 0d7c 323c 7560 513c 1e5b 8f3e 18a3 c9bd
00000220: 1b16 6bbe 6449 9f3c 97af d1bc 66c3 f2bd
00000230: 2859 38bd aba6 02be a4d6 9bbd d84e 923b
00000240: 982a 75bd c3be e6bc 45f1 87bc 6443 49bf
00000250: ca5a e4bd c691 fbbd 4503 823d 9048 e9bb
00000260: e58c d3bd 885f 44bd 26fd 24bd 815d 43be
00000270: 6c52 3a3d f836 5abc 1c30 6d3d 9f36 eebd
00000280: 08c1 84be 2fd4 64bd 4ca2 e7bc 2329 b83d
00000290: 2871 203e 4e79 843d 2bce 863d 2839 4d3d
000002a0: a6bc aa3d eb0f 673d 7001 4c3d dc5c ffbd
000002b0: 73fd dfbc 7170 47be a1cd f83e 7478 ffbb
000002c0: 9317 823d 00e5 193f 6dc9 76be 73f0 eebd
000002d0: 642e 1e3f a556 d13d fa10 6ebd fed4 a1bd
000002e0: 0f25 293f 1851 4f3d fd39 933d 9773 c23d
000002f0: dd63 19bd c141 063f bb7e 0cbe 0b25 7fbd
00000300: 7951 d33d 67f8 3b3e 22b4 463e 70fc b73c
00000310: 661c 52bf 01e4 49bd 104b d8bd 1d90 00bf
00000320: af28 1cbd 1a71 bcbe df10 2b3e 8a56 6bbd
00000330: 5ec0 033d 9bf1 b23d b0bb 623f ba4f 0d3d
00000340: 4dd4 f8bc 41f4 debd 234e fcbd 0f05 b53c
00000350: 021c c4be edb8 8a3b 9bf3 db3c 2a31 943b
00000360: e4bc f53c 9312 8dbc f240 1bbe cff0 3dbd
00000370: 34b9 3dbc 3cc5 833d e9e2 533f e067 433d
00000380: a7b8 383e afd5 f4bd 266f 12bd d455 cc3d
00000390: 50f1 9c3b 05ad b63e f4dc 193f 55ba 243d
000003a0: 00a6 7c3d 5420 973d 0fa6 aebe 4635 323f
000003b0: f80c 45bd a085 7c3e b1d6 a33d b139 f23e
000003c0: 69c0 e23d 8617 1ebe 34b6 973e 9e33 983d
000003d0: 8f30 a53d 796f 1b3e f2d3 9a3c 40bf bf3d
000003e0: 8d5f b4bd 6a09 0bbe f0f5 a63c 93d2 643d
000003f0: 930f 12be 020d 88bb 728c 12be c33c f0be

pi.bias f4 [3]
-0.0246269 -0.020383168 0.035861846
00000000: 5abe c9bc 9afa a6bc dfe3 123d
